Config/results/test_v7/SecurityGuard/SecurityGuard-49993.onnx (onnx, 76496 bytes, 9 tensors)

network_body.observation_encoder.processors.0.normalizer.running_mean f4 [7]
-0.007624199 0.0 0.040058542 4.0945206 -0.03744451 0.0 0.023824237
00000000: 6bd4 f9bb 0000 0000 6d14 243d 5006 8340
00000010: 6a5f 19bd 0000 0000 0c2b c33c

network_body._body_endoder.seq_layers.0.weight f4 [128, 7]
-0.28238708 0.3821435 -0.42871588 0.3004511 -0.1775039 -0.020175112 0.20293397 -0.17317794
0.7766588 -0.011260797 0.63828826 0.6103337 0.10281361 0.11187072 0.015351557 0.7179275
0.14850678 0.36959004 -0.6865858 -0.13049053 0.57862824 0.5490447 -0.605784 0.5546773
-0.20225798 0.325918 0.67879516 0.1287419 0.2033611 0.38396624 -0.23385368 -0.22755238
0.1345851 0.3246469 -0.3873838 -0.68756145 -0.18067198 0.43177232 -0.15353584 -0.67291665
-0.49362475 0.06538874 -0.14449394 -0.1078038 0.2831842 -0.262676 -0.41368917 0.20453808
-0.013154562 0.07607543 -0.31900755 -0.15310872 -0.49794975 0.7361332 -0.16811918 -0.25778383
0.62817067 0.34872293 0.5059962 -0.5915357 -0.060579177 -0.34253228 0.51994574 0.24991983
0.41336086 -0.50486296 0.27994698 0.14698066 -0.45434862 -0.15201789 -0.2791898 -0.5427451
0.14621527 -0.41535065 -0.24281296 -0.31691214 0.121225975 0.46184638 -0.09739684 -0.70027584
-0.5537592 -0.39601064 -0.06792232 -0.012798766 -0.09616267 -0.15396202 0.5826485 -0.48239335
0.23448421 -0.29016492 -0.06606835 0.14542148 0.11513843 -0.023230279 -0.12943244 -0.65752405
0.010835737 0.30434915 0.15532428 -0.27862003 -0.50384855 -0.57414967 -0.29152647 0.015625114
-0.8327286 -0.36403632 -0.013477815 -0.15976495 -0.18522926 -0.24783894 -0.41730016 0.76110905
0.08394201 0.41968963 -0.16027358 0.0059968964 -0.641984 0.32553458 -0.27240756 -1.0179055
0.036174502 0.021180255 -0.6832214 0.06666768 0.023326267 0.23525004 -0.2168756 0.37596878
-0.30642495 -0.24475661 -0.16227426 -0.07020709 0.09297797 0.42244467 -0.34808296 -0.4168109
-0.13762686 1.4159814 0.24979584 0.34861362 0.35433367 0.03464301 -0.18828091 -0.16733591
-0.30018497 0.2985188 0.062072303 -0.36940455 -0.0752832 -0.36236233 -0.10785506 -0.48447785
0.2708295 -0.31804982 0.0868381 -0.32070187 -0.05587173 -0.45939374 0.24306639 -0.5091521
-0.4209772 0.08005117 0.15264912 0.14614205 0.28597733 -0.2612221 -0.016997576 -0.41275835
0.12812251 0.25406373 0.74120665 -0.19727184 0.2648883 0.042370398 0.11317429 0.22633746
-0.1052339 0.48015627 -0.0713961 0.48986503 -0.48284966 0.2929334 -0.13321976 -0.179026
-0.9085442 -0.10324212 -0.3557615 0.5582043 0.14985476 0.036929943 -0.51445776 0.053947035
0.45570728 0.8333668 0.013738779 0.44712785 0.45401007 0.032552764 0.2453856 -0.041326158
0.11581116 -0.11518994 -0.20411731 -0.34523118 0.32151818 0.15062793 -0.25194588 0.25806025
-0.8720969 0.216513 -0.14687003 0.41321373 -0.4040623 -0.34310022 0.19175076 -0.7777548
0.43678918 0.19733119 0.2962658 0.28431606 -0.509496 -0.40013835 -0.09263585 -0.7905759
0.51402706 0.43271595 0.2696432 0.4425794 -0.068550415 -0.14804143 -0.29631805 -0.13799244
-0.2464287 -0.45954293 0.34274346 0.1520629 -0.19387195 0.8633143 0.32449433 0.67142206
0.47142392 0.029733187 0.7058604 -0.015746696 -0.41909388 0.23781878 0.071080476 0.24689299
-0.4400094 0.16512094 -0.11702836 -0.40066442 -0.32550475 0.17838782 0.013273804 -0.32103136
00000000: 0a95 90be 50a8 c33e a680 dbbe bad4 993e
00000010: 95c3 35be 4746 a5bc eccd 4f3e 8f55 31be
00000020: 1cd3 463f 357f 38bc dc66 233f d43e 1c3f
00000030: f18f d23d 7a1c e53d 1985 7b3c 19ca 373f
00000040: 2912 183e e83a bd3e 16c4 2fbf 4f9f 05be
00000050: fb20 143f 328e 0c3f a914 1bbf 55ff 0d3f
00000060: b71c 4fbe b9de a63e 85c5 2d3f ebd4 033e
00000070: e43d 503e 3997 c43e 5777 6fbe 7e03 69be
00000080: add0 093e 1e38 a63e 2b57 c6be 0704 30bf
00000090: 1302 39be 4311 dd3e 8038 1dbe 4444 2cbf
000000a0: 62bc fcbe 88ea 853d 38f6 13be 3dc8 dcbd
000000b0: 85fd 903e 787d 86be 11cf d3be 6e72 513e
000000c0: 3b86 57bc 6fcd 9b3d f554 a3be 88c8 1cbe
000000d0: 45f3 febe 3a73 3c3f 6f27 2cbe 3efc 83be
000000e0: cbcf 203f d08b b23e f888 013f e26e 17bf
000000f0: df21 78bd 6460 afbe 2a1b 053f fcea 7f3e
00000100: 09a4 d33e b33e 01bf 3655 8f3e 1982 163e
00000110: 62a0 e8be 94aa 1bbe f7f1 8ebe 58f1 0abf
00000120: 75b9 153e d7a8 d4be f6a3 78be 4f42 a2be
00000130: 5345 f83d 2177 ec3e ff77 c7bd 4745 33bf
00000140: 2ac3 0dbf e8c1 cabe db1a 8bbd eab1 51bc
00000150: eff0 c4bd 38a8 1dbe 7428 153f 43fc f6be
00000160: a11c 703e 7f90 94be d84e 87bd 5ee9 143e
00000170: b2cd eb3d 6d4d bebc f089 04be 7f53 28bf
00000180: 6088 313c a7d3 9b3e 540d 1f3e 49a7 8ebe
00000190: 38fc 00bf 79fb 12bf f542 95be 3d00 803c
000001a0: b42d 55bf f862 babe 0ed2 5cbc 6c99 23be
000001b0: bdac 3dbe 7ec9 7dbe 5ea8 d5be 0bd8 423f
000001c0: cae9 ab3d 8fe1 d63e c21e 24be 9d81 c43b
000001d0: 1059 24bf 78ac a63e 0179 8bbe ba4a 82bf
000001e0: b72b 143d 3782 ad3c 99e7 2ebf 1189 883d
000001f0: ba16 bf3c 63e5 703e a314 5ebe fb7e c03e
00000200: bbe3 9cbe 7aa1 7abe 392b 26be bcc8 8fbd
00000210: 3c6b be3d ab4a d83e ee37 b2be 3d68 d5be
00000220: 0eee 0cbe e13e b53f 7bca 7f3e 7c7d b23e
00000230: 396b b53e d4e5 0d3d b6cc 40be 1b5a 2bbe
00000240: d8b1 99be 75d7 983e 873f 7e3d 9822 bdbe
00000250: 142e 9abd 8e87 b9be 1de3 dcbd 7b0d f8be
00000260: 2aaa 8a3e 6dd7 a2be 2cd8 b13d 0933 a4be
00000270: c1d9 64bd a835 ebbe 65e6 783e cb57 02bf
00000280: 538a d7be def1 a33d 0d50 1c3e 43a6 153e
00000290: 9f6b 923e e7be 85be 803e 8bbc 1055 d3be
000002a0: 8c32 033e a414 823e b8bf 3d3f a101 4abe
000002b0: 709f 873e 958c 2d3d ecc7 e73d 02c5 673e
000002c0: df84 d7bd 0bd7 f53e 1e38 92bd 97cf fa3e
000002d0: 1238 f7be 5efb 953e c36a 08be 9752 37be
000002e0: 5a96 68bf 9b70 d3bd 5f26 b6be 7ae6 0e3f
000002f0: 8773 193e da43 173d 81b3 03bf 91f7 5c3d
00000300: 7752 e93e 8757 553f 9e18 613c f1ed e43e
00000310: 0274 e83e 0c56 053d 5d46 7b3e 9e45 29bd
00000320: 672e ed3d b4e8 ebbd 2104 51be 24c2 b0be
00000330: 089e a43e 353e 1a3e 0dff 80be 7920 843e
00000340: be41 5fbf 95b5 5d3e 1965 16be c090 d33e
00000350: 41e1 cebe d5aa afbe 505a 443e f01a 47bf
00000360: d5a2 df3e 3011 4a3e 27b0 973e e091 913e
00000370: 546e 02bf efde ccbe ddb7 bdbd 2f63 4abf
00000380: 4797 033f f28c dd3e ac0e 8a3e c499 e23e
00000390: 2964 8cbd 2c98 17be 00b7 97be e44d 0dbe
000003a0: ce57 7cbe 3649 ebbe 127c af3e 60b6 1b3e
000003b0: 5e86 46be 2a02 5d3f 1f24 a63e 51e2 2b3f
000003c0: 7a5e f13e 0393 f33c 44b3 343f 37ff 80bc
000003d0: 7993 d6be c486 733e a492 913d 84d1 7c3e
000003e0: e948 e1be 7715 293e 91ac efbd e323 cdbe
000003f0: 8fa8 a6be 4cab 363e 5f7a 593c 395e a4be

network_body._body_endoder.seq_layers.0.bias f4 [128]
0.007941801 -0.09566526 0.0016432137 0.020629555 -0.040710445 -0.005237344 0.04537126 -0.0076213344
0.046338476 0.010724239 -0.025785739 0.02044396 0.041987993 -0.0079465965 -0.018049836 -0.010195939
-0.0030148686 0.006962472 -0.027484318 0.01039786 0.0008662823 -0.086546764 -0.06380823 -0.0016729444
0.06170915 0.048199233 -0.050222766 0.039415438 0.041524936 0.016336259 0.015162837 0.07258524
0.0394986 0.024412744 0.008882312 0.02223829 -0.024359496 -0.032400943 0.052405473 0.074214704
0.068152145 -0.07094987 0.044812426 0.06002307 -0.035178043 -0.003801922 0.0331929 0.046266247
0.041334707 0.004764847 -0.040939305 -0.023405677 0.042879265 -0.0017365669 0.03112992 0.03304946
-0.054426465 0.016364798 0.022330666 0.019047614 0.02239025 0.057624903 0.041800745 0.07537066
0.0028629105 0.0066936705 0.037339814 0.05297652 0.016529325 0.0062174057 0.04203118 -0.007929571
0.012631269 0.017303202 -0.005125841 0.009657392 0.0028649184 0.012313567 -0.012043502 -0.008174494
0.035276037 -0.0018333258 -0.020067334 -0.035611104 -0.008793246 0.011967514 0.008280719 0.019985223
-0.01976228 0.055657286 0.04396537 0.06747822 0.05043881 0.002722348 0.003206167 0.014318612
-0.025632376 0.07444582 0.038370892 -0.01918971 -0.040422842 0.011335177 0.03721814 0.040653355
0.012190889 0.03848048 -0.03661061 -0.009235467 0.027577402 0.0073344423 -0.0034068404 -0.044906903
0.041836157 -0.0052460325 0.024634749 0.0043593557 0.027588468 -0.08135987 0.044791237 -0.0065059992
-0.0022565108 -0.04148256 0.02673699 -0.035912562 0.008086344 0.06114759 0.041434716 0.04139721
00000000: 541e 023c 26ec c3bd 1a61 d73a 50ff a83c
00000010: ffbf 26bd 079e abbb 37d7 393d 63bc f9bb
00000020: 6acd 3d3d b8b4 2f3c 9d3c d3bc 177a a73c
00000030: 9afb 2b3d 7132 02bc 40dd 93bc de0c 27bc
00000040: 1a95 45bb 7325 e43b cb26 e1bc c95b 2a3c
00000050: 3917 633a 6e3f b1bd e4ad 82bd b346 dbba
00000060: bcc2 7c3d 8f6c 453d 63b6 4dbd 1572 213d
00000070: 0d16 2a3d 9ed3 853c 8c6d 783c 92a7 943d
00000080: 49c9 213d 3cfd c73c 1e87 113c 132d b63c
00000090: 918d c7bc dab6 04bd 1fa7 563d e1fd 973d
000000a0: 5a93 8b3d 2a4e 91bd 3c8d 373d c0da 753d
000000b0: da16 10bd ab29 79bb 47f5 073d ad81 3d3d
000000c0: 954e 293d 6f22 9c3b f9af 27bd 43bd bfbc
000000d0: 2ba2 2f3d 849d e3ba 2d04 ff3c df5e 073d
000000e0: 49ee 5ebd 780f 863c cdee b63c be09 9c3c
000000f0: c26b b73c 1708 6c3d 4237 2b3d ef5b 9a3d
00000100: ab9f 3b3b 9456 db3b a2f1 183d e8fd 583d
00000110: 8268 873c 61bb cb3b e328 2c3d 08eb 01bc
00000120: 62f3 4e3c 72bf 8d3c acf6 a7bb 0a3a 1e3c
00000130: 5bc1 3b3b d8be 493c 1c52 45bc 50ee 05bc
00000140: 9b7d 103d 354c f0ba 4064 a4bc f3dc 11bd
00000150: 8c11 10bc 6413 443c daab 073c 0db8 a33c
00000160: 81e4 a1bc e5f8 633d 0815 343d 0532 8a3d
00000170: ed98 4e3d 6c69 323b 8e1e 523b 9d98 6a3c
00000180: fdfa d1bc 0d77 983d cc2a 1d3d bd33 9dbc
00000190: 6c92 25bd 2eb7 393c 0c72 183d 2284 263d
000001a0: 4bbc 473c b59d 1d3d 02f5 15bd 5b50 17bc
000001b0: 01ea e13c c355 f03b 4c45 5fbb 4df0 37bd
000001c0: 645c 2b3d e9e6 abbb d0ce c93c edd8 8e3b
000001d0: 3601 e23c 01a0 a6bd 0477 373d 4730 d5bb
000001e0: f8e1 13bb 9ee9 29bd 8807 db3c 0d19 13bd
000001f0: 967c 043c e575 7a3d 73b7 293d 1f90 293d

network_body._body_endoder.seq_layers.2.weight f4 [128, 128]
0.01909054 0.10732096 0.08269297 0.014039075 -0.06486266 -0.025271444 -0.015836578 -0.07474543
-0.01911971 -0.03480885 0.06528172 0.10206518 -0.10858891 -0.07834449 0.040644266 -0.090004906
-0.00662101 0.016446462 -0.0015479818 0.16046596 0.17219844 0.008726442 0.015444635 0.01606922
-0.09782589 0.005445444 0.005944587 -0.04610582 0.040845037 0.051208537 -0.053000037 0.07375659
0.15259767 -0.119053274 0.053906165 -0.056091424 -0.037196543 -0.11748712 0.11634869 0.054576796
0.11310888 0.017827688 0.115681045 0.116914466 0.015529126 -0.081594385 0.14961097 -0.13023691
-0.13696271 -0.08143491 -0.021032246 -0.06313517 0.09019296 0.0047232546 -0.016095797 0.103170276
-0.073377535 -0.119660884 -0.08900386 -0.041126847 -0.009271535 0.15630884 -0.028296096 0.041310444
0.048208326 -0.0040098033 -0.022742376 0.016751474 -0.016952878 -0.048485238 -0.00965257 -0.22078042
0.050307646 -0.11856169 -0.054541636 0.10641365 0.22220726 0.104899995 -0.010032647 0.0033668592
0.09671613 0.020190997 -0.03784047 0.005283976 -0.10830542 -0.1275301 -0.05589057 -0.14591992
-0.02586497 0.2002709 0.019614793 0.05598647 -0.0016685722 0.1013383 0.07369835 -0.07107167
0.0713111 0.045549747 -0.20923555 -0.0069228853 0.086720265 -0.04135858 0.020478912 -0.06454272
0.076503485 0.13712887 0.10486728 -0.22279577 -0.059942298 -0.13441585 0.08734682 0.034960542
-0.1190228 0.098888054 -0.08280481 0.05254817 0.006993929 0.12505879 0.033955056 -0.032387212
0.07673902 -0.061252274 -0.08153554 -0.10968697 -0.06026041 0.0030529343 0.044776168 -0.055750035
0.03738759 -0.061016485 -0.017658958 0.018415326 0.025774857 -0.02169538 0.041148543 -0.004230143
0.030580709 -0.16017435 -0.1531348 0.015400719 0.03688707 0.06305529 0.00299288 -0.17860244
0.05916986 0.20114055 0.10562242 0.0687306 0.08083591 -0.12682208 0.062869914 -0.16888182
0.21656078 0.12752163 -0.0063472334 0.024212444 0.06217634 0.013765522 0.01426369 0.05540671
0.07297049 -0.011563408 0.055734415 0.053677473 -0.08477199 -0.00050426845 -0.04540151 0.110320784
-0.01389693 0.07571052 -0.13053441 0.038006634 -0.072039254 -0.17135656 0.101221286 -0.064179815
0.15439706 -0.08353965 -0.07063771 -0.041605435 0.08013694 -0.2062183 -0.037627716 0.0048173713
0.042796902 -0.06936527 -0.07052003 -0.06226612 -0.054183315 -0.15128902 0.066910736 -0.08023928
-0.12850025 0.0704412 0.07369435 -0.044494253 0.084350444 0.07240636 0.075186156 -0.10289771
-0.11342559 -0.058256406 0.06357414 0.06309636 0.040676292 -0.07290484 -0.08228732 -0.053721268
0.16272588 -0.0735873 0.08384193 -0.1369395 -0.017324828 -0.02761718 0.15115985 0.035596747
-0.12931758 0.15822838 0.12004775 0.0033566623 -0.029586457 0.0053098924 -0.012452333 -0.0018262438
0.0034944585 -0.011993218 -0.10687079 -6.873723e-05 -0.08215355 0.024630824 0.12732977 -0.053132504
-0.07894667 0.012514769 0.05897924 0.19084716 0.01035446 -0.06628015 -0.11342068 -0.01710917
0.028087102 0.09528014 -0.15235938 -0.20218717 -0.088602774 -0.00372953 0.08764388 -0.014431605
-0.0703383 -0.11075382 -0.09787757 0.015798982 -0.06464222 -0.12148837 0.06186204 0.020246247
00000000: c463 9c3c 17cb db3d ef5a a93d 2604 663c
00000010: b7d6 84bd 0f06 cfbc b6bb 81bc 2214 99bd
00000020: f0a0 9cbc ba93 0ebd 6cb2 853d 8d07 d13d
00000030: dd63 debd 1373 a0bd 9a7a 263d 7e54 b8bd
00000040: 0ff5 d8bb bbba 863c a6e5 caba 3051 243e
00000050: ca54 303e 5af9 0e3c 7f0b 7d3c 99a3 833c
00000060: f158 c8bd b26f b23b cfca c23b 75d9 3cbd
00000070: 204d 273d 0bc0 513d 9116 59bd b20d 973d
00000080: 9042 1c3e 34d2 f3bd b6cc 5c3d 1fc0 65bd
00000090: 675b 18bd 169d f0bd 3948 ee3d eb8b 5f3d
000000a0: a1a5 e73d 5f0b 923c 2fea ec3d da70 ef3d
000000b0: e06d 7e3c f51a a7bd 9e33 193e d35c 05be
000000c0: f43f 0cbe 59c7 a6bd d14b acbc 034d 81bd
000000d0: 16b7 b83d 88c5 9a3b 55db 83bc f04a d33d
000000e0: f646 96bd c410 f5bd a847 b6bd a074 28bd
000000f0: a3e7 17bc 6d0f 203e 37cd e7bc 2435 293d
00000100: 1876 453d ab64 83bb 384e babc 633a 893c
00000110: c3e0 8abc 7598 46bd d025 1ebc 4314 62be
00000120: 640f 4e3d 79d0 f2bd 0d67 5fbd 66ef d93d
00000130: 4d8a 633e cfd5 d63d f95f 24bc 86a6 5c3b
00000140: 1b13 c63d 9767 a53c 9cfe 1abd 3425 ad3b
00000150: 3bcf ddbd 4097 02be 83ed 64bd 086c 15be
00000160: c6e2 d3bc d113 4d3e 34af a03c 1252 653d
00000170: feb3 daba 748a cf3d 29ef 963d 068e 91bd
00000180: 8e0b 923d 5f92 3a3d d841 56be 5fd9 e2bb
00000190: 659a b13d 9d67 29bd 64c3 a73c f92e 84bd
000001a0: dcad 9c3d 836b 0c3e a8c4 d63d 9324 64be
000001b0: 0e86 75bd 4fa4 09be e4e2 b23d c932 0f3d
000001c0: 3ac2 f3bd d285 ca3d 9195 a9bd c03c 573d
000001d0: 542d e53b 690f 003e 7514 0b3d 74a8 04bd
000001e0: 5929 9d3d aae3 7abd 1bfc a6bd 90a3 e0bd
000001f0: 9fd3 76bd bd13 483b 3767 373d 265a 64bd
00000200: bb23 193d 6cec 79bd 85a9 90bc bddb 963c
00000210: cb25 d33c 82ba b1bc 608b 283d 039d 8abb
00000220: 6584 fa3c bf04 24be 5ecf 1cbe 4c53 7c3c
00000230: e516 173d 2223 813d 3224 443b 8fe3 36be
00000240: 185c 723d caf7 4d3e 9150 d83d a1c2 8c3d
00000250: 4c8d a53d a6dd 01be f1c1 803d 5bef 2cbe
00000260: 1cc2 5d3e 0895 023e 74fc cfbb 2d59 c63c
00000270: 9eac 7e3d c988 613c 41b2 693c 25f2 623d
00000280: 8d71 953d 7374 3dbc c549 643d e9dc 5b3d
00000290: f09c adbd e230 04ba eff6 39bd ddef e13d
000002a0: f3af 63bc 1e0e 9b3d d0aa 05be d8ac 1b3d
000002b0: 5189 93bd 1878 2fbe 1b4d cf3d b570 83bd
000002c0: 431a 1e3e d616 abbd 81aa 90bd 766a 2abd
000002d0: d61e a43d e42a 53be 851f 1abd 0adb 9d3b
000002e0: ce4b 2f3d 610f 8ebd ce6c 90bd c20a 7fbd
000002f0: 53ef 5dbd 82eb 1abe 7f08 893d 7e54 a4bd
00000300: 9295 03be 7a43 903d 10ed 963d 9b3f 36bd
00000310: edbf ac3d c949 943d 33fb 993d 09bc d2bd
00000320: ad4b e8bd 459e 6ebd 2933 823d aa38 813d
00000330: 2f9c 263d 224f 95bd 4186 a8bd d50a 5cbd
00000340: 9da1 263e f0b4 96bd 51b5 ab3d de39 0cbe
00000350: ccec 8dbc 6d3d e2bc a6c9 1a3e e5cd 113d
00000360: d46b 04be 9f06 223e 98db f53d 73fb 5b3b
00000370: 4c5f f2bc 9bfe ad3b df04 4cbc 935e efba
00000380: 4903 653b 347f 44bc 13df dabd 0527 90b8
00000390: 1f40 a8bd 95c6 c93c bc62 023e 78a1 59bd
000003a0: cbae a1bd bf0a 4d3c 3794 713d 706d 433e
000003b0: c1a5 293c e3bd 87bd 1a49 e8bd 8828 8cbc
000003c0: ec16 e63c 3c22 c33d 1904 1cbe 270a 4fbe
000003d0: 5f75 b5bd 216b 74bb a27e b33d 8a72 6cbc
000003e0: 870d 90bd e6d2 e2bd 0974 c8bd de6c 813c
000003f0: 2463 84bd e5ce f8bd 0d63 7d3d 75db a53c

network_body._body_endoder.seq_layers.2.bias f4 [128]
0.01393779 0.013622526 0.017000504 -0.0010266037 0.020741286 0.02929851 0.014446474 0.049979575
0.054809213 0.04106695 0.005714835 0.02793331 0.021115912 0.03412828 0.015043349 -0.0022221738
0.023373712 0.052162524 0.060607653 0.029361364 0.0038731298 0.017753314 0.058846362 -0.007176416
-0.024574284 0.01278619 0.023768589 0.049301777 0.052809093 0.016500236 0.014822153 0.010106069
0.020974148 0.0019104895 0.08038386 0.007725928 0.0045041153 -0.006655633 0.014466075 -0.0025960463
0.01993403 0.01901362 0.023154574 0.01801846 0.017760571 0.034161314 0.03653391 -0.03342707
0.021025892 0.0069737327 0.01956786 0.01761038 0.0018836171 0.023602013 0.0024074179 0.036157608
0.0076119024 0.025467219 0.040124282 0.034533326 0.044154003 0.01972367 -0.0051774224 0.00711577
0.020001836 0.038339864 0.05625434 0.0004655533 -0.0061405874 0.055073123 0.010902164 0.0074894545
0.05583373 0.029199293 -0.0061796503 0.020577105 0.03409632 0.019438175 0.010948711 -0.014416188
0.009581668 -0.0027010096 0.00045935606 -0.006867283 0.03335868 0.018253384 -0.0022358003 0.0030571313
0.038754143 -0.0055284873 0.04053457 0.037216354 0.02723122 0.024369026 0.07405375 0.009990756
0.019850165 0.012229957 0.006164706 -0.0037688748 0.0019224496 0.043194175 0.003087148 0.0457691
0.027509773 -0.0077627017 0.036635462 -0.0025327327 -0.004757842 0.034702484 0.02362378 0.004706676
-0.02489915 -0.0008041766 0.01295099 -0.010404384 -0.028236622 0.08454878 0.023470491 0.057676133
0.058953088 0.03896566 0.014676566 0.02823277 0.03751999 0.04195818 0.0149740325 0.025886558
00000000: 545b 643c 0431 5f3c a444 8b3c 1b8f 86ba
00000010: a1e9 a93c 6e03 f03c e7b0 6c3c 62b7 4c3d
00000020: a07f 603d d135 283d 8343 bb3b 66d4 e43c
00000030: 47fb ac3c 18ca 0b3d 6178 763c e4a1 11bb
00000040: 3a7a bf3c 5fa8 553d bb3f 783d 3e87 f03c
00000050: 56d4 7d3b 666f 913c e208 713d 2428 ebbb
00000060: 0250 c9bc 2b7d 513c 58b6 c23c a9f0 493d
00000070: 594e 583d 812b 873c 9ed8 723c ed93 253c
00000080: fad1 ab3c 6469 fa3a 4ba0 a43d c829 fd3b
00000090: 4297 933b 7f17 dabb 1e03 6d3c 6e22 2abb
000000a0: b14c a33c 74c2 9b3c a9ae bd3c 739b 933c
000000b0: 9e7e 913c bcec 0b3d 95a4 153d d3ea 08bd
000000c0: 7e3e ac3c e983 e43b c74c a03c a543 903c
000000d0: b4e3 f63a 0259 c13c c5c5 1d3b 001a 143d
000000e0: 446d f93b a1a0 d03c 5c59 243d d172 0d3d
000000f0: d4da 343d 8993 a13c 5ea7 a9bb 682b e93b
00000100: e4da a33c 430a 1d3d f36a 663d 8215 f439
00000110: fb36 c9bb 5b94 613d fd9e 323c 196a f53b
00000120: e9b1 643d 5b33 ef3c aa7e cabb 5191 a83c
00000130: 95a8 0b3d cf3c 9f3c 3962 333c e031 6cbc
00000140: 6efc 1c3c 6c03 31bb bad5 f039 f206 e1bb
00000150: 1ca3 083d 1f88 953c 8186 12bb 275a 483b
00000160: aabc 1e3d 5028 b5bb 9407 263d 2d70 183d
00000170: 0214 df3c 8da1 c73c 7ea9 973d 45b0 233c
00000180: d09c a23c 2860 483c 4d01 ca3b 3aff 76bb
00000190: b4fa fb3a 60ec 303d c051 4a3b 6178 3b3d
000001a0: 2d5c e13c 435e febb 110f 163d 34fc 25bb
000001b0: ace7 9bbb 3124 0e3d a886 c13c 763a 9a3b
000001c0: 4df9 cbbc 61cf 52ba 6430 543c 2677 2abc
000001d0: 7d50 e7bc e927 ad3d 3045 c03c cf3d 6c3d
000001e0: cb78 713d 759a 1f3d fb75 703c 6948 e73c
000001f0: 90ae 193d 57dc 2b3d a555 753c 0c10 d43c

action_model._continuous_distribution.log_sigma f4 [1, 2]
-0.054924082 -0.12216253
00000000: 13f8 60bd 5930 fabd

action_model._continuous_distribution.mu.weight f4 [2, 128]
0.04011431 0.050272312 -0.030165616 -0.050162677 -0.08064198 0.08974834 0.026717255 -0.06346975
-0.0055690994 0.055417385 -0.06050319 -0.05025834 -0.05653982 0.044819213 0.06666908 -0.048512675
-0.061106924 0.04152718 0.054678075 -0.03068327 0.013637189 0.07142281 0.04645978 -0.004370266
0.007436757 0.015925791 -0.0698461 0.01752942 0.075164065 0.0372943 -0.07930347 0.011111722
-0.027859062 0.032771043 0.032168187 0.004469837 -0.037090052 -0.040252525 0.034903344 -0.021585122
0.0074226973 0.044402633 0.06709118 -0.049791873 0.034465715 0.06542465 0.0083695315 -0.004817571
-0.059985515 0.021455416 0.04931094 -0.06560181 0.0009171584 0.054894645 -0.029041026 -0.00040187346
-0.03298981 -0.09620447 0.0766717 0.074158415 0.0838109 0.046345975 -0.039182115 -0.004375829
-0.013168857 0.043205902 0.06333437 0.016471012 -0.02805429 0.02185042 0.060419425 0.01003784
0.020690572 0.04175335 -0.02439739 -0.0377468 0.07161939 0.048312087 -0.083509445 -0.008184536
0.02847667 -0.002486565 0.0188074 0.011484135 0.038353987 0.0016462458 0.030931832 0.07730521
-0.0760376 -0.037161846 -0.040485095 0.014247628 -0.03147869 -0.031012284 0.030834462 -0.048564903
0.07128307 0.027076172 -0.0013344366 -0.018165536 -0.060603194 0.056757126 0.022242313 0.047809754
0.062050503 0.022751702 -0.0940885 -0.010966694 0.0021578253 -0.014091968 -0.031211969 0.01827341
-0.005751505 0.029642636 0.004186023 0.008309581 -0.01201611 0.077061616 -0.009713148 0.047758803
0.047101766 0.011208935 -0.04724922 0.060397845 -0.06697296 0.062582344 -0.043327734 -0.0628252
0.028775606 0.017702343 -0.08140925 0.0139663 0.020661758 -0.033646207 -0.0025775624 -0.07341813
0.09089372 -0.02233097 -0.010733906 0.03717049 0.011517586 0.0053261593 0.0014244742 -0.07944755
-0.006437945 0.08792104 0.08087993 0.046293363 -0.0782056 -0.00016119801 0.09555263 -0.035987306
-0.058074124 -0.08195874 -0.019909533 0.07740808 0.054250304 -0.05477716 -0.009857341 -0.034519263
0.042463485 -0.0048783463 0.06116049 0.020541988 -0.006601663 -0.02264081 -0.033382516 0.010746645
0.012021332 -0.042865396 0.045746937 -0.0032410924 0.0008501324 -0.039304756 0.09525214 -0.016431086
0.015913691 -0.0631438 -0.038302414 0.01270294 0.011969239 -0.05455055 -0.019027911 0.072188646
0.028717207 -0.016267108 0.034625866 -0.0020199395 0.024191337 -0.009733852 -0.026791282 -0.053922117
0.05392362 0.07852891 0.041315667 -0.092059895 -0.030805653 0.074309565 -0.010466635 -0.08176055
0.09374024 0.041071177 -0.05859768 -0.071614034 0.01462733 -0.008358417 -0.03221465 -0.0059932526
0.019820357 -0.055231422 -0.015149806 -0.0052868747 0.015963413 0.031664677 -0.049077526 -0.029460374
0.0799282 -0.0343248 0.048678216 0.052081667 0.022129515 0.035354745 0.092006214 0.00853772
-0.019042155 0.00013734488 0.008684695 -0.0488264 0.008732768 0.04573432 -0.030744173 0.08770782
-0.037408814 -0.022370635 -8.637816e-05 -0.032667235 -0.06278984 0.06098587 0.008590937 0.020608895
-0.026268292 -0.044041317 0.04552006 -0.022350905 -0.004019764 0.061878845 0.02839254 0.10229049
0.0714765 0.07483712 -0.039797988 -0.035062835 -0.004755582 0.023030143 0.043315683 -0.021627111
00000000: e74e 243d 57ea 4d3d e21d f7bc 6177 4dbd
00000010: 9f27 a5bd facd b73d 25de da3c 6efc 81bd
00000020: fe7c b6bb 57fd 623d 31d2 77bd b0db 4dbd
00000030: 4c96 67bd 5a94 373d cc89 883d 3ab5 46bd
00000040: 414b 7abd 6718 2a3d 1ef6 5f3d 7b5b fbbc
00000050: 846e 5f3c 1f46 923d 9c4c 3e3d 7334 8fbb
00000060: 0ab0 f33b ce76 823c 790b 8fbd dc99 8f3c
00000070: 9eef 993d e8c1 183d dc69 a2bd f10d 363c
00000080: b038 e4bc ee3a 063d cac2 033d b677 923b
00000090: bdeb 17bd d5df 24bd cff6 0e3d 48d3 b0bc
000000a0: 193a f33b 89df 353d 1a67 893d 90f2 4bbd
000000b0: ec2b 0d3d 5cfd 853d 5c20 093c b7dc 9dbb
000000c0: 5fb3 75bd 45c3 af3c 45fa 493d 3e5a 86bd
000000d0: 756d 703a 35d9 603d 72e7 edbc 8bb2 d2b9
000000e0: 5320 07bd d906 c5bd 0d06 9d3d 5ee0 973d
000000f0: 0da5 ab3d 47d5 3d3d 6d7d 20bd 1d63 8fbb
00000100: 31c2 57bc acf8 303d 73b5 813d 37ee 863c
00000110: 1cd2 e5bc a7ff b23c 5c7a 773d c175 243c
00000120: 467f a93c 9005 2b3d 09dd c7bc 639c 1abd
00000130: 30ad 923d e5e2 453d 0007 abbd 6f18 06bc
00000140: e847 e93c a3f5 22bb fa11 9a3c f427 3c3c
00000150: 1219 1d3d d8c6 d73a c164 fd3c 3252 9e3d
00000160: 9ab9 9bbd 0537 18bd b3d3 25bd e26e 693c
00000170: cdef 00bd 790d febc 8e98 fc3c feeb 46bd
00000180: dcfc 913d d9ce dd3c 43e8 aeba e4cf 94bc
00000190: 0e3b 78bd 297a 683d 8335 b63c 29d4 433d
000001a0: ab28 7e3d c761 ba3c 79b1 c0bd a6ad 33bc
000001b0: 4d6a 0d3b ffe1 66bc 3eb0 ffbc 1eb2 953c
000001c0: 1f77 bcbb 1dd5 f23c e82a 893b e924 083c
000001d0: 38df 44bc 7bd2 9d3d e523 1fbc bc9e 433d
000001e0: c8ed 403d aea5 373c 6688 41bd bb63 773d
000001f0: 1f29 89bd 2c2b 803d 6c78 31bd 80aa 80bd
00000200: d2ba eb3c 8104 913c e5b9 a6bd e8d2 643c
00000210: d942 a93c 9bd0 09bd 52ec 28bb 3f5c 96bd
00000220: 7d26 ba3d 70ef b6bc 44dd 2fbc 1540 183d
00000230: 42b4 3c3c 1087 ae3b 6cb5 ba3a 66b5 a2bd
00000240: 66f5 d2bb f20f b43d 60a4 a53d 1c9e 3d3d
00000250: 422a a0bd 4307 29b9 19b1 c33d 6d67 13bd
00000260: 22df 6dbd fcd9 a7bd 5119 a3bc 2188 9e3d
00000270: 9135 5e3d 045e 60bd af80 21bc 1264 0dbd
00000280: 31ee 2d3d 89da 9fbb 6c83 7a3d ac47 a83c
00000290: c352 d8bb 3879 b9bc 1bbc 08bd b212 303c
000002a0: 1ff5 443c a093 2fbd 2461 3b3d 8268 54bb
000002b0: 6bdb 5e3a 06fe 20bd 8e13 c33d 7c9a 86bc
000002c0: 6e5d 823c 8951 81bd fee2 1cbd fe1f 503c
000002d0: a11a 443c 6670 5fbd 6ce0 9bbc a4d7 933d
000002e0: 5940 eb3c 9942 85bc dad3 0d3d f660 04bb
000002f0: e92c c63c bc7a 1fbc 6479 dbbc 70dd 5cbd
00000300: 04df 5c3d c4d3 a03d 9e3a 293d e689 bcbd
00000310: 235c fcbc 9d2f 983d 407c 2bbc 1372 a7bd
00000320: e2fa bf3d 403a 283d 1f04 70bd 61aa 92bd
00000330: 78a7 6f3c bef1 08bc 82f3 03bd 0c63 c4bb
00000340: 4d5e a23c 583a 62bd e436 78bc 853d adbb
00000350: b4c5 823c d2b2 013d 8405 49bd e256 f1bc
00000360: 65b1 a33d 2998 0cbd cf62 473d 9653 553d
00000370: f548 b53c 23d0 103d c16d bc3d cbe1 0b3c
00000380: 4bfe 9bbc 3c04 1039 404a 0e3c 31fe 47bd
00000390: e213 0f3c e953 3b3d 34db fbbc 28a0 b33d
000003a0: fc39 19bd 9f42 b7bc ec25 b5b8 14ce 05bd
000003b0: f697 80bd 52cc 793d 00c1 0c3c fcd3 a83c
000003c0: 9a30 d7bc ab64 34bd 3e73 3a3d 3f19 b7bc
000003d0: 39b8 83bb ac74 7d3d 7997 e83c ad7d d13d
000003e0: 4562 923d 3444 993d 3703 23bd 0c9e 0fbd
000003f0: b7d4 9bbb b6a9 bc3c c96b 313d 572b b1bc

action_model._continuous_distribution.mu.bias f4 [2]
0.0011553625 0.012483211
00000000: 886f 973a 6286 4c3c

onnx::Div_51 f4 [7]
0.71861684 0.0044724043 0.6942245 2.0483882 1.8450124 0.0044724043 1.69322
00000000: 46f7 373f 3f8d 923b b2b8 313f cb18 0340
00000010: 5e29 ec3f 3f8d 923b 6fbb d83f
