Config/results/test_v7/SecurityGuard/SecurityGuard-55647.pt (torch, 447686 bytes, 44 tensors)

network_body.observation_encoder.processors.0.normalizer.running_mean f4 [7]
0	0x3bb579fe	0.0055382242
1	0x00000000	0.0
2	0x3d20bb88	0.039241344
3	0x4081b246	4.053012
4	0xbcebef4c	-0.02880063
5	0x00000000	0.0
6	0x3d061887	0.032738235

network_body.observation_encoder.processors.0.normalizer.running_variance f4 [7]
0	0x46e1311f	28824.56
1	0x3f800000	1.0
2	0x46d0e22d	26737.088
3	0x485cb944	226021.06
4	0x483b2ce5	191667.58
5	0x3f800000	1.0
6	0x481fd08e	163650.22

network_body.processors.0.normalizer.running_mean f4 [7]
0	0x3bb579fe	0.0055382242
1	0x00000000	0.0
2	0x3d20bb88	0.039241344
3	0x4081b246	4.053012
4	0xbcebef4c	-0.02880063
5	0x00000000	0.0
6	0x3d061887	0.032738235

network_body.processors.0.normalizer.running_variance f4 [7]
0	0x46e1311f	28824.56
1	0x3f800000	1.0
2	0x46d0e22d	26737.088
3	0x485cb944	226021.06
4	0x483b2ce5	191667.58
5	0x3f800000	1.0
6	0x481fd08e	163650.22

network_body._body_endoder.seq_layers.0.weight f4 [128, 7]
0	0xbe900b17	-0.2813346
1	0x3ec3a850	0.3821435
2	0xbedbcadf	-0.42928216
3	0x3e9a5065	0.3013946
4	0xbe355937	-0.17709814
5	0xbca54647	-0.020175112
6	0x3e4efbc4	0.20213228
7	0xbe2b5e24	-0.1673513
8	0x3f46d31c	0.7766588
9	0x39f9d3cd	0.00047650785
10	0x3f26a779	0.65099293
11	0x3f1d68b1	0.6148787
12	0x3dd28ff1	0.10281361
13	0x3df7faee	0.12108408
14	0x3c877da6	0.016539406
15	0x3f37ca19	0.7179275
16	0x3e1a5a62	0.15073541
17	0x3ec070e7	0.37586138
18	0xbf2f80ab	-0.68555707
19	0xbe059f4f	-0.13049053
20	0x3f12ea9b	0.5738923
21	0x3f0ce78f	0.5504083
22	0xbf1b14a9	-0.605784
23	0x3f0e3297	0.55545944
24	0xbe4dd887	-0.2010213
25	0x3ea6adab	0.32554373
26	0x3f2dc585	0.67879516
27	0x3e075b1a	0.13218346
28	0x3e53fcce	0.20701906
29	0x3ec49739	0.38396624
30	0xbe6aa9a3	-0.22916274
31	0xbe688649	-0.22707476
32	0x3e0c8238	0.1372155
33	0x3ea6381e	0.3246469
34	0xbec3a26c	-0.38209856
35	0xbf2fe63c	-0.68710685
36	0xbe390213	-0.18067198
37	0x3edbc4b0	0.42923498
38	0xbe1e73c3	-0.15473847
39	0xbf2b7688	-0.6697774
40	0xbefcbc62	-0.49362475
41	0x3d84de30	0.064876914
42	0xbe0f7021	-0.14007618
43	0xbddcc83d	-0.1078038
44	0x3e92e69f	0.28691575
45	0xbe880cf9	-0.26572397
46	0xbed2102e	-0.4102797
47	0x3e51726e	0.20453808
48	0xbc43ae50	-0.011943415
49	0x3d8d9cea	0.069146946
50	0xbea354f5	-0.31900755
51	0xbe21715d	-0.15765901
52	0xbeffcf13	-0.49962673
53	0x3f3ce5d3	0.73788184
54	0xbe2c276f	-0.16811918
55	0xbe85d92b	-0.2614225
56	0x3f206a3e	0.6266211
57	0x3eb28bd0	0.34872293
58	0x3f015177	0.5051493
59	0xbf197389	-0.5994192
60	0xbd783b00	-0.06060314
61	0xbeaf6064	-0.34253228
62	0x3f044f62	0.5168363
63	0x3e824de2	0.25450045
64	0x3ed3a409	0.41336086
65	0xbf022747	-0.5084118
66	0x3e901365	0.28139797
67	0x3e1275f0	0.14302802
68	0xbee8a062	-0.45434862
69	0xbe1af47a	-0.15132323
70	0xbe926cc2	-0.285986
71	0xbf0af158	-0.5427451
72	0x3e0efd8c	0.13963908
73	0xbed765a0	-0.4206972
74	0xbe7c2f26	-0.2462736
75	0xbea2424f	-0.31691214
76	0x3def8580	0.11695385
77	0x3ef248e0	0.47321224
78	0xbdc777ff	-0.09739684
79	0xbf331b73	-0.6996376
80	0xbf0c76c1	-0.54868704
81	0xbeca6131	-0.39527276
82	0xbd8b1adb	-0.06792232
83	0xbc220569	-0.009888985
84	0xbdc5cfd2	-0.09658779
85	0xbe1da838	-0.15396202
86	0x3f147776	0.5799478
87	0xbef79a49	-0.48359898
88	0x3e74972b	0.23885791
89	0xbe94907f	-0.29016492
90	0xbd8b1ed7	-0.067929916
91	0x3e16eea3	0.1473947
92	0x3debcdb2	0.11513843
93	0xbc96ddaf	-0.018416254
94	0xbe02e2a6	-0.12781772
95	0xbf288a72	-0.6583625
96	0x3c318860	0.010835737
97	0x3e9df2ad	0.3084921
98	0x3e27347f	0.1632862
99	0xbe8ea749	-0.27862003
100	0xbf006cc6	-0.50165975
101	0xbf11d7a4	-0.56969666
102	0xbe948264	-0.2900573
103	0x3c80003d	0.015625114
104	0xbf544075	-0.82910854
105	0xbeba4c3a	-0.3638628
106	0xbc5cd20e	-0.013477815
107	0xbe28a4c1	-0.16469099
108	0xbe3eceb5	-0.1863354
109	0xbe7fa17e	-0.24963948
110	0xbed5a85e	-0.41730016
111	0x3f41a4b4	0.7564194
112	0x3db39cbe	0.087701306
113	0x3ed6e18f	0.41968963
114	0xbe1dc6a0	-0.154078
115	0x3c3cd711	0.011525885
116	0xbf256b32	-0.6461669
117	0x3ea6ac78	0.32553458
118	0xbe8920f5	-0.26782957
119	0xbf82e20f	-1.0225238
120	0x3d142bb7	0.036174502
121	0x3b7ef211	0.0038901607
122	0xbf30231f	-0.6880359
123	0x3d85dea3	0.06536605
124	0x3cbf16ba	0.023326267
125	0x3e648010	0.22314477
126	0xbe5e1213	-0.21686582
127	0x3ec07efb	0.37596878
128	0xbea0317e	-0.3128776
129	0xbe7ead18	-0.24870718
130	0xbe2677cf	-0.16256641
131	0xbd8fc8bc	-0.07020709
132	0x3dba52fd	0.0909786
133	0x3ed79052	0.42102295
134	0xbeb237ee	-0.34808296
135	0xbed63231	-0.41835168
136	0xbe0b6e52	-0.13616303
137	0x3fb5c498	1.4200621
138	0x3e7fca7b	0.24979584
139	0x3eb242e5	0.3481666
140	0x3eb7a0ea	0.35864955
141	0x3d0de5d4	0.03464301
142	0xbe3cbda5	-0.18431719
143	0xbe297425	-0.16548212
144	0xbe9a17bd	-0.30096236
145	0x3e98d775	0.2985188
146	0x3d84c901	0.06483651
147	0xbebf8ea7	-0.37413523
148	0xbd9a2e14	-0.0752832
149	0xbeb75fd9	-0.35815313
150	0xbdd8a174	-0.1057767
151	0xbef877fc	-0.4852904
152	0x3e8aaa2a	0.2708295
153	0xbea01b80	-0.3127098
154	0x3d9b3822	0.07579066
155	0xbea43309	-0.32070187
156	0xbd5685c4	-0.052373663
157	0xbee953d2	-0.45571762
158	0x3e810cba	0.25205022
159	0xbf0257cb	-0.5091521
160	0xbed5ebe1	-0.41781524
161	0x3d9ea711	0.07746709
162	0x3e1c500d	0.15264912
163	0x3e12eb97	0.14347683
164	0x3e9177cd	0.28411713
165	0xbe8636da	-0.26213723
166	0xbc8b3e80	-0.016997576
167	0xbed410d2	-0.41419083
168	0x3dff9bfe	0.12480925
169	0x3e8214a4	0.25406373
170	0x3f3d20c0	0.738781
171	0xbe5259f6	-0.2054213
172	0x3e87da64	0.26533806
173	0x3d2d8c95	0.042370398
174	0x3de50187	0.11181932
175	0x3e6aad69	0.22917713
176	0xbdd784df	-0.1052339
177	0x3ef2be5b	0.47410855
178	0xbd8b7d43	-0.06811001
179	0x3efd16cc	0.49431455
180	0xbef73812	-0.48284966
181	0x3e947212	0.2899328
182	0xbe05bb66	-0.13059768
183	0xbe375297	-0.179026
184	0xbf686900	-0.9078522
185	0xbdd396d5	-0.10331503
186	0xbeb63264	-0.3558532
187	0x3f0ee67a	0.5582043
188	0x3e1faaf0	0.15592551
189	0x3d21ed50	0.03953296
190	0xbf03b381	-0.51445776
191	0x3d5ef70a	0.054434814
192	0x3eea93ca	0.4581588
193	0x3f5706d5	0.839948
194	0x3c61189e	0.013738779
195	0x3ee3fe2d	0.44529858
196	0x3ee87b7a	0.45406705
197	0x3d05560c	0.032552764
198	0x3e7ad4e8	0.2449528
199	0xbd3fe19c	-0.046846017
200	0x3de541ad	0.11194167
201	0xbdebe8b4	-0.11518994
202	0xbe4fbb08	-0.2028619
203	0xbeb1be59	-0.34715536
204	0x3ea49e08	0.32151818
205	0x3e0eda82	0.13950542
206	0xbe815aff	-0.25264737
207	0x3e84dbd0	0.25948954
208	0xbf5f41be	-0.8720969
209	0x3e550b11	0.20805003
210	0xbe17a249	-0.14808
211	0x3ed390c0	0.41321373
212	0xbed34e57	-0.41270706
213	0xbeb31f8b	-0.34985003
214	0x3e443ddb	0.19164221
215	0xbf471af0	-0.7777548
216	0x3edd41eb	0.43214354
217	0x3e510735	0.20412906
218	0x3e97b027	0.2962658
219	0x3e94c1c5	0.29054084
220	0xbf0205ec	-0.50790286
221	0xbecbde2e	-0.39817947
222	0xbdbdb7dd	-0.09263585
223	0xbf4ade3f	-0.7924537
224	0x3f038f02	0.5139009
225	0x3edd8cf2	0.43271595
226	0x3e88da05	0.26728836
227	0x3edf9edf	0.43675897
228	0xbd8d3733	-0.06895294
229	0xbe17982c	-0.14804143
230	0xbe979f9b	-0.29613957
231	0xbe0db6ba	-0.13839236
232	0xbe7c57ce	-0.2464287
233	0xbeeb62b5	-0.45973745
234	0x3eaff4b3	0.34366378
235	0x3e191652	0.14949921
236	0xbe46865e	-0.19387195
237	0x3f5bbd8f	0.8583612
238	0x3ea6d0ad	0.32581082
239	0x3f2be251	0.67142206
240	0x3ef1889c	0.47174537
241	0x3d173c3a	0.03692267
242	0x3f354ed2	0.70823395
243	0xbc80ff37	-0.015746696
244	0xbed650af	-0.41858432
245	0x3e747533	0.23872833
246	0x3d9192a4	0.071080476
247	0x3e83f1fe	0.25770563
248	0xbedcc7ac	-0.43121088
249	0x3e294470	0.16530013
250	0xbdefac91	-0.11702836
251	0xbec8b76c	-0.3920244
252	0xbea9e611	-0.3318334
253	0x3e36ab4c	0.17838782
254	0x3ad0984e	0.0015914531
255	0xbea5a6dd	-0.3235387

network_body._body_endoder.seq_layers.0.bias f4 [128]
0	0x3c02c882	0.007982375
1	0xbdbe73f4	-0.0929946
2	0x3a05e8ea	0.0005108254
3	0x3c9cae69	0.019126134
4	0xbd35609d	-0.04428159
5	0xbbcd28a3	-0.006260948
6	0x3d393776	0.045218907
7	0xbbeda2df	-0.0072520818
8	0x3d53d66b	0.051718157
9	0x3c65cf19	0.014026427
10	0xbcd4e550	-0.025988251
11	0x3ca3ee63	0.020011133
12	0x3d378dc7	0.044812944
13	0xbbcf0811	-0.0063181003
14	0xbcc4c22c	-0.02401837
15	0xbc3d232e	-0.011544032
16	0xbb0ff49d	-0.002196587
17	0x3bf8a490	0.0075879768
18	0xbcda7d1b	-0.026670983
19	0x3c45f1b9	0.012081557
20	0x3b3ac320	0.0028497651
21	0xbdb39cd3	-0.08770146
22	0xbd8c952c	-0.0686439
23	0xbb15f26a	-0.0022880086
24	0x3d79a302	0.060946472
25	0x3d331ac3	0.043726694
26	0xbd518478	-0.051151723
27	0x3d187183	0.03721763
28	0x3d2b1dae	0.04177635
29	0x3c83f2a0	0.016106904
30	0x3c733e0d	0.014846337
31	0x3d8f1447	0.069862895
32	0x3d22429d	0.03961431
33	0x3ccfbc5c	0.025358371
34	0x3c3dff45	0.0115965055
35	0x3c8cf8f7	0.01720856
36	0xbcda24e3	-0.026628917
37	0xbcfd2eb0	-0.030906051
38	0x3d5ba5ff	0.053625103
39	0x3d9a229d	0.07526133
40	0x3d88d9cd	0.06682167
41	0xbda327a4	-0.07966545
42	0x3d3f9349	0.04677132
43	0x3d831701	0.06400872
44	0xbd0e23a6	-0.034701966
45	0xbb6f3151	-0.00364979
46	0x3d0bfa5c	0.03417431
47	0x3d399a44	0.045313135
48	0x3d24380e	0.04009252
49	0x3ba2423e	0.0049517443
50	0xbd252259	-0.04031596
51	0xbcdf30e0	-0.027244985
52	0x3d39dd45	0.045377035
53	0xba91a643	-0.0011112172
54	0x3cf73fce	0.030181792
55	0x3d0a45b7	0.03375789
56	0xbd6278da	-0.055291034
57	0x3c70d24e	0.014698578
58	0x3cce2232	0.02516279
59	0x3cae5d20	0.02128464
60	0x3cca22f8	0.024674878
61	0x3d6145c7	0.054998185
62	0x3d36d2ea	0.044634737
63	0x3d975c0a	0.07390602
64	0xbaf78e97	-0.00188871
65	0x3becdd09	0.007228498
66	0x3d172a5e	0.03690564
67	0x3d5c72a3	0.053820264
68	0x3c93ef67	0.018058492
69	0x3bbc3b43	0.0057443692
70	0x3d2e132b	0.04249875
71	0xbbf74d4e	-0.0075470572
72	0x3c437940	0.011930764
73	0x3c813f7f	0.015777348
74	0xbb960ce8	-0.0045791753
75	0x3c446d98	0.01198902
76	0xba2b8585	-0.0006543028
77	0x3c4cac1f	0.012492209
78	0xbc58f076	-0.013240924
79	0xbc0269a8	-0.007959761
80	0x3d1cf691	0.03832108
81	0xbaa86e51	-0.001285026
82	0xbc9a1e34	-0.01881323
83	0xbd21e6bf	-0.039526697
84	0xbc2793dd	-0.010228124
85	0x3c41d1f8	0.011829846
86	0x3c1cfb22	0.009581359
87	0x3cb88295	0.022523204
88	0xbcac7a30	-0.021054357
89	0x3d7fad29	0.062420998
90	0x3d380fc9	0.04493693
91	0x3d92710d	0.07150469
92	0x3d4812bb	0.048845988
93	0x3b702904	0.003664554
94	0x3b3c281c	0.002871043
95	0x3c6fddd9	0.014640295
96	0xbce292f3	-0.027657961
97	0x3d97ca8a	0.07411678
98	0x3d21ce68	0.039503485
99	0xbc970dd2	-0.018439207
100	0xbd2ca702	-0.04215146
101	0x3c80fbf7	0.015745146
102	0x3d237973	0.039910745
103	0x3d2c8693	0.042120527
104	0x3c4f346a	0.012646774
105	0x3d1d2f31	0.038375083
106	0xbd157f24	-0.036498204
107	0xbc4016f8	-0.011724226
108	0x3cd37035	0.02581034
109	0x3c055871	0.008138762
110	0xbbd2a6bb	-0.006428567
111	0xbd32321a	-0.04350481
112	0x3d2ba6e3	0.041907202
113	0xbbabf02f	-0.005247138
114	0x3cbf20ae	0.023331013
115	0x3b4fd3fb	0.0031712044
116	0x3cf2e94a	0.029652257
117	0xbda9cce2	-0.082910314
118	0x3d42fb01	0.047602657
119	0xbc002285	-0.00782073
120	0xbb7ba2db	-0.003839663
121	0xbd23469c	-0.03986226
122	0x3cd9b708	0.026576534
123	0xbd1d9e3c	-0.038480982
124	0x3c08031d	0.0083015235
125	0x3d7c13bd	0.06154226
126	0x3d33103b	0.04371665
127	0x3d295d79	0.041348908

network_body._body_endoder.seq_layers.2.weight f4 [128, 128]
0	0x3c8eb5b2	0.017420623
1	0x3dc9623b	0.09833189
2	0x3d9f79d5	0.077869095
3	0x3c5e7e80	0.013579965
4	0xbd7b1b5b	-0.061305385
5	0xbcc892fa	-0.024484146
6	0xbc699dcb	-0.014258812
7	0xbd979850	-0.07402098
8	0xbc930ed8	-0.017951414
9	0xbd1033b5	-0.03520556
10	0x3d888d02	0.0666752
11	0x3dd3ec7e	0.10347842
12	0xbdd71a11	-0.10503019
13	0xbda239fe	-0.079212174
14	0x3d2ee358	0.04269728
15	0xbdb6916f	-0.08914458
16	0xbbbb5b1e	-0.005717649
17	0x3c8e6c5e	0.017385658
18	0xbaef26a0	-0.0018245764
19	0x3e22c71d	0.15896268
20	0x3e335ab4	0.17515069
21	0x3c11ed96	0.008906743
22	0x3c9e53a2	0.019326989
23	0x3c7813bc	0.015141424
24	0xbdc7d988	-0.09758288
25	0x3b747aff	0.0037304757
26	0x3ba76b77	0.0051092464
27	0xbd565b7c	-0.05233334
28	0x3d2b1e12	0.041776724
29	0x3d59e711	0.053198878
30	0xbd5fcde0	-0.054639697
31	0x3d9fe148	0.07806641
32	0x3e171bd0	0.14756703
33	0xbdf6b103	-0.12045481
34	0x3d58c1ac	0.052919075
35	0xbd512b2c	-0.051066563
36	0xbd14190e	-0.036156707
37	0xbdf3b059	-0.1189887
38	0x3df5abe7	0.119956784
39	0x3d77e536	0.060521327
40	0x3debe6b8	0.115186155
41	0x3cb224b4	0.021746017
42	0x3dedde68	0.11614686
43	0x3df472f4	0.11935988
44	0x3c5ea011	0.0135879675
45	0xbda8c66f	-0.08240973
46	0x3e181e81	0.14855386
47	0xbe0c5882	-0.13705638
48	0xbe0c414a	-0.13696781
49	0xbda362a5	-0.07977799
50	0xbcb719b7	-0.022351129
51	0xbd756c01	-0.059917454
52	0x3dbb9492	0.09159197
53	0x3b0d4242	0.0021554385
54	0xbc54d608	-0.012990482
55	0x3ddc642e	0.10761295
56	0xbd929a26	-0.07158308
57	0xbdf82b75	-0.12117664
58	0xbdb75b61	-0.08952976
59	0xbd27e3e0	-0.040988803
60	0xbc563366	-0.013073778
61	0x3e18a4da	0.14906636
62	0xbcdd0115	-0.026978055
63	0x3d04d3f3	0.032428693
64	0x3d48adf8	0.048994035
65	0xbb9b08d6	-0.004731278
66	0xbcfce60a	-0.03087141
67	0x3c413052	0.011791306
68	0xbc912cc1	-0.017721536
69	0xbd47b07d	-0.048752297
70	0xbbf482e4	-0.0074618924
71	0xbe61c40f	-0.22047447
72	0x3d516801	0.051124576
73	0xbdf3de74	-0.11907664
74	0xbd7cf381	-0.06175566
75	0x3ddf55f7	0.10905068
76	0x3e5d0a9b	0.21586077
77	0x3ddbc4a3	0.10730865
78	0xbc56e051	-0.013115005
79	0x3a556280	0.0008139983
80	0x3dcb2a7d	0.09920213
81	0x3ca49e9e	0.020095166
82	0xbd1d4e5e	-0.038404815
83	0x3c10806d	0.008819682
84	0xbddbb9ef	-0.107288234
85	0xbe00e60c	-0.12587756
86	0xbd57bc36	-0.052669726
87	0xbe1b2be0	-0.15153456
88	0xbcbdc5cb	-0.023165604
89	0x3e4e53f8	0.20149219
90	0x3c8ec34f	0.017427115
91	0x3d503aed	0.050837446
92	0xbc140eae	-0.009036703
93	0x3dcbb059	0.09945745
94	0x3d929302	0.07156946
95	0xbd941c52	-0.07231964
96	0x3d9a771a	0.07542248
97	0x3d3bc294	0.04583986
98	0xbe55d1c3	-0.20880799
99	0xbc44c433	-0.012009668
100	0x3db3fa8f	0.08788025
101	0xbd2a3cde	-0.041561954
102	0x3c81dcd9	0.015852379
103	0xbd7ef019	-0.062240694
104	0x3d9a6f3a	0.07540746
105	0x3e08a8b4	0.13345605
106	0x3dcdb984	0.1004515
107	0xbe643941	-0.22287466
108	0xbd67ce9d	-0.056593526
109	0xbe0b604d	-0.13610955
110	0x3db082c8	0.086186945
111	0x3ce4ce89	0.027930515
112	0xbdf00593	-0.11719813
113	0x3dc6e336	0.09711306
114	0xbda99df4	-0.0828208
115	0x3d6438d5	0.05571826
116	0x3bdf8abc	0.0068219583
117	0x3dfe5627	0.12418776
118	0x3d0fc356	0.035098396
119	0xbd0aebb8	-0.033916205
120	0x3da6908f	0.08133041
121	0xbd811437	-0.06302684
122	0xbda8da18	-0.08244723
123	0xbde27db5	-0.11059133
124	0xbd6f8743	-0.058478605
125	0x3b7abb06	0.0038258447
126	0x3d2aba98	0.041681856
127	0xbd650b07	-0.05591872
128	0x3d10abde	0.035320155
129	0xbd877e4b	-0.06615885
130	0xbcb31536	-0.0218607
131	0x3cab7d46	0.020933758
132	0x3cec2a16	0.028828662
133	0xbcc1ba56	-0.023648422
134	0x3d23d96d	0.040002275
135	0xbb8a1f60	-0.004215166
136	0x3d037f60	0.032103896
137	0xbe22aad7	-0.15885483
138	0xbe1f63b0	-0.15565372
139	0x3c8859c6	0.01664437
140	0x3d271048	0.04078701
141	0x3d768ca7	0.06019273
142	0x3b99d51d	0.0046945945
143	0xbe39cccd	-0.18144532
144	0x3d758626	0.059942387
145	0x3e4add44	0.19810969
146	0x3dd1d61f	0.102459185
147	0x3d8bf61a	0.068340495
148	0x3daa0423	0.0830157
149	0xbe026108	-0.12732327
150	0x3d869e7a	0.06573196
151	0xbe2ada58	-0.16684854
152	0x3e60f298	0.21967542
153	0x3e042dd4	0.12908107
154	0xbbf0b428	-0.007345695
155	0x3caa93a8	0.020822361
156	0x3d88b055	0.06674258
157	0x3c63aa93	0.0138956485
158	0x3c1ed0e4	0.009693358
159	0x3d6fdfe5	0.05856313
160	0x3d97e6bb	0.07417055
161	0xbc318eb3	-0.010837245
162	0x3d6b3533	0.05742378
163	0x3d71e4b8	0.059056014
164	0xbdb46df8	-0.088100374
165	0xbab06b26	-0.0013459667
166	0xbd3469da	-0.04404626
167	0x3ded924a	0.11600168
168	0xbc266ba2	-0.010157498
169	0x3da14068	0.07873613
170	0xbe089611	-0.13338496
171	0x3d2a350d	0.0415545
172	0xbd991769	-0.07475168
173	0xbe31f56b	-0.17378776
174	0x3dc74a08	0.09730917
175	0xbd8a7c3b	-0.06761976
176	0x3e1c104e	0.15240595
177	0xbdb2de87	-0.0873385
178	0xbd91fae1	-0.071279295
179	0xbd1d7543	-0.038441908
180	0x3da8e800	0.082473755
181	0xbe55f3fc	-0.20893854
182	0xbd102eea	-0.03520099
183	0x3bf1906a	0.007371952
184	0x3d37f85d	0.044914592
185	0xbd9549a0	-0.072894335
186	0xbd9ae72d	-0.075636245
187	0xbd776a88	-0.06040433
188	0xbd61a2fb	-0.05508707
189	0xbe1df3f1	-0.15425088
190	0x3d88cc1c	0.06679556
191	0xbdaba9de	-0.08382009
192	0xbe01ab27	-0.12662946
193	0x3d8a235d	0.06745026
194	0x3d903493	0.07041278
195	0xbd359b80	-0.04433775
196	0x3da8ed20	0.08248353
197	0x3d8cdca8	0.06878024
198	0x3da6170f	0.08109867
199	0xbdd56463	-0.10419538
200	0xbde5aee4	-0.11214998
201	0xbd7b56e8	-0.061362177
202	0x3d72dd64	0.059293166
203	0x3d816a0b	0.06319054
204	0x3d21ac35	0.03947087
205	0xbd9674a9	-0.0734647
206	0xbdaf02bc	-0.085454434
207	0xbd5e242d	-0.05423372
208	0x3e29a814	0.16568023
209	0xbd9d6338	-0.0768494
210	0x3da99fc2	0.082824245
211	0xbe0a8384	-0.13526732
212	0xbcaaaa93	-0.02083329
213	0xbcded5d0	-0.027201563
214	0x3e1db71c	0.15401882
215	0x3d0b922a	0.03407494
216	0xbe03b2ad	-0.12861128
217	0x3e209a47	0.15683852
218	0x3df02dd5	0.11727492
219	0x3a820446	0.0009919486
220	0xbd0256db	-0.031821113
221	0x3bbf46b9	0.005837288
222	0xbc6e54d1	-0.014546589
223	0xbb944ca6	-0.004525739
224	0x3bbcb475	0.005758817
225	0xbc0b053b	-0.008485134
226	0xbddf51c0	-0.109042645
227	0xbb42f429	-0.0029747582
228	0xbda6a6bc	-0.08137271
229	0x3cc53a6d	0.024075711
230	0x3e01a20d	0.12659474
231	0xbd56c4b6	-0.052433692
232	0xbda91f54	-0.082579285
233	0x3c4e0011	0.012573258
234	0x3d6d0746	0.057868265
235	0x3e3fd652	0.187341
236	0x3c6827d6	0.014169654
237	0xbd8f22ba	-0.069890454
238	0xbde6901d	-0.11257956
239	0xbca61f21	-0.020278515
240	0x3ce15b6e	0.027509417
241	0x3db9aaaa	0.09065755
242	0xbe1dcd52	-0.15410355
243	0xbe4de990	-0.20108628
244	0xbdb4e06e	-0.08831869
245	0xbbfcacaa	-0.007711013
246	0x3db8736c	0.0900639
247	0xbc936318	-0.017991588
248	0xbd86ed73	-0.065882586
249	0xbde2c896	-0.11073415
250	0xbdc1e1cd	-0.09466896
251	0x3c44bf82	0.01200855
252	0xbd7eb6f0	-0.06218618
253	0xbdf151e9	-0.11783201
254	0x3d80a73e	0.06281899
255	0x3cc44a08	0.023961082

network_body._body_endoder.seq_layers.2.bias f4 [128]
0	0x3c6cbe28	0.014449634
1	0x3c809cd1	0.015699776
2	0x3c875cb2	0.016523693
3	0xba4d8d6d	-0.00078412035
4	0x3cb71c8a	0.022352476
5	0x3cf1e980	0.029530287
6	0x3c85074b	0.01623883
7	0x3d4cba18	0.04998216
8	0x3d5ceb18	0.05393514
9	0x3d3c0536	0.045903407
10	0x3b977ff8	0.0046234094
11	0x3ce23b48	0.027616158
12	0x3cae104d	0.021248007
13	0x3d1d57a8	0.038413674
14	0x3c883afa	0.016629685
15	0xbb4aae0f	-0.00309265
16	0x3cc8e5bc	0.024523608
17	0x3d54ca33	0.051950645
18	0x3d766d8d	0.06016307
19	0x3cf43d79	0.029814469
20	0x3bd40350	0.0064701214
21	0x3cbac152	0.02279726
22	0x3d6dbcd0	0.058041394
23	0xbc0176c1	-0.007901848
24	0xbccec858	-0.025242016
25	0x3c860d3e	0.016363736
26	0x3cc87185	0.024468193
27	0x3d46365e	0.048391692
28	0x3d5ef662	0.054434188
29	0x3c8e29c8	0.017353907
30	0x3c767f07	0.015044934
31	0x3c0ea10b	0.008705388
32	0x3caaf0fb	0.020866862
33	0x3b2464e0	0.002508454
34	0x3da91612	0.08256163
35	0x3bea3932	0.0071479315
36	0x3ba9642e	0.005169413
37	0xbc090e3f	-0.008365213
38	0x3c732618	0.014840625
39	0xbae95963	-0.0017803129
40	0x3c930a3f	0.017949222
41	0x3c9cd414	0.019144095
42	0x3cc31e21	0.023818078
43	0x3c9aeeec	0.018912755
44	0x3c9e941b	0.019357732
45	0x3d0e99c2	0.034814604
46	0x3d13f015	0.036117632
47	0xbd0b158a	-0.033956088
48	0x3cb8c80f	0.022556333
49	0x3bb28824	0.005448358
50	0x3ca4a5ad	0.020098532
51	0x3c8784a8	0.016542748
52	0x3b03d6d0	0.0020117052
53	0x3cbfc274	0.023408152
54	0x3b2aa094	0.0026035653
55	0x3d0db382	0.03459502
56	0x3c153ebb	0.009109194
57	0x3cd0006c	0.025390826
58	0x3d3149cf	0.04328328
59	0x3d1dc416	0.03851708
60	0x3d4668e2	0.048439868
61	0x3cbca783	0.023029095
62	0xbbd123be	-0.0063824346
63	0x3c06a817	0.008218787
64	0x3c973b56	0.01846091
65	0x3d1ebf59	0.038756702
66	0x3d705e47	0.05868366
67	0x38d3cba9	0.00010099199
68	0xbbc2c641	-0.005944044
69	0x3d574db5	0.05256434
70	0x3c592533	0.013253498
71	0x3bf1398c	0.0073615965
72	0x3d630f86	0.055434726
73	0x3cfb464a	0.030673165
74	0xbbe591a4	-0.007005887
75	0x3cb73d45	0.022368083
76	0x3d22511e	0.03962814
77	0x3c9c8f02	0.01911116
78	0x3c36bbb4	0.01115315
79	0xbc819997	-0.015820308
80	0x3c4db964	0.012556408
81	0xbb354874	-0.0027661594
82	0x3b12a630	0.0022376888
83	0xbb892352	-0.0041851187
84	0x3d13e4eb	0.036106985
85	0x3c9265d0	0.017870814
86	0xba87508a	-0.0010323685
87	0x3bc8c0d9	0.006126505
88	0x3d1f6f45	0.038924474
89	0xbbeb4cae	-0.007180772
90	0x3d2ccbe1	0.04218662
91	0x3d18cbd4	0.03730376
92	0x3cdfff56	0.027343433
93	0x3cb7a10e	0.022415664
94	0x3d953035	0.072845854
95	0x3c26bf24	0.010177407
96	0x3cb05e69	0.021529393
97	0x3c7db670	0.015485391
98	0x3b894016	0.004188548
99	0xbb8b958c	-0.0042597707
100	0x3b947c9a	0.004531455
101	0x3d380c80	0.044933796
102	0x3b618413	0.0034410998
103	0x3d40f0e8	0.047104746
104	0x3ce4aac4	0.027913459
105	0xbbe9a0d0	-0.007129766
106	0x3d184571	0.0371756
107	0xbb39d835	-0.002835763
108	0xbb5c93ad	-0.0033657358
109	0x3d023da6	0.031797074
110	0x3ccd2fae	0.02504715
111	0x3bb91e6a	0.0056493776
112	0xbccfd49d	-0.025369937
113	0xbaea6453	-0.0017882682
114	0x3c3c857f	0.011506437
115	0xbc1dbee1	-0.009628029
116	0xbce3004b	-0.0277101
117	0x3daf6087	0.08563333
118	0x3cb184e1	0.021669807
119	0x3d749273	0.059709977
120	0x3d700d64	0.05860652
121	0x3d147ac0	0.036249876
122	0x3c53cda5	0.012927447
123	0x3cf11bbe	0.029432174
124	0x3d1cb468	0.038257986
125	0x3d3d1360	0.046161056
126	0x3c7b4670	0.015336618
127	0x3cdcc072	0.026947234

action_model._continuous_distribution.log_sigma f4 [1, 2]
0	0xbd437f71	-0.04772896
1	0xbe04d585	-0.12972076

action_model._continuous_distribution.mu.weight f4 [2, 128]
0	0x3d2ebad7	0.042658653
1	0x3d5b15c8	0.05348757
2	0xbcddbeae	-0.027068462
3	0xbd5e77bc	-0.054313406
4	0xbdaf9d2a	-0.085748985
5	0x3dc08830	0.09400976
6	0x3cfd1131	0.030891987
7	0xbd7fc096	-0.062439524
8	0xbb789c87	-0.0037935094
9	0x3d8232ce	0.063573465
10	0xbd80a049	-0.06280572
11	0xbd6132e4	-0.054980174
12	0xbd6f3843	-0.058403265
13	0x3d497826	0.049186848
14	0x3d904b4e	0.07045613
15	0xbd4aa151	-0.04947025
16	0xbd89b5b4	-0.0672411
17	0x3d236743	0.0398934
18	0x3d69e09e	0.057098977
19	0xbd050783	-0.032477867
20	0x3c70b76c	0.014692169
21	0x3d9c4db7	0.076320104
22	0x3d49eec3	0.049299967
23	0xbbbec1d4	-0.005821446
24	0x3c23299a	0.009958649
25	0x3ca6f799	0.020381736
26	0xbd9860ed	-0.07440362
27	0x3c7aabf0	0.015299782
28	0x3d9f9bae	0.077933654
29	0x3d217284	0.03941585
30	0xbdaa7c91	-0.083245404
31	0x3c5ff701	0.01366973
32	0xbcd80d17	-0.02637343
33	0x3d0b1c81	0.03396273
34	0x3cf918fd	0.030407423
35	0x3bbcecc4	0.0057655293
36	0xbd2b1dd7	-0.041776504
37	0xbd25eb6d	-0.040507723
38	0x3d1d52a2	0.038408883
39	0xbcefde33	-0.029280758
40	0x3b30d677	0.00269833
41	0x3d43e6f9	0.047827695
42	0x3d90be25	0.07067517
43	0xbd6288b2	-0.055306144
44	0x3d1bdbcd	0.038051415
45	0x3d8f19b9	0.06987328
46	0x3bec3314	0.0072082374
47	0xbbf0d55f	-0.0073496546
48	0xbd84a15b	-0.064760886
49	0x3cb6bd74	0.022307135
50	0x3d67370d	0.056448985
51	0xbd841332	-0.06448974
52	0xbad7593b	-0.0016429791
53	0x3d793bc9	0.06084803
54	0xbd06855c	-0.032842025
55	0xbae3da73	-0.0017383829
56	0xbd29021b	-0.041261774
57	0xbdcaa675	-0.098950304
58	0x3da5c633	0.08094444
59	0x3da70483	0.081551574
60	0x3dbb2ad6	0.0913903
61	0x3d5640cc	0.05230789
62	0xbd1868bc	-0.037209257
63	0xbb31cfd1	-0.0027131925
64	0xbc896c09	-0.016775148
65	0x3d2c95db	0.0421351
66	0x3d860602	0.06544115
67	0x3cb36b3d	0.021901721
68	0xbd01da20	-0.03170216
69	0x3cdda37e	0.027055498
70	0x3d88c8e7	0.06678944
71	0x3c7346d3	0.014848429
72	0x3cd5ec4c	0.026113652
73	0x3d3e65c8	0.046483785
74	0xbcc05e17	-0.023482366
75	0xbd1d603f	-0.038421866
76	0x3da2da3e	0.07951783
77	0x3d474a1e	0.048654668
78	0xbdb0c988	-0.08632189
79	0xbc08d4e8	-0.008351542
80	0x3cfe12a1	0.031014742
81	0xbb1c8312	-0.0023881835
82	0x3cd95eb8	0.026534423
83	0x3c8f1099	0.017463969
84	0x3d2f09cc	0.042733952
85	0x3baec7b8	0.005333867
86	0x3d202975	0.039102037
87	0x3da8e097	0.08245962
88	0xbd9fbeea	-0.07800086
89	0xbd1b3da9	-0.0379006
90	0xbd3db7cf	-0.04631787
91	0x3c6999a4	0.014257822
92	0xbceadeed	-0.028670752
93	0xbcd6abbc	-0.026204936
94	0x3d14a247	0.036287572
95	0xbd4fce14	-0.05073364
96	0x3d9cee35	0.07662622
97	0x3cfe062a	0.031008799
98	0xba8ee3a7	-0.0010901586
99	0xbca48a37	-0.020085437
100	0xbd8fd9f6	-0.070239946
101	0x3d5dbdb3	0.05413599
102	0x3cc27524	0.023737498
103	0x3d420244	0.047365442
104	0x3d8890e6	0.06668262
105	0x3cbefc04	0.02331353
106	0xbdc109ca	-0.09425695
107	0xbc3eee28	-0.011653461
108	0x3bd16796	0.0063905222
109	0xbc400d3f	-0.011721908
110	0xbd01dbc3	-0.03170372
111	0x3cb4a424	0.022050925
112	0xbbeaf0dd	-0.0071698264
113	0x3d062ee9	0.03275958
114	0x3b51e34a	0.0032026344
115	0x3c338d6d	0.0109590115
116	0xbc8652eb	-0.01639696
117	0x3da229f5	0.07918159
118	0xbc1ca913	-0.009561795
119	0x3d3dcbcd	0.046336938
120	0x3d477d05	0.048703212
121	0x3c3c786b	0.011503319
122	0xbd44543b	-0.04793189
123	0x3d8bfad8	0.06834954
124	0xbd911908	-0.070848525
125	0x3d897228	0.06711227
126	0xbd50fa53	-0.051019978
127	0xbd8ceda8	-0.06881267
128	0x3cc513e9	0.024057345
129	0x3c942a9f	0.01808673
130	0xbda7cdec	-0.08193573
131	0x3c5e3fb1	0.01356499
132	0x3ca75358	0.020425484
133	0xbd19cbfc	-0.03754805
134	0xbb2e8088	-0.0026626904
135	0xbd9dc5c8	-0.077037394
136	0x3db5b57f	0.08872508
137	0xbcdd1a90	-0.026990205
138	0xbc08b5b6	-0.0083441045
139	0x3d07c0c5	0.033142824
140	0x3c465d8c	0.012107264
141	0x3b9ac474	0.004723126
142	0xba8e6acc	-0.0010865568
143	0xbda093cc	-0.0784069
144	0xbb9b22a4	-0.004734354
145	0x3da7833a	0.08179326
146	0x3d9f0305	0.07764248
147	0x3d3b13f1	0.045673314
148	0xbd9f1a7f	-0.077687256
149	0xbb849641	-0.004046232
150	0x3dbdd97c	0.092699975
151	0xbd0a6d9a	-0.03379593
152	0xbd6dfccc	-0.058102414
153	0xbda9c95c	-0.082903594
154	0xbc9f20c2	-0.0194248
155	0x3d9243d0	0.071418405
156	0x3d51e783	0.051246177
157	0xbd63bbbd	-0.055598963
158	0xbbf23999	-0.00739212
159	0xbd0b5b70	-0.03402275
160	0x3d2d0a44	0.04224612
161	0xbc0b1eb8	-0.008491211
162	0x3d76f648	0.060293466
163	0x3ca5f7f7	0.02025984
164	0xbbd1c85d	-0.006402059
165	0xbcb24787	-0.021762623
166	0xbd0a3a1f	-0.033746835
167	0x3c46d15b	0.012134875
168	0x3c04cf67	0.008106089
169	0xbd3e5d76	-0.04647585
170	0x3d1fb1af	0.03898781
171	0xb8b0d700	-8.432381e-05
172	0xbb408935	-0.0029378657
173	0xbd239cde	-0.039944522
174	0x3dbab778	0.09117025
175	0xbc7831da	-0.015148604
176	0x3c911254	0.017708935
177	0xbd7f578a	-0.062339343
178	0xbd2f4a47	-0.042795446
179	0x3c1b58e4	0.009481642
180	0x3c58bd93	0.013228792
181	0xbd64f259	-0.055895183
182	0xbc862d8f	-0.016379146
183	0x3d852067	0.06500321
184	0x3cf7bd0c	0.030241512
185	0xbc98979f	-0.018626986
186	0x3d12016c	0.035645887
187	0xbc359463	-0.011082741
188	0x3cb91a58	0.02259557
189	0xbc4e33aa	-0.01258556
190	0xbcd954cd	-0.026529694
191	0xbd606be0	-0.054790378
192	0x3d490912	0.049080916
193	0x3d972062	0.073792234
194	0x3d19c960	0.03754556
195	0xbdbf701e	-0.093475565
196	0xbcea4807	-0.028598798
197	0x3d8d51d9	0.06900377
198	0xbc826bfd	-0.015920633
199	0xbdb1a4bd	-0.086739995
200	0x3dbecc80	0.09316349
201	0x3d2397ae	0.039939575
202	0xbd6dfaed	-0.05810063
203	0xbd967f74	-0.073485285
204	0x3c309f19	0.010780119
205	0xbc43245a	-0.011910522
206	0xbd050fef	-0.0324859
207	0xbb52cf28	-0.0032166932
208	0x3ca45ca1	0.0200637
209	0xbd5fd510	-0.05464655
210	0xbc966b48	-0.018361703
211	0xbbdb3685	-0.006689849
212	0x3c7de37e	0.015496133
213	0x3d01d62c	0.03169839
214	0xbd61935c	-0.055072173
215	0xbd22d8d1	-0.039757553
216	0x3da16368	0.07880288
217	0xbd04e854	-0.032448128
218	0x3d4704a7	0.04858842
219	0x3d4b6c25	0.04966368
220	0x3ca50ded	0.020148242
221	0x3d019298	0.031633943
222	0x3db67709	0.08909423
223	0x3be1ff49	0.0068968874
224	0xbcb4392a	-0.021999914
225	0xbaab3695	-0.0013062531
226	0x3be2f185	0.006925764
227	0xbd3adfad	-0.04562347
228	0x3c065149	0.008198091
229	0x3d2cf18b	0.04222254
230	0xbd0895bc	-0.033345923
231	0x3daf7220	0.085666895
232	0xbd242cc6	-0.04008176
233	0xbcc33503	-0.023828989
234	0xbb477dd7	-0.0030439997
235	0xbd004f6a	-0.031325735
236	0xbd855884	-0.06511024
237	0x3d648dba	0.055799223
238	0x3ba694a6	0.0050836382
239	0x3c82e609	0.01597883
240	0xbcd7b4a1	-0.026331248
241	0xbd365f23	-0.044524323
242	0x3d39980c	0.04531102
243	0xbcc35ff5	-0.023849467
244	0x3ada96f6	0.001667707
245	0x3d751d45	0.059842367
246	0x3ccd0570	0.025027007
247	0x3dca16e4	0.09867647
248	0x3d8aefda	0.06784029
249	0x3d8c817e	0.06860636
250	0xbd14410e	-0.036194853
251	0xbd1c77b4	-0.038200095
252	0xbba5ea0a	-0.0050633
253	0x3cb0b3a9	0.021570044
254	0x3d1c0b6d	0.038096834
255	0xbc956f64	-0.018241592

action_model._continuous_distribution.mu.bias f4 [2]
0	0x3b160380	0.002289027
1	0x3c46901b	0.012119318

exp_avg f4 [128, 7]
0	0xb95d7d27	-0.00021122825
1	0x00000000	0.0
2	0xba3f9a37	-0.00073090516
3	0xbac27b4a	-0.0014837768
4	0xba92ea08	-0.0011208663
5	0x00000000	0.0
6	0xbaf1d59b	-0.00184505
7	0xba96178b	-0.0011451108
8	0x00000000	0.0
9	0xb9ac993b	-0.00032920562
10	0xbaaeaf48	-0.0013327384
11	0xba718e70	-0.0009214645
12	0x00000000	0.0
13	0x3957d71b	0.00020584131
14	0x390e6000	0.00013577938
15	0x00000000	0.0
16	0xba612af6	-0.00085894705
17	0xba31e3f5	-0.00067859824
18	0xb8dde8d6	-0.0001058147
19	0x00000000	0.0
20	0xba80f58b	-0.0009838803
21	0xb90cc10e	-0.00013423359
22	0x00000000	0.0
23	0x3a395d86	0.0007071126
24	0x39ab6a78	0.00032694987
25	0x397b0863	0.0002394035
26	0x00000000	0.0
27	0x3a3be3a9	0.0007167408
28	0xb9b6335a	-0.00034752005
29	0x00000000	0.0
30	0xb9c80bd8	-0.00038155797
31	0xb988791e	-0.0002603018
32	0xba5f682a	-0.00085222966
33	0x00000000	0.0
34	0xba2a3eb0	-0.00064943265
35	0xb9be9de2	-0.00036357256
36	0x00000000	0.0
37	0x3a8d346a	0.0010773067
38	0x398164ea	0.00024679984
39	0x39bcf5c1	0.00036041255
40	0x00000000	0.0
41	0x3aff78b4	0.0019490928
42	0x397f0ad4	0.00024322729
43	0x00000000	0.0
44	0x38ab3bc4	8.1650476e-05
45	0xb8d14d01	-9.98024e-05
46	0xb86872cc	-5.5420023e-05
47	0x00000000	0.0
48	0x38374b3f	4.370068e-05
49	0xbad558b4	-0.0016277046
50	0x00000000	0.0
51	0x3afa1a38	0.00190813
52	0x3a11a11f	0.000555532
53	0xba78d522	-0.00094922085
54	0x00000000	0.0
55	0x3b263150	0.0025358982
56	0x3a8f4ec4	0.0010933508
57	0x00000000	0.0
58	0xba338410	-0.0006847987
59	0x39b39c94	0.000342582
60	0x3a0be65f	0.0005336757
61	0x00000000	0.0
62	0xba9b0925	-0.0011828287
63	0x39add15b	0.00033153113
64	0x00000000	0.0
65	0xbab0612c	-0.0013456694
66	0xba591c03	-0.0008282067
67	0xba2981a8	-0.00064661587
68	0x00000000	0.0
69	0xbb0f5330	-0.0021869652
70	0x390d7dde	0.00013493697
71	0x00000000	0.0
72	0x389ef534	7.5797e-05
73	0x3a0d7a6b	0.0005396965
74	0x39d7d39b	0.00041165654
75	0x00000000	0.0
76	0xb7eb0612	-2.801701e-05
77	0x3a78bf2b	0.00094889355
78	0x00000000	0.0
79	0xbb7888cb	-0.0037923332
80	0xbb02cee7	-0.001995975
81	0xbab4cbdd	-0.0013793666
82	0x00000000	0.0
83	0xbb9f3d20	-0.0048595816
84	0xb9f0c970	-0.0004592645
85	0x00000000	0.0
86	0x3a789d67	0.0009483904
87	0x38f86cfe	0.00011845863
88	0xb957e231	-0.0002058826
89	0x00000000	0.0
90	0x3a897493	0.0010487012
91	0x3a05cff7	0.00051045365
92	0x00000000	0.0
93	0xbaa26687	-0.0012390175
94	0x37aff008	2.0973399e-05
95	0xb9c37245	-0.00037278436
96	0x00000000	0.0
97	0xbad3acd5	-0.001614953
98	0x3a2a4692	0.0006495501
99	0x00000000	0.0
100	0xbb4e1279	-0.0031444116
101	0xbad3a24a	-0.0016146388
102	0xbacd8bf2	-0.0015681966
103	0x00000000	0.0
104	0xbb85dc64	-0.0040851105
105	0x390e19d8	0.00013551803
106	0x00000000	0.0
107	0xb9c748fa	-0.0003801061
108	0xb7bc1158	-2.2419423e-05
109	0x3832f4e6	4.2666587e-05
110	0x00000000	0.0
111	0xba9dd2de	-0.0012040993
112	0x39e62d66	0.00043902843
113	0x00000000	0.0
114	0xbac93c1a	-0.0015352995
115	0xba07ddf8	-0.0005182917
116	0xb9f87d46	-0.00047395582
117	0x00000000	0.0
118	0xbb0cfe33	-0.002151382
119	0xba1b629c	-0.00059274747
120	0x00000000	0.0
121	0x3b0c3275	0.002139238
122	0x3a10949f	0.00055153103
123	0x3a4253de	0.000741301
124	0x00000000	0.0
125	0x3b30de15	0.002698784
126	0xb88c9173	-6.702812e-05
127	0x00000000	0.0
128	0xb908e861	-0.00013056539
129	0x3716af68	8.981537e-06
130	0xb9e4c683	-0.00043635452
131	0x00000000	0.0
132	0xba3060f2	-0.0006728313
133	0xbaba1628	-0.0014197277
134	0x00000000	0.0
135	0xba24f854	-0.0006293107
136	0xba3c5284	-0.00071839266
137	0xbad0049f	-0.0015870518
138	0x00000000	0.0
139	0xb9e7639c	-0.00044133968
140	0x3aa4912a	0.0012555469
141	0x00000000	0.0
142	0xbafefeec	-0.0019454635
143	0xb99b8880	-0.00029665604
144	0x3862b6c0	5.4052798e-05
145	0x00000000	0.0
146	0xbb2a81c1	-0.002601728
147	0x3a09caef	0.0005256375
148	0x00000000	0.0
149	0x38ac7686	8.223676e-05
150	0x384521ab	4.6999816e-05
151	0x39b15403	0.00033822664
152	0x00000000	0.0
153	0xba13f94a	-0.0005644752
154	0xba051172	-0.0005076147
155	0x00000000	0.0
156	0x3a802fb1	0.0009779838
157	0x3a2664ea	0.0006347435
158	0x395ed5d6	0.0002125123
159	0x00000000	0.0
160	0x3ab99e53	0.0014161564
161	0xb8a5dadc	-7.908579e-05
162	0x00000000	0.0
163	0x3a01306c	0.0004928175
164	0x39db9b1c	0.000418865
165	0x39e8eca8	0.0004442681
166	0x00000000	0.0
167	0x3a2f474a	0.0006686343
168	0x3a2ee152	0.00066711486
169	0x00000000	0.0
170	0x3a8bd6df	0.0010668895
171	0x3a538b22	0.00080697436
172	0x39eeca70	0.00045545725
173	0x00000000	0.0
174	0x3a1b7196	0.00059297064
175	0xbad59a17	-0.0016296533
176	0x00000000	0.0
177	0x38166058	3.5852514e-05
178	0xba2cdf17	-0.0006594522
179	0xbac127ee	-0.0014736631
180	0x00000000	0.0
181	0xb6f4a020	-7.2904077e-06
182	0x3a0e21f5	0.000542193
183	0x00000000	0.0
184	0xbac556ac	-0.0015055737
185	0xb9cce47b	-0.00039080143
186	0xba9d54ff	-0.001200348
187	0x00000000	0.0
188	0xbb342108	-0.0027485508
189	0xbb0f9289	-0.002190741
190	0x00000000	0.0
191	0xb922a51c	-0.00015511032
192	0xbad56498	-0.001628059
193	0xbb006340	-0.0019590408
194	0x00000000	0.0
195	0x37fe7bb8	3.033677e-05
196	0x3ab8b051	0.0014090632
197	0x00000000	0.0
198	0x39e220e0	0.00043130573
199	0x3a829be1	0.0009964668
200	0x3ac2dadb	0.0014866249
201	0x00000000	0.0
202	0x392d37ed	0.000165194
203	0xbaefcb1d	-0.0018294785
204	0x00000000	0.0
205	0x3ac8e39f	0.0015326625
206	0xb9af9491	-0.00033489292
207	0xba674fc4	-0.00088238367
208	0x00000000	0.0
209	0x3b003b73	0.0019566684
210	0xb9b34621	-0.0003419379
211	0x00000000	0.0
212	0xb9f93c59	-0.00047537943
213	0x39599c96	0.00020753065
214	0xba7bac9c	-0.0009600611
215	0x00000000	0.0
216	0xbaca2ecc	-0.0015425324
217	0x3999fd3c	0.00029371108
218	0x00000000	0.0
219	0xba5991e5	-0.0008299633
220	0xba69340c	-0.0008896
221	0xb90c0b9a	-0.00013355762
222	0x00000000	0.0
223	0xba934a2c	-0.0011237315
224	0x3acd3584	0.0015656208
225	0x00000000	0.0
226	0x3a9c59e7	0.0011928648
227	0x3b104852	0.0022015763
228	0x3b071743	0.002061323
229	0x00000000	0.0
230	0x3a7534b9	0.00093538646
231	0xb91f2fa8	-0.00015181175
232	0x00000000	0.0
233	0xba928574	-0.0011178688
234	0xbac44878	-0.0014975211
235	0xb9b756a6	-0.00034969038
236	0x00000000	0.0
237	0xbb07982e	-0.0020690071
238	0xbaad5127	-0.0013223038
239	0x00000000	0.0
240	0x39dfc4bd	0.00042680456
241	0xba20a08f	-0.0006127441
242	0xba83dc7a	-0.0010060214
243	0x00000000	0.0
244	0x3a6093bb	0.00085669354
245	0x3949ff40	0.00019263942
246	0x00000000	0.0
247	0x38366beb	4.3492688e-05
248	0xb8a1b212	-7.7102464e-05
249	0x399bb9c7	0.0002970232
250	0x00000000	0.0
251	0xb9189032	-0.00014549567
252	0xb9ded117	-0.00042498924
253	0x00000000	0.0
254	0x3a822b1d	0.0009931062
255	0x39752909	0.00023380308

exp_avg_sq f4 [128, 7]
0	0x37b7b631	2.190014e-05
1	0x00000000	0.0
2	0x379fcf8c	1.9050924e-05
3	0x37db0661	2.6109805e-05
4	0x3866f147	5.506098e-05
5	0x00000000	0.0
6	0x37cceec8	2.4429886e-05
7	0x365ebc81	3.3190302e-06
8	0x00000000	0.0
9	0x36404a5c	2.8653512e-06
10	0x36b0b6d6	5.2664936e-06
11	0x3601f67a	1.9365966e-06
12	0x00000000	0.0
13	0x3636d111	2.7241806e-06
14	0x364d50ee	3.0594488e-06
15	0x00000000	0.0
16	0x3677c948	3.692303e-06
17	0x36a35ea1	4.868795e-06
18	0x3696b706	4.491655e-06
19	0x00000000	0.0
20	0x369b5319	4.629034e-06
21	0x37167e2c	8.970073e-06
22	0x00000000	0.0
23	0x36bba3f5	5.5921214e-06
24	0x36ef19d9	7.125764e-06
25	0x36fe7966	7.5839225e-06
26	0x00000000	0.0
27	0x370fb02e	8.564484e-06
28	0x35ef0f1b	1.7811284e-06
29	0x00000000	0.0
30	0x3611abdf	2.1706726e-06
31	0x360333f3	1.955076e-06
32	0x366f5f19	3.566913e-06
33	0x00000000	0.0
34	0x36a27432	4.841503e-06
35	0x3725f9d7	9.892937e-06
36	0x00000000	0.0
37	0x370d6591	8.427903e-06
38	0x3718e1b5	9.1124575e-06
39	0x38098f85	3.279701e-05
40	0x00000000	0.0
41	0x37750a3f	1.4605524e-05
42	0x3666986d	3.4361394e-06
43	0x00000000	0.0
44	0x36aef963	5.2146365e-06
45	0x3689530f	4.0925875e-06
46	0x36efb577	7.1438803e-06
47	0x00000000	0.0
48	0x36e24b5e	6.7440988e-06
49	0x3752bcf7	1.2560972e-05
50	0x00000000	0.0
51	0x3755fd2d	1.2754736e-05
52	0x373d9ed9	1.13022625e-05
53	0x3748cccf	1.1968615e-05
54	0x00000000	0.0
55	0x3805a47a	3.186285e-05
56	0x36e717d1	6.887109e-06
57	0x00000000	0.0
58	0x36eec75d	7.1161617e-06
59	0x36e9b6b4	6.9652106e-06
60	0x3708b6b7	8.148773e-06
61	0x00000000	0.0
62	0x373270be	1.0635877e-05
63	0x3703e716	7.862012e-06
64	0x00000000	0.0
65	0x3756d7f7	1.2805677e-05
66	0x373c5b02	1.1226863e-05
67	0x378dfe9e	1.6927075e-05
68	0x00000000	0.0
69	0x37b12ff0	2.1122367e-05
70	0x3580ab1b	9.586541e-07
71	0x00000000	0.0
72	0x35e51990	1.7069269e-06
73	0x35a69423	1.2411077e-06
74	0x35f35f9c	1.8132737e-06
75	0x00000000	0.0
76	0x362c131c	2.564112e-06
77	0x37d17e8d	2.4973671e-05
78	0x00000000	0.0
79	0x381f9c37	3.805404e-05
80	0x37d6adaa	2.5591657e-05
81	0x3891a172	6.94421e-05
82	0x00000000	0.0
83	0x38a18d41	7.703389e-05
84	0x369a032f	4.5899283e-06
85	0x00000000	0.0
86	0x36be1e6a	5.665982e-06
87	0x36b1b4be	5.296052e-06
88	0x36a8bac8	5.0285344e-06
89	0x00000000	0.0
90	0x372018dc	9.542531e-06
91	0x36d6cff9	6.401908e-06
92	0x00000000	0.0
93	0x36b02a63	5.250143e-06
94	0x36b6b5f2	5.445204e-06
95	0x37977a2a	1.805749e-05
96	0x00000000	0.0
97	0x370d13e6	8.408888e-06
98	0x37991db6	1.8252857e-05
99	0x00000000	0.0
100	0x37e760bb	2.758239e-05
101	0x37a016d5	1.9084118e-05
102	0x386cddb2	5.6473255e-05
103	0x00000000	0.0
104	0x3883f481	6.292109e-05
105	0x37776c8c	1.474762e-05
106	0x00000000	0.0
107	0x37899de8	1.6405203e-05
108	0x378107ee	1.538169e-05
109	0x37f46b84	2.9137133e-05
110	0x00000000	0.0
111	0x37c393d9	2.3314658e-05
112	0x368de34b	4.228588e-06
113	0x00000000	0.0
114	0x36caab71	6.0400275e-06
115	0x36b05782	5.255396e-06
116	0x3741363e	1.1516326e-05
117	0x00000000	0.0
118	0x379a4ed9	1.8394947e-05
119	0x3758f12f	1.2930758e-05
120	0x00000000	0.0
121	0x37395af1	1.1048033e-05
122	0x372bd695	1.02423555e-05
123	0x37af80fd	2.092169e-05
124	0x00000000	0.0
125	0x37b7b4fa	2.1899574e-05
126	0x3692422f	4.358844e-06
127	0x00000000	0.0
128	0x36c11813	5.754651e-06
129	0x36b169cb	5.287327e-06
130	0x372fc798	1.0477284e-05
131	0x00000000	0.0
132	0x3716d203	8.989594e-06
133	0x373f6df4	1.1410088e-05
134	0x00000000	0.0
135	0x372ebf8d	1.0415807e-05
136	0x372dee65	1.0367109e-05
137	0x3714fd05	8.880398e-06
138	0x00000000	0.0
139	0x373ef484	1.1381813e-05
140	0x37270f7f	9.957584e-06
141	0x00000000	0.0
142	0x371ec2d3	9.462895e-06
143	0x37199bfe	9.15583e-06
144	0x379ee63b	1.8942277e-05
145	0x00000000	0.0
146	0x3784f3a6	1.5849084e-05
147	0x370ce705	8.398439e-06
148	0x00000000	0.0
149	0x36f826d9	7.3954984e-06
150	0x3717d918	9.050847e-06
151	0x37e9f273	2.7888664e-05
152	0x00000000	0.0
153	0x37b4cdd4	2.1553518e-05
154	0x36661bc6	3.4288837e-06
155	0x00000000	0.0
156	0x36baee8e	5.5710034e-06
157	0x36807505	3.82832e-06
158	0x36a2c9c7	4.851466e-06
159	0x00000000	0.0
160	0x3756feb2	1.2814695e-05
161	0x36843981	3.940601e-06
162	0x00000000	0.0
163	0x369ced37	4.6767777e-06
164	0x36c31d12	5.814837e-06
165	0x3759071d	1.2935864e-05
166	0x00000000	0.0
167	0x37006876	7.653716e-06
168	0x36edf72a	7.091924e-06
169	0x00000000	0.0
170	0x3771f706	1.4422234e-05
171	0x373a3dfb	1.1100895e-05
172	0x36d1159e	6.231202e-06
173	0x00000000	0.0
174	0x373d2216	1.1273214e-05
175	0x3706cc69	8.034615e-06
176	0x00000000	0.0
177	0x36d497d2	6.3357666e-06
178	0x37004603	7.645695e-06
179	0x36eede39	7.118823e-06
180	0x00000000	0.0
181	0x3710dc20	8.634321e-06
182	0x378b4443	1.6601878e-05
183	0x00000000	0.0
184	0x37bbfb2e	2.2409102e-05
185	0x37ac816c	2.0564265e-05
186	0x388a7a56	6.6031396e-05
187	0x00000000	0.0
188	0x3822ba03	3.8797047e-05
189	0x37626688	1.3494522e-05
190	0x00000000	0.0
191	0x3719fc15	9.178203e-06
192	0x3774ed68	1.4598809e-05
193	0x3723c581	9.761542e-06
194	0x00000000	0.0
195	0x3743b750	1.16655865e-05
196	0x3733f5b6	1.072644e-05
197	0x00000000	0.0
198	0x3711301e	8.653877e-06
199	0x3723671b	9.739563e-06
200	0x37157ee3	8.910635e-06
201	0x00000000	0.0
202	0x37742543	1.4552209e-05
203	0x379033fe	1.7190348e-05
204	0x00000000	0.0
205	0x3785699a	1.590401e-05
206	0x3784a186	1.5810841e-05
207	0x37931e59	1.7537897e-05
208	0x00000000	0.0
209	0x37cc9354	2.43873e-05
210	0x379f0299	1.8955487e-05
211	0x00000000	0.0
212	0x37a17bd3	1.9250356e-05
213	0x378e7bcb	1.6985365e-05
214	0x379e234a	1.88515e-05
215	0x00000000	0.0
216	0x37cadf67	2.4184306e-05
217	0x36c1e599	5.778577e-06
218	0x00000000	0.0
219	0x36ca79ee	6.0342636e-06
220	0x36af6be9	5.227969e-06
221	0x37526895	1.2541325e-05
222	0x00000000	0.0
223	0x375364e6	1.2600072e-05
224	0x37a91451	2.015583e-05
225	0x00000000	0.0
226	0x37a33585	1.9456036e-05
227	0x37e326e3	2.7078617e-05
228	0x37c7d982	2.3823934e-05
229	0x00000000	0.0
230	0x37c9f6cb	2.407599e-05
231	0x38114f7c	3.464472e-05
232	0x00000000	0.0
233	0x3802c2c9	3.1175823e-05
234	0x3832b4dd	4.260695e-05
235	0x3814fcab	3.5521265e-05
236	0x00000000	0.0
237	0x383790b9	4.3765383e-05
238	0x36b19b65	5.2931014e-06
239	0x00000000	0.0
240	0x36798e51	3.718673e-06
241	0x36a67660	4.960966e-06
242	0x368aed3f	4.1403396e-06
243	0x00000000	0.0
244	0x371c216e	9.306108e-06
245	0x358d6643	1.0535081e-06
246	0x00000000	0.0
247	0x35820bf8	9.689238e-07
248	0x35612e3a	8.38863e-07
249	0x356b1474	8.7574085e-07
250	0x00000000	0.0
251	0x35e463f5	1.7016415e-06
252	0x369ba319	4.638347e-06
253	0x00000000	0.0
254	0x369c3ad4	4.656011e-06
255	0x36887782	4.0670284e-06

exp_avg f4 [128]
0	0xba35aa01	-0.00069299346
1	0xba8884c9	-0.001041555
2	0xba3611b3	-0.00069453864
3	0x39b543de	0.00034573575
4	0xb8d4e294	-0.00010151151
5	0x39b0b7f2	0.00033706386
6	0x3a0b9434	0.0005324513
7	0xbaff15e5	-0.0019461481
8	0x379c5d48	1.8640087e-05
9	0x3a73e923	0.00093044544
10	0xb9d9bccf	-0.0004153014
11	0x3b3edc98	0.0029123183
12	0xb992eb74	-0.00028022716
13	0x38da142e	0.00010398809
14	0x3b360e78	0.002777962
15	0xba4fb672	-0.000792361
16	0x3a4f6691	0.0007911707
17	0x38d16768	9.9851575e-05
18	0xb9c298b3	-0.00037116333
19	0xba8dc653	-0.0010816552
20	0x3a90c556	0.0011045139
21	0xb9adcbe7	-0.0003314905
22	0xbaa9d5d3	-0.0012957401
23	0x390b0e0f	0.0001326131
24	0x3a84f251	0.0010143017
25	0xba79575a	-0.00095116126
26	0x3a2066bd	0.0006118825
27	0xbaf417ff	-0.0018622874
28	0x3aabde5a	0.001311253
29	0xb9ca9bb7	-0.0003864446
30	0xba9d8b30	-0.001201963
31	0x3aa4c381	0.0012570472
32	0x3accc31d	0.0015622113
33	0xbb2b5aa0	-0.0026146546
34	0xbaba472e	-0.0014211887
35	0x399493cc	0.00028338877
36	0xb9a64bb7	-0.000317184
37	0xb95e40a8	-0.00021195656
38	0x3a5f2af4	0.00085131754
39	0x3aa03ef4	0.0012225793
40	0x3b53969c	0.0032285815
41	0x3a8011e0	0.0009770952
42	0x399b3da8	0.0002960984
43	0x3ac8b19b	0.001531172
44	0xba811a95	-0.0009849841
45	0xba3cfb19	-0.00072090473
46	0xb8c0b784	-9.189456e-05
47	0x3a05eb11	0.0005108575
48	0x393480ec	0.00017214165
49	0xb9cdbd2b	-0.00039241588
50	0xbaa1f558	-0.0012356443
51	0xb920a31a	-0.00015319549
52	0x3a2d4707	0.000661001
53	0xba9fa4c3	-0.001217984
54	0x3a258a03	0.0006314816
55	0x3a810422	0.0009843151
56	0x39835167	0.00025046917
57	0x39d8efd7	0.00041377425
58	0xbaea206a	-0.0017862443
59	0x3a5ecded	0.0008499313
60	0xbb280698	-0.0025638696
61	0x3b335fd5	0.0027370353
62	0x3a71a652	0.0009218204
63	0x3a92d47d	0.0011202242
64	0xbab11ccb	-0.0013512609
65	0x3940628d	0.0001834726
66	0x39ecb5cf	0.00045148886
67	0x3a9be037	0.0011892383
68	0xba72c824	-0.00092613907
69	0xb8c3dfeb	-9.3400326e-05
70	0x3af39824	0.001858477
71	0xba8f4ef5	-0.0010933565
72	0xba76fcdd	-0.0009421835
73	0xb9d5f08e	-0.00040805753
74	0xba1434d9	-0.0005653627
75	0x399cb43a	0.00029888918
76	0x39f5ec46	0.0004690608
77	0xb9cb5869	-0.00038785048
78	0xba56eba8	-0.00081985677
79	0x394ce210	0.00019539171
80	0x39ddb6f3	0.00042288713
81	0xba38c5cc	-0.0007048517
82	0xba88b16e	-0.0010428855
83	0xba530e1c	-0.00080511137
84	0xba98628d	-0.001162605
85	0x3aa27eb4	0.001239738
86	0x3aa1f466	0.0012356162
87	0x3a6ae3de	0.00089603465
88	0xba0877e6	-0.00052058545
89	0x3a8dfd50	0.0010832939
90	0x39136fd7	0.00014060676
91	0x3a8dddaf	0.0010823513
92	0x3a7ccc67	0.00096434954
93	0x3a6f4435	0.000912729
94	0xbabdaa13	-0.0014470242
95	0xb8fd8268	-0.0001208827
96	0xba066a1e	-0.0005127507
97	0x3adf5635	0.0017039242
98	0xba63092f	-0.0008660731
99	0xbaf68d8f	-0.0018810498
100	0xba64a0a6	-0.0008721448
101	0xb9f5b22c	-0.0004686279
102	0x3a1b26f5	0.0005918586
103	0xbb223f7d	-0.002475708
104	0xbb073176	-0.0020628846
105	0x398535d8	0.00025407854
106	0xb7869cd0	-1.6047066e-05
107	0x39e64ddc	0.00043927028
108	0x3b3e4802	0.002903462
109	0x3934099c	0.00017169717
110	0xbadcaa41	-0.0016835408
111	0xba57cfef	-0.00082325836
112	0xba357ede	-0.0006923507
113	0xb9d66c36	-0.00040897884
114	0xbac99fc6	-0.0015382699
115	0x3926e23f	0.00015915277
116	0x37bc3c50	2.2439432e-05
117	0xb9747a49	-0.00023315208
118	0xba92f9f5	-0.0011213409
119	0x3938b05a	0.00017613303
120	0xb84c30da	-4.8682887e-05
121	0xbab98862	-0.0014155025
122	0xb8f293e8	-0.00011567009
123	0xb9e6f693	-0.0004405273
124	0xb9a35822	-0.00031155447
125	0x3ae15993	0.0017192833
126	0x3b0c3308	0.0021392722
127	0x3a88c8c3	0.0010435808

exp_avg_sq f4 [128]
0	0x37ae3888	2.076874e-05
1	0x365722b9	3.2057708e-06
2	0x3664d5eb	3.4099164e-06
3	0x36f925ba	7.42517e-06
4	0x35f5efec	1.8323749e-06
5	0x371fe790	9.531053e-06
6	0x369b5cea	4.6301766e-06
7	0x375597c8	1.2731129e-05
8	0x36f14c84	7.1912673e-06
9	0x3722247e	9.664449e-06
10	0x35b76e4c	1.3666663e-06
11	0x380003f4	3.052126e-05
12	0x36bf6ada	5.7046827e-06
13	0x36c9e7ed	6.0172665e-06
14	0x37b76036	2.1860102e-05
15	0x37873bcd	1.6121101e-05
16	0x36ad0da7	5.157391e-06
17	0x3756a7d2	1.2794468e-05
18	0x36a485d7	4.903162e-06
19	0x37343125	1.0740278e-05
20	0x37258856	9.86651e-06
21	0x3709aec1	8.206524e-06
22	0x3698aed0	4.550304e-06
23	0x368a137a	4.114988e-06
24	0x373ff9de	1.1442664e-05
25	0x3700885a	7.661141e-06
26	0x37a6334f	1.9812634e-05
27	0x3747c77a	1.1907769e-05
28	0x37250b80	9.837444e-06
29	0x37973388	1.8024599e-05
30	0x37a2094f	1.931624e-05
31	0x36cb9fab	6.0684592e-06
32	0x37a5e3a1	1.977553e-05
33	0x380bdc19	3.3345164e-05
34	0x369e12c3	4.710951e-06
35	0x358450d8	9.858295e-07
36	0x36a516ae	4.9200235e-06
37	0x37840cf9	1.5741667e-05
38	0x36b0e6ad	5.272063e-06
39	0x3788479d	1.6245811e-05
40	0x37b55376	2.1615746e-05
41	0x36c3ea8f	5.838759e-06
42	0x371d8148	9.38803e-06
43	0x372f20b7	1.043843e-05
44	0x372cb7eb	1.0294821e-05
45	0x37263181	9.905897e-06
46	0x36dd54e2	6.596195e-06
47	0x36d1ec3d	6.256187e-06
48	0x37e8f6cb	2.7771477e-05
49	0x36931c4c	4.3842356e-06
50	0x3654a222	3.1684835e-06
51	0x35c682de	1.4790237e-06
52	0x36b3dc64	5.3602726e-06
53	0x37a2a56d	1.9388937e-05
54	0x36e8674d	6.9261646e-06
55	0x36ad5782	5.165989e-06
56	0x36f60d74	7.3329375e-06
57	0x36ebeae3	7.03089e-06
58	0x37b4724a	2.1510892e-05
59	0x369ce2d4	4.6755686e-06
60	0x37f3a03e	2.9042476e-05
61	0x3890767f	6.888527e-05
62	0x37b02deb	2.1002217e-05
63	0x37dba279	2.6182492e-05
64	0x37916b5d	1.7335342e-05
65	0x3775a2f2	1.4641077e-05
66	0x36724a04	3.6103893e-06
67	0x3736649e	1.0871472e-05
68	0x376c2e92	1.4077539e-05
69	0x3686cc8e	4.0173245e-06
70	0x3727f7f8	1.001171e-05
71	0x36a22781	4.832575e-06
72	0x36c9e8c7	6.0173656e-06
73	0x37fbf121	3.0033816e-05
74	0x36733cc5	3.6245194e-06
75	0x36ce4de2	6.148345e-06
76	0x368d09d9	4.203274e-06
77	0x35cdc526	1.5331068e-06
78	0x36ca0706	6.0208868e-06
79	0x36813fc5	3.8519233e-06
80	0x369d771e	4.6928317e-06
81	0x372e2afd	1.0381217e-05
82	0x37933ffb	1.7553559e-05
83	0x36afb175	5.236065e-06
84	0x370a2868	8.234849e-06
85	0x36f308c1	7.2429834e-06
86	0x36c3c572	5.8344385e-06
87	0x36d12940	6.2334875e-06
88	0x37538feb	1.2610089e-05
89	0x37d64a6b	2.5545442e-05
90	0x36504eab	3.1040206e-06
91	0x378597e3	1.5925563e-05
92	0x37a461fe	1.9595955e-05
93	0x36d1cb1b	6.25233e-06
94	0x377aadbb	1.4941611e-05
95	0x3813692b	3.5145476e-05
96	0x3627638c	2.4942883e-06
97	0x37833e73	1.5645497e-05
98	0x387da144	6.047009e-05
99	0x36fba2ef	7.499351e-06
100	0x35f03eda	1.7899686e-06
101	0x37ceded0	2.4660869e-05
102	0x371f3675	9.489818e-06
103	0x37c34f09	2.3282615e-05
104	0x37f1797f	2.8786015e-05
105	0x370941f2	8.18119e-06
106	0x36b934f8	5.519596e-06
107	0x3639694c	2.762844e-06
108	0x37c8c845	2.3935116e-05
109	0x37b15920	2.1141546e-05
110	0x3754f5b7	1.2693395e-05
111	0x3628f577	2.517683e-06
112	0x37f95f0a	2.972737e-05
113	0x3796a28a	1.7957082e-05
114	0x3816330f	3.581034e-05
115	0x36f41d19	7.275154e-06
116	0x37a79a05	1.9979672e-05
117	0x365e99b5	3.3170047e-06
118	0x37a49ef5	1.9624344e-05
119	0x36827afc	3.888619e-06
120	0x369f740b	4.7520784e-06
121	0x370d5757	8.42459e-06
122	0x376c5b06	1.4087889e-05
123	0x37169f40	8.977775e-06
124	0x35c55f5e	1.4705399e-06
125	0x378ee532	1.7034447e-05
126	0x37acfc34	2.0621439e-05
127	0x375e7ca9	1.3261256e-05
