Config/results/test_v5/SecurityGuard.onnx (onnx, 76496 bytes, 9 tensors)

network_body.observation_encoder.processors.0.normalizer.running_mean f4 [7]
-0.025818558 0.0 -0.03924196 3.999191 0.016467437 0.0 0.035845738
00000000: 7181 d3bc 0000 0000 2dbc 20bd bff2 7f40
00000010: b8e6 863c 0000 0000 fbd2 123d

network_body._body_endoder.seq_layers.0.weight f4 [128, 7]
0.35357603 -0.030604612 0.02935443 0.43633035 0.4505111 -0.110429324 0.41699883 -0.7756473
0.116657086 -0.15707138 0.0907888 0.79383886 -0.31240425 0.66317147 0.59771323 0.13257547
0.5291336 -0.053693574 -0.48079768 0.7401903 -0.71002316 -0.41303816 -0.6879719 -0.26289853
-0.28700894 0.09760559 0.1288838 -0.2844861 0.019853912 0.008357038 -0.25353467 -0.37872294
-0.30475503 0.6839044 -0.52597266 -0.68661165 0.2508384 -0.62788147 -0.43810064 -0.014283666
0.076215304 -0.44411725 -0.091703035 -0.37722108 -0.09232797 0.29331136 0.14927512 -0.10267509
0.36353266 -0.9939378 -0.01191837 -0.4769184 0.22085835 -0.08327752 0.2781702 0.22732869
0.22408208 -0.6872925 0.29336467 0.6557343 -0.4747031 0.26393145 0.04894827 -0.17515135
0.46901482 0.08381949 0.4727188 0.16032329 0.27739176 0.27029547 -0.18347399 0.19761182
0.33554804 0.17848592 -0.16534808 0.6025329 0.018750688 0.3162203 -0.64230746 -0.05157203
-0.22586168 0.50820553 -0.16134681 0.17321098 -0.64593065 0.02313578 0.10981935 0.97301304
0.13430868 0.33630165 -0.17207189 -0.34951848 0.46823266 0.2526698 0.2419433 0.49684078
0.57166755 0.3517074 0.539791 0.0896726 -0.2654296 -0.33506027 -0.6794417 -0.65352803
-0.32819313 0.23852304 0.5459801 0.2146533 -0.0585761 -0.49066985 0.11488372 0.048915334
-0.33133984 0.47947994 -0.4200866 0.0016009797 0.21925458 -0.26429793 0.43251878 -0.34601882
-0.54284555 0.2694376 -0.1705759 0.031506214 0.50006294 0.2772903 0.386677 0.41725045
-0.022806467 -0.52589214 0.12370682 0.46541008 -0.013066656 -0.8704997 0.34364134 -0.41348076
-0.14647019 -0.47011992 0.68382895 -0.13393013 0.39738092 0.18132585 -0.69417363 -1.0931987
-0.17268445 0.08597808 -0.120703995 -0.709357 0.59515685 0.54975593 0.22489361 0.34209692
-0.12466067 0.23422591 0.031080775 -0.0014186179 -0.34843838 -0.6478149 -0.050636668 -0.1865392
-0.020556506 0.49572125 -0.2677475 0.7639551 0.0076628854 0.072497346 -0.032174643 0.85278666
0.15610585 0.56757116 0.3650561 -0.26126623 -0.12757117 -0.69713634 -0.5105811 -0.036308922
0.6847295 0.060910154 0.6271644 -0.4653234 -0.1907178 0.4635056 -0.36699927 -0.41804558
0.6584552 -0.5339516 -0.7429961 0.1128122 -0.025720611 0.46819225 -0.63533664 -1.0004678
0.1885577 0.10816545 0.0700479 0.5759263 -0.11644164 0.17368011 0.21753752 -0.35380438
-0.09334922 0.14152746 0.0329835 0.3599838 0.23947996 0.39003852 -0.5772145 -0.4829662
-0.5404307 -0.31085855 -0.3867448 0.108800806 0.033000853 0.17813651 -0.7561665 0.011927384
0.058843 0.017542012 0.0065290974 -0.32979298 -0.2631197 0.4285122 0.15359549 -0.24026744
0.21160053 0.29393202 -0.1704653 0.37257683 -0.8649177 -0.6673004 -0.084538445 -0.04354976
0.33483014 0.3464993 -0.421082 0.19830008 0.0032179991 -0.23979816 -0.0005616903 0.5376052
-0.44143358 0.6181181 0.036769915 0.039302632 -0.33629546 0.1610639 -0.32324862 0.28178054
0.26684886 -0.14321811 0.27301154 -0.1308708 0.021631842 0.7033663 -0.7165957 -0.19887131
00000000: eb07 b53e 86b6 fabc b478 f03c b166 df3e
00000010: 64a9 e63e c528 e2bd df80 d53e d290 46bf
00000020: e9e9 ee3d 52d7 20be 7aef b93d 0639 4b3f
00000030: 73f3 9fbe 9bc5 293f bc03 193f ddc1 073e
00000040: 4d75 073f cbed 5bbd 1d2b f6be 1d7d 3d3f
00000050: 14c4 35bf bd79 d3be ed1e 30bf a39a 86be
00000060: d6f2 92be 71e5 c73d 1dfa 033e 29a8 91be
00000070: aca4 a23c f5eb 083c 4ccf 81be f9e7 c1be
00000080: da08 9cbe 5c14 2f3f 25a6 06bf c8c5 2fbf
00000090: e46d 803e d7bc 20bf ba4e e0be 0a06 6abc
000000a0: c516 9c3d 5663 e3be cdce bbbd 1f23 c1be
000000b0: 7216 bdbd e82c 963e 94db 183e 5147 d2bd
000000c0: f420 ba3e b572 7ebf 4445 43bc a62e f4be
000000d0: b128 623e 688d aabd 536c 8e3e dac8 683e
000000e0: c675 653e 67f2 2fbf e533 963e 34de 273f
000000f0: 490c f3be 0622 873e fb7d 483d e05a 33be
00000100: b622 f03e 8ea9 ab3d 3308 f23e ca2b 243e
00000110: 4b06 8e3e 2b64 8a3e 9be0 3bbe c15a 4a3e
00000120: f4cc ab3e 03c5 363e 0251 29be 993f 1a3f
00000130: 0b9b 993c a1e7 a13e 436e 24bf 313d 53bd
00000140: 4948 67be c219 023f 1938 25be 385e 313e
00000150: b65b 25bf 3f87 bd3c f8e8 e03d 6217 793f
00000160: 3788 093e bb2f ac3e 9d33 30be 16f4 b2be
00000170: 31bc ef3e f05d 813e fcbf 773e ea61 fe3e
00000180: ce58 123f fe12 b43e be2f 0a3f 45a6 b73d
00000190: 63e6 87be 058d abbe e4ef 2dbf 9d4d 27bf
000001a0: ee08 a8be 623f 743e 5ac5 0b3f 13ce 5b3e
000001b0: 7eed 6fbd 1439 fbbe 2848 eb3d 725b 483d
000001c0: 60a5 a9be 657e f53e 9715 d7be f7d7 d13a
000001d0: 4684 603e 0f52 87be 1a73 dd3e 6129 b1be
000001e0: edf7 0abf baf3 893e 73ab 2ebe a90c 013d
000001f0: 2004 003f fff8 8d3e 87fa c53e daa1 d53e
00000200: a1d4 babc dea0 06bf 005a fd3d 3b4a ee3e
00000210: 8715 56bc 11d9 5ebf c2f1 af3e c0b3 d3be
00000220: 48fc 15be 8fb3 f0be 6a0f 2f3f fb24 09be
00000230: 8375 cb3e 7cad 393e 5db5 31bf efed 8bbf
00000240: 31d4 30be 4715 b03d a833 f7bd 6c98 35bf
00000250: 335c 183f cebc 0c3f 834a 663e 5427 af3e
00000260: 184e ffbd ebd8 6f3e 1c9d fe3c ebf0 b9ba
00000270: 8466 b2be 33d7 25bf 6568 4fbd 2204 3fbe
00000280: 1e66 a8bc 2dcf fd3e 3316 89be 9092 433f
00000290: f118 fb3b 7d79 943d 8fc9 03bd 3a50 5a3f
000002a0: 36da 1f3e 584c 113f a2e8 ba3e b0c4 85be
000002b0: 04a2 02be 8777 32bf 71b5 02bf aab8 14bd
000002c0: 6f4a 2f3f ed7c 793d d98d 203f de3e eebe
000002d0: 874b 43be 9b50 ed3e 54e7 bbbe 120a d6be
000002e0: 8590 283f 0db1 08bf fe34 3ebf 150a e73d
000002f0: 08b4 d2bc e5b6 ef3e 6ca5 22bf 540f 80bf
00000300: 4515 413e d985 dd3d 4675 8f3d e86f 133f
00000310: f478 eebd 33d9 313e 28c2 5e3e d925 b5be
00000320: e02d bfbd 93ec 103e b519 073d cc4f b83e
00000330: 3c3a 753e 21b3 c73e 54c4 13bf 5947 f7be
00000340: ab59 0abf da28 9fbe 6a03 c6be f5d2 de3d
00000350: e72b 073d 6b69 363e 2194 41bf 136b 433c
00000360: 5c05 713d 44b4 8f3c 0af2 d53b a0da a8be
00000370: a0b7 86be f365 db3e 2348 1d3e ab08 76be
00000380: cfad 583e 427e 963e 758e 2ebe 64c2 be3e
00000390: 3f6b 5dbf 33d4 2abf 7e22 adbd 3c61 32bd
000003a0: db6e ab3e 5b68 b13e 0f98 d7be 2d0f 4b3e
000003b0: 11e5 523b a68d 75be 663e 13ba 7fa0 093f
000003c0: 9503 e2be fd3c 1e3f 0d9c 163d ccfb 203d
000003d0: eb2e acbe efed 243e d880 a5be 8a45 903e
000003e0: 6aa0 883e c5a7 12be 2bc8 8b3e ff02 06be
000003f0: 4335 b13c d00f 343f d172 37bf eca4 4bbe

network_body._body_endoder.seq_layers.0.bias f4 [128]
-0.017039167 0.019088434 -0.00046828442 0.025829023 0.020471664 0.043691862 -0.010969157 0.052232053
0.0063287322 -0.04850649 -0.006250053 -0.036387965 0.0704767 -0.060580883 0.0076542925 -0.003069151
0.03522384 0.03376884 0.019269463 0.062983446 0.00093229365 0.071133286 0.012797122 -0.013640827
0.016360939 -0.016132336 0.002069927 0.026111806 0.03159802 0.008742765 -0.022734445 0.0012181314
0.03481155 -0.004240688 0.008366031 0.03992941 -0.024598917 -0.0213744 -0.022017317 0.016663268
-0.011726357 0.049531493 -0.0058424943 0.07014099 -0.021409258 0.0045483196 0.033503834 0.013315825
0.027361218 0.007051761 -0.015590244 0.05496765 0.00096815795 -0.026078926 0.016921086 0.022850735
0.0028907105 -0.04250743 0.03940958 0.047992047 0.03712726 0.011155383 0.020707851 0.018954778
-0.032378126 0.051410172 0.011235928 -0.01545747 0.020291256 -0.0018655598 -0.042228233 0.040450193
0.0677019 0.00065208244 0.026091311 0.035556525 0.018017389 0.010798534 -0.064762354 0.03365288
-0.0029968598 0.024374314 0.021055821 0.042202007 0.001188048 -0.017272837 0.021432104 0.00026931116
0.0005672488 0.031137506 0.052575912 0.015338063 0.008524213 0.041980825 0.03764658 0.029448524
0.034928106 0.036584135 0.022464138 0.02618492 -0.022218853 -0.016526427 0.0077540153 -0.042075958
0.035241317 0.01763611 0.047998287 -0.003331907 -0.039865684 0.043038245 -0.0038053717 0.03552312
-0.023155883 -0.023595717 -0.011581695 -0.04688881 -0.045030866 0.04385415 -0.038991097 0.021744823
0.03233253 0.016692087 0.008652199 -0.019045098 0.049491636 -0.003056099 -0.042810567 0.0054423055
00000000: b995 8bbc 595f 9c3c 1284 f5b9 6397 d33c
00000010: 31b4 a73c 3df6 323d fbb7 33bc 47f1 553d
00000020: 4161 cf3b beae 46bd 3fcd ccbb 8c0b 15bd
00000030: 1756 903d a923 78bd dcd0 fa3b cf23 49bb
00000040: e046 103d 3251 0a3d feda 9d3c 77fd 803d
00000050: 2b65 743a 54ae 913d 05ab 513c c67d 5fbc
00000060: 6007 863c f627 84bc 9da7 073b 6de8 d53c
00000070: ed6c 013d d03d 0f3c 963d babc b5a9 9f3a
00000080: 8e96 0e3d 78f5 8abb ad11 093c 058d 233d
00000090: ab83 c9bc 5e19 afbc a95d b4bc 6881 883c
000000a0: e81f 40bc 89e1 4a3d 6572 bfbb 14a6 8f3d
000000b0: 7862 afbc 120a 953b 513b 093d 9e2a 5a3c
000000c0: a224 e03c 7512 e73b 396e 7fbc c225 613d
000000d0: fbcb 7d3a 79a3 d5bc 179e 8a3c 7731 bb3c
000000e0: 1372 3d3b 451c 2ebd f16b 213d 4f93 443d
000000f0: c112 183d 11c5 363c 83a3 a93c 0d47 9b3c
00000100: ed9e 04bd 7993 523d e616 383c 5441 7dbc
00000110: d939 a63c cd85 f4ba 83f7 2cbd 1aaf 253d
00000120: 4ba7 8a3d 83f0 2a3a 72bd d53c b8a3 113d
00000130: 3499 933c 56ec 303c 20a2 84bd 9ad7 093d
00000140: f766 44bb a4ac c73c 427d ac3c 03dc 2c3d
00000150: 47b8 9b3a c47f 8dbc 6192 af3c 5532 8d39
00000160: 6cb3 143a 1514 ff3c d759 573d 804c 7b3c
00000170: 24a9 0b3c 16f4 2b3d 4d33 1a3d 083e f13c
00000180: c610 0f3d 3fd9 153d b606 b83c c281 d63c
00000190: 5004 b6bc 6e62 87bc 6515 fe3b d757 2cbd
000001a0: 3359 103d 9a79 903c da99 443d 205c 5abb
000001b0: 334a 23bd df48 303d 8b63 79bb b180 113d
000001c0: 68b1 bdbc ce4b c1bc 26c1 3dbc 7b0e 40bd
000001d0: 4972 38bd 69a0 333d 21b5 1fbd 3322 b23c
000001e0: 1d6f 043d d8bd 883c f4c1 0d3c 7704 9cbc
000001f0: beb7 4a3d d548 48bb 225a 2fbd 5e55 b23b

network_body._body_endoder.seq_layers.2.weight f4 [128, 128]
0.1227676 0.09833301 0.008667616 0.20105934 -0.08987163 0.22494906 -0.027959632 -0.09473881
0.1593424 -0.13619234 0.023194062 0.046193413 0.051875122 0.021271799 0.042418446 0.017854575
-0.041954327 0.121270634 -0.22899564 -0.088482715 0.17225039 0.03039857 -0.19549167 -0.20747921
0.052681822 0.11234078 0.008603764 0.0883676 0.062334083 -0.12138747 0.08761261 0.006281702
-0.11638319 -0.04642543 -0.01962795 0.036972255 0.042955674 0.079304375 -0.05004476 -0.011403238
0.008883853 -0.07219328 0.05195457 -0.15747847 -0.019632239 0.013933228 -0.04944994 -0.035040308
0.11965278 0.16981792 0.015634425 0.06200066 -0.00049166416 0.15832981 -0.106755145 -0.02516237
-0.035828967 -0.019622654 -0.042465184 -0.07493462 -0.037884727 0.16572164 -0.03364478 -0.026872342
-0.112179436 -0.08366202 -0.016892444 0.043872934 -0.10458802 -0.06297952 -0.06881003 0.028276734
-0.013058203 0.04573589 -0.07590048 0.013684149 0.050727967 -0.018973475 -0.012453344 0.07693394
-0.13638249 0.13182789 0.003942669 0.18936086 -0.03835006 -0.024142891 -0.062114477 -0.07035189
-0.019055178 -0.18079567 0.07006904 0.018915799 0.1377586 0.064880565 0.038662042 -0.126449
-0.013550331 0.072927244 0.0045765773 0.12088282 -0.12767932 -0.07353421 -0.029257214 0.022816349
-0.20436592 -0.04515406 0.03759665 0.21080825 -0.08565662 -0.16638096 -0.0012931426 0.0058189947
-0.008380611 -0.08220075 -0.06534795 0.024453867 0.013668898 -0.013338317 0.039423976 0.053986963
0.019057529 0.005541784 -0.11982714 0.20084587 0.057215933 0.2631567 0.029139286 0.122048125
0.023364428 -0.08602215 -0.19529791 -0.022616817 0.16841418 0.101422824 -0.085704364 0.06259528
0.048942678 -0.004628975 -0.057039455 -0.057594176 -0.078427844 -0.066370144 0.07105514 -0.03197469
-0.07076516 0.007904315 0.035673615 -0.107190885 -0.13027512 -0.12638575 -0.0713041 -0.17107217
-0.1558833 -0.070671804 -0.07515326 0.113807134 0.07856783 -0.078537434 -0.06572258 0.008775444
-0.07039768 -0.18755868 -0.18687063 -0.09244229 0.07480073 0.25679174 -0.055806603 -0.012417735
0.08357914 -0.12041571 0.095620096 -0.17002328 0.11482866 0.02672 -0.058227714 0.011892406
-0.021725407 -0.102209136 0.10021819 -0.041718777 0.06404225 0.019233936 0.052174572 -0.0810897
-0.020094106 0.05266604 -0.15210342 -0.22799516 -0.04663088 0.03495768 -0.062276676 0.053765584
0.021110198 0.0984441 0.012445948 -0.050243046 0.032503664 -0.17782155 -0.10458574 -0.07675327
-0.057985526 0.03349811 0.034440476 0.0992743 -0.09230557 0.04919645 0.070321165 -0.019188723
0.111401975 -0.1297148 0.25254726 -0.09855709 -0.11614691 -0.07639662 -0.12479574 -0.09150269
0.046816256 0.056503255 -0.07479308 0.06232299 0.06888679 0.04874097 0.012530047 0.1465514
0.077831626 0.018892033 -0.13532044 -0.04164905 -0.12227527 -0.04593885 -0.18935135 -0.067505375
-0.07441182 -0.13925835 0.01206243 0.10991208 -0.06257576 0.039839726 0.06795026 0.01050689
-0.08357266 -0.0017064321 0.021731934 0.07924369 0.049699344 0.2284423 -0.0023381289 0.06920322
-0.1204315 -0.0073748985 0.18721475 0.026259765 0.078491226 0.08821601 -0.08656079 0.15202993
00000000: 946d fb3d d162 c93d 9e02 0e3c 80e2 4d3e
00000010: 9e0e b8bd 0c59 663e 990b e5bc 6c06 c2bd
00000020: a72a 233e 0176 0bbe 7901 be3c 4e35 3d3d
00000030: 027b 543d 3242 ae3c f7be 2d3d c243 923c
00000040: 4dd8 2bbd bd5c f83d d57d 6abe 6d36 b5bd
00000050: 6862 303e 6c06 f93c f82e 48be 6e75 54be
00000060: e5c8 573d ec12 e63d cdf6 0c3c 13fa b43d
00000070: 0652 7f3d fe99 f8bd 3d6e b33d bcd6 cd3b
00000080: 4f5a eebd 9728 3ebd cbca a0bc 3870 173d
00000090: 4af2 2f3d 556a a23d bcfb 4cbd a6d4 3abc
000000a0: 958d 113c 12da 93bd 51ce 543d 0942 21be
000000b0: cad3 a0bc 3248 643c 058c 4abd 6d86 0fbd
000000c0: 840c f53d c0e4 2d3e c413 803c 67f4 7d3d
000000d0: 06e3 00ba 3621 223e 71a2 dabd 5121 cebc
000000e0: 65c1 12bd b0bf a0bc f9ef 2dbd 5277 99bd
000000f0: 042d 1bbd efb2 293e 1ccf 09bd 6323 dcbc
00000100: 55be e5bd fe56 abbd 0662 8abc 1bb4 333d
00000110: 3e32 d6bd 68fb 80bd 46ec 8cbd 9ca4 e73c
00000120: 13f2 55bc 8e55 3b3d b671 9bbd 7b33 603c
00000130: 21c8 4f3d 436e 9bbc 1c09 4cbc 8b8f 9d3d
00000140: daa7 0bbe e4fd 063e 8131 813b d0e7 413e
00000150: f414 1dbd 50c7 c5bc c06b 7ebd a714 90bd
00000160: 9b19 9cbc 8022 39be 5b80 8f3d 4ef5 9a3c
00000170: 9710 0d3e 1ae0 843d 175c 1e3d d97b 01be
00000180: 3502 5ebc e15a 953d 1df7 953b 6991 f73d
00000190: 5ebe 02be 1b99 96bd d3ac efbc 5ae9 ba3c
000001a0: 4d45 51be 77f3 38bd f2fe 193d 1ede 573e
000001b0: bd6c afbd c55f 2abe aa7e a9ba 44ad be3b
000001c0: d54e 09bc de58 a8bd 25d5 85bd 7a53 c83c
000001d0: 83f3 5f3c f588 5abc 097b 213d 6f21 5d3d
000001e0: 891e 9c3c db97 b53b ee67 f5bd 8aaa 4d3e
000001f0: 415b 6a3d 7abc 863e 83b5 ee3c 5ef4 f93d
00000200: c266 bf3c 622c b0bd 2dfc 47be e746 b9bc
00000210: c474 2c3e c5b6 cf3d c585 afbd f431 803d
00000220: 1e78 483d a8ae 97bb 34a2 69bd dfe7 6bbd
00000230: c79e a0bd 12ed 87bd 5b85 913d e4f7 02bd
00000240: 53ed 90bd 1a81 013c 7f1e 123d e586 dbbd
00000250: d766 05be 446b 01be e207 92bd 8b2d 2fbe
00000260: df9f 1fbe 61bc 90bd f4e9 99bd b713 e93d
00000270: 2ce8 a03d 3cd8 a0bd 8f99 86bd e1c6 0f3c
00000280: a92c 90bd 620f 40be 045b 3fbe 6252 bdbd
00000290: 2031 993d 357a 833e 7795 64bd c173 4bbc
000002a0: 8a2b ab3d 839c f6bd 78d4 c33d 951a 2ebe
000002b0: 4a2b eb3d e7e3 da3c 2f80 6ebd 5ed8 423c
000002c0: 7bf9 b1bc 0653 d1bd 323f cd3d 4fe1 2abd
000002d0: 9528 833d 7d90 9d3c 01b5 553d 5b12 a6bd
000002e0: 659c a4bc 58b8 573d 00c1 1bbe 9077 69be
000002f0: 0600 3fbd c92f 0f3d d415 7fbd 4d39 5c3d
00000300: 4bef ac3c 0f9d c93d 17ea 4b3c a7cb 4dbd
00000310: 9022 053d da16 36be 0c31 d6bd d230 9dbd
00000320: 3b82 6dbd 5035 093d 7511 0d3d 5350 cb3d
00000330: b40a bdbd 3782 493d 8b04 903d ab31 9dbc
00000340: b826 e43d f5d3 04be e04d 813e 4dd8 c9bd
00000350: 6ede edbd d575 9cbd e994 ffbd c365 bbbd
00000360: 67c2 3f3d f56f 673d 1d2d 99bd 6446 7f3d
00000370: 8414 8d3d 9da4 473d d44a 4d3c 9211 163e
00000380: 3066 9f3d 77c3 9a3c 7191 0abe 3298 2abd
00000390: 756b fabd 602a 3cbd 52e5 41be 4240 8abd
000003a0: 3965 98bd be99 0ebe 80a1 453c 9619 e13d
000003b0: b827 80bd fb2e 233d 8229 8b3d 1725 2c3c
000003c0: 2528 abbd 5caa dfba 2b07 b23c 844a a23d
000003d0: 8a91 4b3d c7ec 693e 4b3b 19bb 6bba 8d3d
000003e0: caa4 f6bd 22a9 f1bb 39b5 3f3e b81e d73c
000003f0: 02c0 a03d 98aa b43d c946 b1bd bcad 1b3e

network_body._body_endoder.seq_layers.2.bias f4 [128]
-0.028548978 0.014651383 0.025462326 0.04668764 0.021634405 0.009318095 -0.013591514 0.0017616801
0.013730501 0.020274905 -0.0077530695 0.01762502 0.028835217 -0.010159768 0.065497525 -0.00875902
0.013002816 -0.01165059 0.007761481 0.044470213 -0.00033583265 0.0042279237 0.027655441 0.0021832562
0.022697011 0.013399529 0.00293071 -0.0038982164 0.036833137 -0.0077362657 0.013550415 0.015233369
0.05823682 0.0041813436 0.004866827 0.012751898 0.035626978 0.03308322 0.051175408 -0.013352984
-0.0062519955 -0.014956896 0.030839505 -0.013998675 0.025679877 0.0185444 0.045590032 -0.011506524
0.03173725 -0.03332029 0.040187716 0.034892827 0.0022397733 0.024693465 0.03632073 -0.02510101
-0.011891967 -0.011857517 0.032208506 0.003774395 0.0022749796 0.025960203 0.036332555 0.042895555
0.00026965493 0.036005918 -0.0069866297 -0.02376268 0.0077274595 0.0071568177 0.060524195 -0.024669122
-0.024901852 0.02695979 0.03345645 0.04102385 0.0066693914 0.017889122 0.020515244 -0.031092575
0.009887659 0.00944642 0.022479445 -2.4948076e-07 -0.026206419 0.030941812 0.027259417 0.018969234
-0.004730697 0.05056914 0.011924111 0.022463836 0.009133459 0.04930086 0.001065999 0.030441554
0.00398151 0.0122746155 0.010225033 0.008895355 0.044655826 -0.008976106 0.03541744 0.011721303
0.004984295 0.014141747 0.015904875 -0.006665025 0.010308427 0.01965812 0.05662851 0.05723838
0.028768232 0.013010632 0.023783894 0.03717098 0.012714495 -0.0041660755 -0.005999889 0.04355654
-0.0026875287 0.024438234 0.024136567 0.040540017 0.06157499 0.0029411197 0.020027742 0.026345143
00000000: 8cdf e9bc 5b0c 703c 5e96 d03c 8a3b 3f3d
00000010: a33a b13c ecaa 183c f1ae 5ebc 2de8 e63a
00000020: e5f5 603c 8f17 a63c 760d febb 5962 903c
00000030: d537 ec3c 2875 26bc 9123 863d fe81 0fbc
00000040: c309 553c 1ee2 3ebc 0654 fe3b 6626 363d
00000050: b212 b0b9 658a 8a3b aa8d e23c f614 0f3b
00000060: 15ef b93c b389 5b3c 2811 403b 3879 7fbb
00000070: 58de 163d 8080 fdbb 8f02 5e3c 6195 793c
00000080: bb89 6e3d a703 893b e779 9f3b 56ed 503c
00000090: 98ed 113d 4582 073d 4e9d 513d 79c6 5abc
000000a0: 8add ccbb c50d 75bc 21a3 fc3c b35a 65bc
000000b0: 9b5e d23c 6dea 973c 9dbc 3a3d dc85 3cbc
000000c0: ebfe 013d db7a 08bd e09b 243d c8eb 0e3d
000000d0: 29c9 123b f349 ca3c 0cc5 143d a2a0 cdbc
000000e0: 86d6 42bc 0846 42bc 11ed 033d d75b 773b
000000f0: d317 153b 7eaa d43c 72d1 143d 40b3 2f3d
00000100: 7960 8d39 f17a 133d 19f0 e4bb f4a9 c2bc
00000110: a136 fd3b bd83 ea3b 38e8 773d e616 cabc
00000120: f8fe cbbc c7da dc3c a109 093d a008 283d
00000130: e98a da3b 358c 923c 960f a83c dbb5 febc
00000140: d9ff 213c 28c5 1a3c d026 b83c 60f0 85b4
00000150: d8ae d6bc af79 fd3c 244f df3c 5e65 9b3c
00000160: f603 9bbb 9621 4f3d 595d 433c 1406 b83c
00000170: 81a4 153c b3ef 493d feb8 8b3a 9160 f93c
00000180: 5477 823b 781b 493c e686 273c d3bd 113c
00000190: 07e9 363d 8410 13bc e111 113d b50a 403c
000001a0: 4c53 a33b c9b2 673c f14a 823c 4866 dabb
000001b0: ade4 283c 110a a13c 4cf3 673d cb72 6a3d
000001c0: 5bab eb3c 8c2a 553c 71d6 c23c 9940 183d
000001d0: 7550 503c 9383 88bb b89a c4bb 5868 323d
000001e0: 4021 30bb b132 c83c 0dba c53c 4a0d 263d
000001f0: 0f36 7c3d cdbf 403b 3811 a43c c5d1 d73c

action_model._continuous_distribution.log_sigma f4 [1, 2]
-0.08906637 -0.0884157
00000000: 6e68 b6bd 4a13 b5bd

action_model._continuous_distribution.mu.weight f4 [2, 128]
0.0036997246 0.033884224 0.10353082 -0.044575516 -0.02369684 0.085498184 0.04007289 0.009093238
0.07354606 0.03259393 -0.014638543 0.0024925275 -0.05554655 0.029820018 -0.05633763 0.017270556
0.07655797 -0.008418715 -0.0022482674 -0.06975924 0.043733425 0.06569366 0.05940277 0.045795508
-0.020217964 0.031132195 0.07261418 0.029129852 -0.06554806 0.022534553 0.0028104219 -0.022237606
-0.09470122 0.021898143 -0.018850157 0.08453384 -0.018898342 -0.06506818 -0.07120557 0.022537664
0.028742917 0.029455902 -0.037408438 -0.006910903 0.028050754 -0.021841029 -0.08453791 0.021241885
-0.065802366 -0.0003971568 -0.043912504 -0.05165476 0.01155385 0.0042262794 -0.06377328 0.010590212
0.010269903 0.08913057 -0.0713511 0.049449824 0.0221166 0.11962551 -0.0506857 -0.05188901
-0.0077811363 -0.038289543 -0.010081091 0.009579235 0.08370303 0.044602126 0.012729404 0.010021769
0.038673934 -0.03265864 -0.039409503 -0.10828532 0.07559477 0.005823523 0.059402104 -0.010889434
0.07830797 0.048419517 0.007801546 0.067944795 0.014229144 -0.077305116 -0.030284032 -0.05125809
0.052484777 -0.094782114 -0.017872984 0.07173096 0.06260681 -0.054680344 -0.009344572 0.0032162645
-0.024924833 0.021896165 0.045358896 0.062555514 -0.078815386 0.03823507 -0.01425679 0.0073259254
0.045006953 -0.0054393886 0.100176364 0.03068115 -0.01590191 0.03283115 -0.05101525 -0.07480321
-0.04326932 0.046850633 -0.026172169 -0.057270084 0.07813377 0.07340878 0.046613608 -0.04035867
0.04886881 -0.08751566 -0.047731746 -0.06488002 -0.03271208 0.013315382 -0.016916707 0.09043889
0.0001065993 -0.059457798 0.014562885 -0.03946107 -0.028371543 -0.013316063 0.0257637 0.027846526
0.02903928 -0.04807543 0.03592658 -0.08528424 0.05888974 0.043454573 0.055589713 0.009491709
-0.013917748 -0.0037417463 -0.033074792 0.0044803745 -0.024102354 -0.050143816 -0.069668286 -0.018284759
0.0831638 -0.06716395 0.010052032 0.007519793 -0.014901371 -0.016755024 0.07400265 0.057037972
0.044012826 0.045468345 0.0013286117 0.0083712125 0.08856507 -0.014453635 0.011609253 -0.0031796678
-0.027662858 0.021457981 -0.032659374 -0.021035826 0.07162718 0.038021743 0.028295489 0.044542678
-0.025666121 -0.004923238 -0.06808118 0.029752843 0.014862691 -0.04392731 0.012741865 0.023609927
-0.0042682304 0.03265347 -0.017985323 -0.03367949 -0.03601054 0.0023576308 -0.05675762 -0.040341638
0.019382764 -0.05611446 0.021863526 -0.0057826275 -0.026004687 -0.007016765 0.12047919 -0.008905763
0.00030160218 -0.03421259 0.0145459715 -0.010408615 0.02767938 -0.041113906 0.059851576 0.03004786
-0.010776698 -0.024976185 -0.04980543 0.038774896 0.01512829 -0.03719108 0.03962969 0.0050753118
0.0033212374 0.0027608518 -0.03730166 -0.06325645 0.017505309 -0.021408588 0.0080189295 0.06560253
0.032277256 0.0600573 -0.0222825 -0.011824509 0.020209756 -0.0069530774 -0.07435901 -0.065610744
0.035175607 0.028930804 0.02316464 -0.032498214 0.038061403 0.04932758 0.09505645 0.016868385
0.08804012 0.055407856 0.088772245 -0.07032017 -0.023774173 -0.0006823075 -0.0036064342 -0.072367236
-0.005616963 0.035444725 -0.007806228 0.06041896 0.06392726 -0.033541676 0.0674708 -0.02677338
00000000: 1477 723b 2fca 0a3d f707 d43d d194 36bd
00000010: e01f c2bc ac19 af3d 7923 243d cefb 143c
00000020: 519f 963d 3681 053d 80d6 6fbc ac59 233b
00000030: c784 63bd 1c49 f43c 49c2 66bd fb7a 8d3c
00000040: 6dca 9c3d a6ee 09bc ab57 13bb efdd 8ebd
00000050: d221 333d 668a 863d 5250 733d 1294 3b3d
00000060: 25a0 a5bc f208 ff3c beb6 943d baa1 ee3c
00000070: 103e 86bd 629a b83c 0e2f 383b a42b b6bc
00000080: b7f2 c1bd bc63 b33c a56b 9abc 1420 ad3d
00000090: b2d0 9abc 7742 85bd 3ad4 91bd e8a0 b83c
000000a0: 4476 eb3c 814d f13c 9739 19bd db74 e2bb
000000b0: b2ca e53c f5eb b2bc 3622 adbd 7603 ae3c
000000c0: 64c3 86bd 7c39 d0b9 99dd 33bd f193 53bd
000000d0: 5c4c 3d3c 9a7c 8a3b 919b 82bd 9282 2d3c
000000e0: 1843 283c 178a b63d 8720 92bd e68b 4a3d
000000f0: df2d b53c 38fe f43d cf9b 4fbd 9289 54bd
00000100: e7f8 febb 7fd5 1cbd 292b 25bc 39f2 1c3c
00000110: 7f6c ab3d b8b0 363d fd8e 503c 5932 243c
00000120: 8f68 1e3d 11c5 05bd dc6b 21bd b2c4 ddbd
00000130: 6ed1 9a3d 40d3 be3b 9f4f 733d 9969 32bc
00000140: ee5f a03d 8b53 463d 1ca4 ff3b a426 8b3d
00000150: 5b21 693c 2552 9ebd 3816 f8bc 01f4 51bd
00000160: 47fa 563d 201d c2bd 5d6a 92bc aee7 923d
00000170: 0038 803d 7ff8 5fbd fa19 19bc f7c7 523b
00000180: 2a2f ccbc 965f b33c 40ca 393d 1b1d 803d
00000190: f669 a1bd 609c 1c3d 5095 69bc 510e f03b
000001a0: 3659 383d e63c b2bb 4429 cd3d 0957 fb3c
000001b0: b944 82bc f579 063d 5ef5 50bd 6d32 99bd
000001c0: 2c3b 31bd 73e6 3f3d 0467 d6bc 0994 6abd
000001d0: 9904 a03d 5857 963d e9ed 3e3d 224f 25bd
000001e0: a92a 483d 693b b3bd 5d82 43bd d1df 84bd
000001f0: 1afd 05bd c328 5a3c e894 8abc 0638 b93d
00000200: 108e df38 058a 73bd 2b99 6e3c eea1 21bd
00000210: 706b e8bc 9e2b 5abc 650e d33c 661e e43c
00000220: c9e3 ed3c beea 44bd c027 133d 81a9 aebd
00000230: 5e36 713d 6cfd 313d 0ab2 633d 1d83 1b3c
00000240: 4407 64bc 1638 75bb 6f79 07bd 1bd0 923b
00000250: 4d72 c5bc 9a63 4dbd 3fae 8ebd ebc9 95bc
00000260: c851 aa3d 418d 89bd 47b1 243c 9968 f63b
00000270: e124 74bc d541 89bc b48e 973d a6a0 693d
00000280: cb46 343d 043d 3a3d d024 ae3a 6927 093c
00000290: 9a61 b53d f0ce 6cbc bc34 3e3c f961 50bb
000002a0: 389d e2bc a6c8 af3c d6c5 05bd 5353 acbc
000002b0: 45b1 923d b0bc 1b3d f1cb e73c 6272 363d
000002c0: c241 d2bc 1d53 a1bb 256e 8bbd 3cbc f33c
000002d0: a582 733c 1fed 33bd 41c3 503c 9b69 c13c
000002e0: 83dc 8bbb a5bf 053d f555 93bc 81f3 09bd
000002f0: ca7f 13bd 7b82 1a3b ae7a 68bd 463d 25bd
00000300: 9ac8 9e3c 47d8 65bd 231b b33c 327c bdbb
00000310: c807 d5bc e4ec e5bb cbbd f63d 7ae9 11bc
00000320: 5c20 9e39 8022 0cbd 3a52 6e3c e588 2abc
00000330: debf e23c 0e67 28bd ed26 753d ee26 f63c
00000340: bf90 30bc db9a ccbc c700 4cbd 6dd2 1e3d
00000350: a6dc 773c ad55 18bd be52 223d cd4e a63b
00000360: 1ea9 593b 68ef 343b a0c9 18bd 998c 81bd
00000370: 4b67 8f3c 1061 afbc d461 033c 9f5a 863d
00000380: 2835 043d a5fe 753d ca89 b6bc 96bb 41bc
00000390: ee8e a53c a4d6 e3bb 8949 98bd ed5e 86bd
000003a0: 4c14 103d 4b00 ed3c c5c3 bd3c d91c 05bd
000003b0: 46e6 1b3d b70b 4a3d f5ac c23d 912f 8a3c
000003c0: 614e b43d 59f3 623d 39ce b53d 0504 90bd
000003d0: 0ec2 c2bc e2dc 32ba ed59 6cbb 4635 94bd
000003e0: 800e b8bb 7d2e 113d 63cb ffbb df79 773d
000003f0: 4cec 823d ff62 09bd 212e 8a3d d953 dbbc

action_model._continuous_distribution.mu.bias f4 [2]
-0.019646423 -0.008110762
00000000: 89f1 a0bc 00e3 04bc

onnx::Div_51 f4 [7]
0.70120853 0.0041258256 0.7114191 1.8593309 1.9643894 0.0041258256 2.2229543
00000000: 6782 333f ef31 873b 901f 363f 8efe ed3f
00000010: 1d71 fb3f ef31 873b e244 0e40
