Config/results/test_v4/SecurityGuard.onnx (onnx, 76496 bytes, 9 tensors)

network_body.observation_encoder.processors.0.normalizer.running_mean f4 [7]
00000000: 6846 75bd 0000 0000 b282 313d b402 8f40
00000010: dbc2 43bd 0000 0000 7ec3 703a
-0.059881598 0.0 0.04333753 4.46908 -0.04779325 0.0 0.0009184404

network_body._body_endoder.seq_layers.0.weight f4 [128, 7]
00000000: 979f 983d 84fa 933e a4a5 3e3d cf5e 76be
00000010: ae0e fa3e 4fc2 853f c197 3a3e 2afe 69be
00000020: bf2a bbbe c547 923d 7fe7 5abe 3116 31bf
00000030: 25ca c5bb 5fbd 3cbd bb78 1a3f 1bd9 8a3e
00000040: fb6e 863c c3b1 eabe 1076 3c3e ee97 b33c
00000050: e76f 6e3e 5906 a93e 5910 583e 9b0e 68be
00000060: 47e3 0a3f 2784 86be 650a cbbe 8ffc 3e3e
00000070: 5ab5 003f 8bb1 e03d e1db 2dbe 4e14 543f
00000080: ca7d 903e d291 6f3e 0cf7 d73d c461 f83e
00000090: ae8a 7bbe 87e6 09bf 7a30 ee3d 8a92 b43e
000000a0: 21d6 dfbd 79cb fcbd 521a 4a3f 166a de3d
000000b0: cd98 4ebf 4488 2f3e 3fe8 a83d bbf8 cd3e
000000c0: ebf4 d5bd cae0 40be 96e8 243e 9935 12bf
000000d0: 41d7 03be 1d39 b0bc 7db4 0f3f 373c d7be
000000e0: 82c0 01bf 9785 24bd 969a 033f 5ae2 47bf
000000f0: dc53 163c a5c5 a83d 62e4 983e c77c 213f
00000100: 6913 193c 17fd 06be 4189 07bf de0d 9c3d
00000110: f809 45be 1cbf ecbe 002d 1bbe 5577 89be
00000120: 6034 873e d1d9 173e 75bd 783c 97a1 113f
00000130: c870 b33e 570d 5cbe 9524 033f 93d4 aebd
00000140: 63c3 143f 9a06 06bf 7115 c5be 45ea f5be
00000150: e59c 10be 9355 053d be6e 2c3f 6ed8 f1be
00000160: a26d 8cbe d714 14be aa35 b2bd f8cf 3abf
00000170: 8b31 5c3f caca fa3e 370f f33b fa53 243f
00000180: e0f2 10bf 6882 04bf 5d65 19bd 7290 0b3f
00000190: c707 edbe 9a65 16be bd80 4bbe c346 d3bd
000001a0: 7d04 0fbe 8689 acbd 4c47 b3be 01a7 3fbf
000001b0: 3819 e8be 5e65 923e 2c5d 88bd e847 533e
000001c0: 953e 003f 0953 1abf c654 96bd 4b9d 533d
000001d0: d94f b0be 4cfb a13e 4c02 d73d 8aa8 c03d
000001e0: 8443 383f 9559 883c 3da3 1dbe f025 d23c
000001f0: 2d81 1fbd 239e aabe d534 1c3f cdb4 b8be
00000200: 85f5 873f 7ba6 193d 1d31 b23e bbca 043e
00000210: 70d9 3ebe ff72 bbbe ed60 fe3d aca4 97bd
00000220: 64ae 5c3d 510d 00bf ab4d 23bf 336a cbbe
00000230: 2757 ebbd e030 d1be 95bd b5be 1d39 47bf
00000240: 323a e8be 19eb 3b3f 65b2 323b 7f9b 45be
00000250: e671 fabe 7089 1bbf 3af7 e0bd 7715 12bf
00000260: c58a b3be c255 283f 193a a9be 7a36 043e
00000270: 7ed0 233f cc9e a73e 4d3c 913d c2bf dcbe
00000280: 854f 893f 3474 583e 15d6 c53e 13f3 9a3e
00000290: 5eae 7ebe 7218 31bf 46a4 19be 6dd7 bfbe
000002a0: 5dd7 ab3c 5675 86be 9d02 e3be bdd6 a03e
000002b0: 8a68 97be e821 243f e2f3 02be 510b 64bb
000002c0: 7018 df3d 6a4a 2dbd da32 853c 6600 e33e
000002d0: 052c 40be 8271 cb3e 4728 6e3f cb3c a73e
000002e0: 57c5 303c b0f7 1abf 35f7 adbe 2f80 f63d
000002f0: 340a 8f3e d869 f83d 620a 08bf 94b7 d7be
00000300: 8942 aabd 631f 66bd 2412 18be 947a d9be
00000310: a3d5 d33b 7802 493e 00cf 133f 49ce f6bd
00000320: 0dad 8e3e 2a11 0b3f 1eea eebe d0c6 c23e
00000330: 65b7 8ebe c7e4 a63e 1086 d9bd 3f5c 533f
00000340: 8c2d fe3e 040d 373f 080f 0c3e 5d4f e33c
00000350: 16f8 ac3e d66a 26bd cb6b 443e 6a46 72be
00000360: c5a2 ec3d c8bb 91bd 1e16 d93d 9444 283f
00000370: 5bb6 aebe c502 25bd f292 8cbe dd40 17bf
00000380: 4393 223f 5b51 c73d 5823 803e a6fb 08be
00000390: 8002 823e a94c ca3e d6e3 e63e b9ae 013f
000003a0: d83c c1be 9c51 32be a277 633e 919d 0d3e
000003b0: 2a15 1abe ca61 793d 30c1 22bf 334a c53d
000003c0: b3b3 37bf 8ab8 e73e a765 1bbd 6438 eebe
000003d0: e89d 023e 3fa2 ddbd e718 903e a8dc 773e
000003e0: fd23 1bbf 5864 f03c 3b42 8fbe 90e9 3b3e
000003f0: c107 303e d276 10be a2cc 49be 3394 c13d
0.07452314 0.28902066 0.046544686 -0.24059604 0.48839325 1.0449923 0.18221952 -0.22850862
-0.3655605 0.07142595 -0.21377371 -0.69174486 -0.0060360604 -0.046079036 0.6034047 0.27118763
0.016410341 -0.45838746 0.18404412 0.021923032 0.23284875 0.33012655 0.21099986 -0.22661822
0.5425305 -0.262727 -0.39656368 0.18651031 0.5027672 0.10971364 -0.16978408 0.8284348
0.2822097 0.2339547 0.10545167 0.4851209 -0.24564621 -0.5386738 0.1163034 0.3526805
-0.10929514 -0.12343497 0.7894641 0.10860078 -0.80701905 0.17141825 0.082474224 0.4022883
-0.10447105 -0.1883575 0.1610435 -0.57113034 -0.12875082 -0.021511609 0.5613478 -0.42038128
-0.5068437 -0.040166464 0.51407754 -0.7807976 0.009175267 0.08240823 0.29861742 0.6308102
0.009343007 -0.13182484 -0.5294381 0.076198325 -0.19242084 -0.46239555 -0.15153885 -0.26848856
0.26407146 0.14829184 0.015181889 0.5688719 0.35046983 -0.21489464 0.51227695 -0.08536639
0.58110636 -0.52353823 -0.3849292 -0.48030296 -0.1412235 0.032552313 0.6735648 -0.47235435
-0.27427393 -0.14461075 -0.08701642 -0.72973585 0.86013097 0.4898284 0.0074175852 0.6419064
-0.566206 -0.51761484 -0.037450183 0.5451728 -0.46294996 -0.14687195 -0.19873329 -0.10316231
-0.13966556 -0.08424668 -0.35015333 -0.748642 -0.4533174 0.28592962 -0.06658396 0.20632899
0.5009549 -0.6028295 -0.07340388 0.05166368 -0.3443592 0.31637037 0.10498485 0.09407146
0.7197802 0.016644279 -0.15394302 0.025652856 -0.03894155 -0.33323774 0.61018115 -0.3607544
1.0621802 0.037512284 0.34803095 0.1296796 -0.18637633 -0.36611173 0.12420831 -0.074044555
0.05387725 -0.5002032 -0.63790387 -0.3972946 -0.11491232 -0.408576 -0.35496202 -0.7782152
-0.453569 0.73405606 0.0027266976 -0.19297598 -0.48915023 -0.6075659 -0.10984655 -0.57064
-0.3506681 0.65755856 -0.33052137 0.12911406 0.6399001 0.3273834 0.070915796 -0.4311505
1.0727392 0.21138078 0.38639894 0.30263576 -0.24871203 -0.69177926 -0.15004072 -0.37469044
0.020976717 -0.26261395 -0.4433793 0.31413832 -0.29571944 0.64114237 -0.12788346 -0.0034796784
0.10893333 -0.042307295 0.0162596 0.4433624 -0.18766792 0.39735037 0.9303021 0.3266357
0.010789237 -0.6053419 -0.33977666 0.12036168 0.27937472 0.12129563 -0.5314084 -0.42132246
-0.08313472 -0.056182276 -0.1485067 -0.42476332 0.0064646765 0.19629848 0.5773773 -0.120510645
0.27866402 0.54323065 -0.46662992 0.38042307 -0.27874294 0.32596418 -0.106212735 0.8256263
0.49644125 0.71504235 0.13677609 0.027747804 0.33783025 -0.04062923 0.19181745 -0.23659673
0.11554483 -0.071158946 0.10599922 0.6572964 -0.341235 -0.040285844 -0.2745586 -0.5908335
0.63505954 0.09732314 0.25026965 -0.13377246 0.25392532 0.39511612 0.450957 0.5065723
-0.37741733 -0.17413944 0.22213605 0.13829638 -0.15047136 0.060884275 -0.6357603 0.09633293
-0.71758574 0.4525798 -0.03793874 -0.46527398 0.12755549 -0.108219616 0.28144 0.24205267
-0.6060179 0.029344723 -0.27980217 0.18350816 0.17190458 -0.14107826 -0.19706967 0.09452095

network_body._body_endoder.seq_layers.0.bias f4 [128]
00000000: fdd3 5c3c a634 763d 1c0b 1b3c 90ca e8bb
00000010: 36de ea3c ba46 aebc 08a0 01bd 763c 423c
00000020: d8fd 6e3b 37b4 0ebb c58c 0bbc e586 0e3d
00000030: 7a03 6b3d 48ee 78bc bf54 30bc f509 a63a
00000040: 7ec1 6cbc 1a7a 6ebb 5624 1a3d 9aa2 98bc
00000050: fc39 ea3b 62b8 233c 0768 ad3c 7aed 483c
00000060: dbda 513b d417 42bd 352d fb3c 4874 6fbc
00000070: b93a c53c fb1e 713b 2363 d53c 1ac8 583c
00000080: b035 0fbd f865 aebc 4171 8b3c ad6e 8abc
00000090: 8f2f 91bb 53a1 393c 27b9 eabc 8e77 583d
000000a0: 15f5 383d 6573 7abc 6104 073d 2388 603d
000000b0: 7798 5d3c 3a52 513d a486 d83c 091c ce3c
000000c0: 73ef 843c 05c8 653d 4a69 173d a079 39bb
000000d0: 58cc d2bc 8a54 043a 02f0 81bb 6c6a cfbc
000000e0: 143f cdbc 55f7 3cbc b1e3 313d 319a 49bc
000000f0: 4144 da3c 6a3c c9bc 83a6 40bb 32b6 15bd
00000100: 91f7 9b3d fe21 703c aa99 8c3c cfac 043d
00000110: 48c5 37bd 3b85 febb 8d8c 7b3c 1f38 4c3d
00000120: e742 15bd 8d62 a8bb 9670 3ebc 0936 a63c
00000130: 054d a93c 6d3c ab3d e152 013d a2ac c6bb
00000140: f240 86bd c027 15bb 84d2 073d fa43 dcbc
00000150: d2c2 cdbb 0522 443d 6789 f73c 8e1e 5c3d
00000160: c95c 2ebb 8602 483d b5a7 7bbd 09b4 593d
00000170: 235d 033d 14df c9bb 143c 873c 5f3f a8bc
00000180: 4efa 0e3d b942 a43c dbac 1c3d 21d7 9bbc
00000190: 655f 473d 0b56 5dbc 5cfd a739 6671 083b
000001a0: 63da b03c 89ce 4e3c 824c 023b 779f 973a
000001b0: 8446 d5bb 102a 8f3d 52d6 1bbd d77e 383d
000001c0: 170a 9b3b 8da2 63bb 8ace a9bd 3562 bc3c
000001d0: 3064 1f3d 2e4c 833c c3ba af3c 3af4 283d
000001e0: 2d95 7d3d 7906 04bc 8648 11bd 62c6 683d
000001f0: e6cd 89bc 3d15 243c f169 103c 0e40 a6bc
0.013478276 0.060108803 0.009463098 -0.0071042255 0.028670412 -0.02127396 -0.03164676 0.011855235
0.003646722 -0.0021774897 -0.008517449 0.034796614 0.057376362 -0.015193529 -0.010762393 0.0012667762
-0.014450429 -0.0036388696 0.03763231 -0.018632222 0.0071480256 0.009992691 0.021167768 0.01226365
0.0032021317 -0.047386006 0.030661205 -0.014615126 0.024075853 0.0036792147 0.026048249 0.013231302
-0.03496331 -0.021288857 0.017021777 -0.016898477 -0.0044307183 0.011329967 -0.02865274 0.05284839
0.045155603 -0.015286301 0.03296316 0.05481733 0.01352512 0.051103808 0.02643139 0.025159853
0.01622746 0.056098957 0.036965646 -0.0028301254 -0.025732204 0.00050479977 -0.0039653787 -0.0253193
-0.025054492 -0.011533578 0.043430034 -0.0123048285 0.026643874 -0.02456494 -0.0029396124 -0.036550708
0.07615579 0.014656542 0.017163116 0.032391366 -0.044865876 -0.007767347 0.015353334 0.04985821
-0.036440756 -0.0051387013 -0.011623522 0.020289438 0.020666609 0.08361135 0.03157318 -0.00606306
-0.06555356 -0.0022759289 0.033159748 -0.026887883 -0.006279328 0.047884006 0.030216886 0.053740077
-0.0026605597 0.04883053 -0.061439235 0.05315021 0.032071244 -0.006160626 0.01650814 -0.02053803
0.034906678 0.020051347 0.038250785 -0.01902348 0.04867496 -0.013509284 0.0003204149 0.0020819544
0.02158851 0.012622484 0.0019882028 0.001156791 -0.0065086503 0.06990445 -0.03804619 0.04504284
0.0047314274 -0.003473434 -0.08291347 0.022996048 0.038913906 0.016027536 0.02145136 0.041248538
0.061909843 -0.008058184 -0.035469554 0.056829818 -0.016821813 0.010014829 0.008814321 -0.020294216

network_body._body_endoder.seq_layers.2.weight f4 [128, 128]
00000000: 346f e53d 8265 883d b294 143d e1ca bbbd
00000010: c525 d83d 6592 ce3c bb1b debd 04be 4ebd
00000020: 9ff1 983c 3a81 aebd 42d3 2abd 5e45 2ebe
00000030: fd76 7bbd 9b5f ea3d c660 ab3d 281d 7dbc
00000040: a29d 483e ce82 873d dfc7 62be 58b6 45bd
00000050: 7d8e e83d f412 bdbc 24c0 763d 7499 83bd
00000060: 86d5 0c3e a00c dfbd c4cc 96bd 4eea 0cbd
00000070: e545 b63c c299 cd3d fd00 0fbe a1a5 cebd
00000080: aeeb f63c fa49 483c dc45 87bc c7d8 a0bd
00000090: 1753 563e 3d5b e33d c6bf 903d 8b15 4bbe
000000a0: 495a 99bc c97b 323d d37b bf3c 3e08 79bd
000000b0: ec08 1bbd 0aea c6bd 9bb4 dfbd d1ba 9abd
000000c0: 8af4 a63c 77f7 443d d21a 503d b7d9 e23d
000000d0: addb 3f3a c2fc 873d 354b c13c 76e4 a03d
000000e0: 9f9b 093e bd43 85bd 44b2 23bd 346c 5e3d
000000f0: 14ed e9bd 1f5c 48be 3bae 253e 0d0a 2c3d
00000100: bd61 c9bc a83c 153b b180 d5bd 7d8f 903c
00000110: 5e0c 91bd 3b51 803c b778 c3bd 6fc0 5ebd
00000120: 722d b13d 4d35 8f3d da6d 473e d6a4 6b3d
00000130: f05e 6b3d ee28 67be 9877 42bd 196c 0c3d
00000140: d4ff 14bd a9b2 8f3d f375 493d e519 613d
00000150: 5925 47bd ee01 b9bd b853 683d ed2c c53d
00000160: d103 7fbd 7468 103e e7e0 7a3d 0f1e b8bd
00000170: fbb1 423d 2ea0 63bd 7b3b 693d c10d cbbd
00000180: 2798 e63b 7924 cebc b34f 043c cf7e 023e
00000190: ab9d 1bbe 1640 573e eeff 3c3d 3cdd ef3c
000001a0: 43c2 01be 483e 15be 34bb 0bbe cb1a e33d
000001b0: 7e46 033e 8921 f93c 602d a7bd 100d 1ebe
000001c0: 80ee 153d 6a38 103e 7abb 4f3d aeca 46bd
000001d0: 7420 fbbd 7e35 00bd 5b7a 623d 040c d9bc
000001e0: 2d6e a2bd f230 bc3c 3d9e b23c bd9b 273d
000001f0: 25c5 0f3e 6586 b73d e426 e3bc 194e 5f3e
00000200: 699b 1bbe 15a1 90bc c5c1 823d 416e 003e
00000210: b1e9 193e db3e b1bd 05d4 afbd e189 a33d
00000220: e209 08bd 999a b3bb 5aa2 ebbd b96b 17bb
00000230: f0b6 27bd a2b0 28bd b6a7 123e 24ef c43d
00000240: 5090 713d 575c bbbd 190f dfbc c1a6 9fbe
00000250: bae4 a03d 0ad2 4d3d 709d 173e aed0 803c
00000260: d8df 803d 323f b5bd b03e d03c 49b5 14be
00000270: 4ac2 563c 089a 1d3d cca3 cb3d fd30 e13c
00000280: 76f5 533e b454 82bd c882 3b3b ff4b 273e
00000290: 9433 5e3d 68e7 4e3d 55aa a13d 02d4 a23d
000002a0: d421 97bd e169 cebc 4e48 77bb fa97 c43c
000002b0: 758d f3ba 46f8 b33c ea15 1bbe c7b3 c33d
000002c0: a158 ea3d c220 58bd f6df 2f3e 0462 7cbd
000002d0: 0193 28bd cadd 6dbd cdf0 b43d f5b2 53bd
000002e0: 4888 993d 3804 ff3d 18a5 95bd 94ef 17bd
000002f0: 64d2 84bd 2140 cbbb 86b5 033d 5572 edbd
00000300: 834c c33d 159b 0f3e b9f8 dcbc ff31 f83b
00000310: 896d 4d3e 4625 45bd b0b1 ff3d da51 873d
00000320: e27c 3dbd d6ea d0bd 09dc 413c 2576 cf3d
00000330: 6648 0e3c 75d1 93bc 8a3d 6abc a814 ab3b
00000340: 2b2e 39bd 032c 86bc 6cdd 113c d316 313c
00000350: cb22 73bd af26 663c 616c 23bc 3c3a 85bd
00000360: 7d38 6e3d 25bb 1fbe 2b01 d63d 2487 ba3d
00000370: c2e6 d03c f35f 403e 20b5 c3bb f412 023d
00000380: c9a9 6c3a c915 123e 7356 abba ac66 403d
00000390: d81c 723d b0d1 0b3e aaca 13bd fa61 883d
000003a0: 85d9 a73d ff1d e9bc 25e0 d2bc 9f76 f4bd
000003b0: 8d7e afbd 6d2c e9bc fa43 ab3d d9a5 383d
000003c0: fb07 523c db4e 62bd 23ef 49bd af9a b83d
000003d0: e164 693d df03 a3bd d870 e2bd 386d a33c
000003e0: fa85 babd 1c4b 513d 58be aa3d 6ec5 0dbd
000003f0: cab3 bdbc ab33 c0bd 3fce ec3c c031 043d
0.11202851 0.06659986 0.03627462 -0.091695555 0.10554079 0.02521629 -0.10845133 -0.05047418
0.018669901 -0.08520742 -0.041705377 -0.17018649 -0.061392773 0.114440165 0.083680674 -0.015448846
0.19591382 0.06616746 -0.22146557 -0.0482696 0.113553025 -0.023080327 0.060241833 -0.06425753
0.13753328 -0.1089108 -0.07363275 -0.034403138 0.022250125 0.100390926 -0.13965221 -0.10090185
0.030141678 0.012224669 -0.016512804 -0.07853847 0.20930134 0.11101387 0.07067828 -0.19832437
-0.01871981 0.043575082 0.023374474 -0.060798876 -0.037850305 -0.09712608 -0.1092312 -0.07555164
0.020380277 0.048087563 0.050806828 0.11076682 0.0007318806 0.066400066 0.023595432 0.078560755
0.13438271 -0.06507061 -0.03996493 0.05430241 -0.11422172 -0.19566391 0.16179745 0.042001773
-0.024582738 0.002277175 -0.104249366 0.017646546 -0.07082437 0.015663734 -0.09544509 -0.054382738
0.08651246 0.06992588 0.19475499 0.057530247 0.057463586 -0.22574207 -0.047477335 0.034282777
-0.03637679 0.070164986 0.04918475 0.054956336 -0.048619602 -0.09033571 0.056720465 0.096277095
-0.0622595 0.14102346 0.06124964 -0.08990108 0.047533017 -0.05557268 0.05694149 -0.09914733
0.007037181 -0.025163876 0.008075642 0.12743686 -0.15196864 0.2102054 0.04614251 0.029280297
-0.12671761 -0.1457454 -0.13645631 0.11089095 0.1281986 0.030411499 -0.081629515 -0.1543467
0.036604404 0.1408402 0.0507159 -0.048533134 -0.12262049 -0.031301014 0.05529247 -0.026494987
-0.079311706 0.022972558 0.02180397 0.040920008 0.14040048 0.089611806 -0.027728505 0.21807136
-0.15196003 -0.017654935 0.06384615 0.12542059 0.15030552 -0.08654567 -0.085853614 0.07985283
-0.03321255 -0.005481076 -0.115055755 -0.002310498 -0.040945947 -0.041184075 0.14321789 0.09615925
0.058975518 -0.09148472 -0.027228879 -0.3118191 0.07856126 0.050249137 0.14806151 0.015724506
0.06292695 -0.08849944 0.025420517 -0.1452228 0.013107846 0.038476974 0.09943351 0.02748918
0.20699105 -0.06363812 0.0028611887 0.16337584 0.054248407 0.050513655 0.078938164 0.079505935
-0.07379499 -0.025196971 -0.0037732306 0.02399825 -0.0018581586 0.021968972 -0.15145078 0.09555774
0.11442686 -0.052765615 0.17175278 -0.061616912 -0.04115582 -0.058072843 0.088349916 -0.05168434
0.07496697 0.124519765 -0.0730688 -0.037093714 -0.06485441 -0.006202713 0.032155536 -0.11594073
0.09536078 0.14024003 -0.026974069 0.0075743194 0.20061316 -0.04813125 0.12485063 0.06607409
-0.046261676 -0.102010414 0.011832246 0.10129956 0.008684253 -0.018044213 -0.014296899 0.0052209683
-0.045210045 -0.016378408 0.008902889 0.010808664 -0.059359353 0.014047309 -0.00997457 -0.06505248
0.05815934 -0.15598734 0.104494415 0.09107807 0.025500659 0.18786602 -0.0059725195 0.031756356
0.00090279855 0.14266123 -0.0013072029 0.046972916 0.05910954 0.13654208 -0.036081947 0.066593125
0.081957854 -0.028456686 -0.025741646 -0.11936688 -0.085690595 -0.028463567 0.08362575 0.04508004
0.0128192855 -0.055250984 -0.049300324 0.090138786 0.05698097 -0.07959723 -0.110566795 0.01994954
-0.09107585 0.05109702 0.083370864 -0.03461211 -0.02315702 -0.09384855 0.02890694 0.032274008

network_body._body_endoder.seq_layers.2.bias f4 [128]
00000000: eadb e9bc 2345 173b 623b 343d 22e2 05bd
00000010: 379c 90bc 1e85 c33b 487f c23c ad0d e13c
00000020: eddb 19bd eb4d 243d 1294 253d 0d27 b43a
00000030: ca04 8d3c b158 acbb 0e09 443d 0ce8 89ba
00000040: e9d7 fdbc 12fe 793b d5a5 16bd e712 873b
00000050: 6028 8aba 9b99 013c 57b1 533d 3ecb 913c
00000060: 809f f8bb a3c4 24bc b442 a53d 0476 0a3d
00000070: f240 acbb 8ab0 b7bc 841b 253d 5e7e 3cbc
00000080: 64ba 4a39 c9a0 2c3d fb5f 663c b671 193d
00000090: 3ed8 e0bb 6500 233d 1b46 353b 1d13 1cbc
000000a0: 715b e73c fb67 ae3c 7b79 9e3c 8468 90ba
000000b0: d53a 9c3d 95db 153b 7430 653c e09c 873b
000000c0: 49a1 3b3c 674c 523d 30d2 2e3d d93e 493d
000000d0: 2f25 e0bb ac3c 7e3d c966 e23c 0a2a 833d
000000e0: a5e0 993d 6407 f63b a260 023d d7c3 043d
000000f0: 8642 683c eac9 f03c 5485 0f3d 6819 a43d
00000100: 8b8c 26bb 0aa4 873d 6784 3cbd 134e 383d
00000110: eb49 a93d 13a7 9b3a aa65 473d 33ba 263d
00000120: 66bf 19bc ef80 da3c 065f 4a3d bd61 17bc
00000130: eb4d b93c 8194 b73b 7967 a23d b7b3 053d
00000140: aa01 003d c043 403d 47a2 0d3c de1f 063d
00000150: c06c 503d 1f85 8f3d dd8c bc3c 88c3 453b
00000160: 70c0 b1bc 6ac8 843c d0da 0a3c 1dca cb3c
00000170: a71e 2bbd b8fd 0abc c5c1 a03c 8b92 eb3b
00000180: 69c6 99bc 58f5 2f3d f435 963c 07df b2bc
00000190: 8683 243d c571 27bc 3521 a13c c2c9 32ba
000001a0: 0cb1 06ba 7d8b 9e3b 47c4 ae3c c35a 5e3b
000001b0: 07a1 a93c 479a 553d d73e 21bb be0f 7dbc
000001c0: d256 92bc 74c4 3b3d c865 44bc ab42 44bc
000001d0: 2748 12bd b469 1abc 40be c3bb e5f6 adbc
000001e0: 15b8 363c f453 49bd b1c3 913c 55fc b33b
000001f0: 405f 6a3d d9db 603c 3fef 74bb e96e 0f3c
-0.028547246 0.002308198 0.044001944 -0.03268636 -0.017652614 0.0059667965 0.023742333 0.027472341
-0.037563253 0.04011337 0.040424414 0.0013744548 0.017214198 -0.0052595963 0.047860198 -0.0010521426
-0.030986743 0.0038145822 -0.036779243 0.0041221264 -0.0010540597 0.007910158 0.051682796 0.017797109
-0.0075873733 -0.0100566475 0.08069363 0.033803955 -0.0052567655 -0.022423048 0.040309444 -0.011504738
0.00019333657 0.042145524 0.014060969 0.03746196 -0.0068617156 0.039795298 0.0027660194 -0.009526041
0.028241845 0.021289816 0.019345036 -0.0011017476 0.07628409 0.0022866477 0.013988603 0.004138574
0.011452028 0.051342394 0.04268092 0.0491322 -0.00684037 0.06206958 0.027636902 0.06404503
0.07513551 0.0075082052 0.031830437 0.03241333 0.014176017 0.029393155 0.03503926 0.08012658
-0.002541336 0.06623085 -0.046024706 0.044996332 0.08266052 0.0011875354 0.04868094 0.040704917
-0.009384012 0.026672808 0.049407028 -0.009239611 0.022620162 0.00560242 0.07929892 0.032642093
0.031251587 0.04693961 0.008644647 0.032745235 0.050884962 0.07007813 0.023016388 0.003017636
-0.021698207 0.016208846 0.0084750205 0.024876649 -0.04177728 -0.008483343 0.019623647 0.0071891
-0.018771367 0.042958587 0.018336274 -0.021834863 0.040164493 -0.010219996 0.019669155 -0.00068202254
-0.00051380764 0.0048384056 0.021333827 0.003392861 0.020706667 0.052149083 -0.0024604106 -0.015445648
-0.017863665 0.04584165 -0.011987157 -0.0119787855 -0.03571334 -0.009424616 -0.0059736073 -0.021235893
0.011152287 -0.04915233 0.017793508 0.005492727 0.057219744 0.013724291 -0.0037374047 0.00875447

action_model._continuous_distribution.log_sigma f4 [1, 2]
00000000: 8d99 b6bd 799f 91bd
-0.08916006 -0.07110495

action_model._continuous_distribution.mu.weight f4 [2, 128]
00000000: 3cb1 173d c609 a0bb 7454 ee3c 6f00 c83b
00000010: b38e d3bc f104 a3bc efb0 22bc a146 1ebd
00000020: 26c1 06bb c97d 85bd 1f5b 59bc 42a7 5c3d
00000030: 3808 8e3c d412 d83c e0a4 61bc 8742 e5bc
00000040: d7db db3a a0fa 223d b9a4 823b 32bc a33c
00000050: de78 833d 7af8 403c 0d6d 60bb 23d6 a23c
00000060: 78f8 553d a6d9 8539 5f54 2cbd 5aeb 80bd
00000070: 54e0 bfbc 2848 aa3c b91d 4dba 5554 923d
00000080: 432a 933c 617a 2bbd 682d 2e3c 31e1 20bd
00000090: 87d8 593c a0e6 27bd f511 6f3d d92c 0d3d
000000a0: 86e1 af3c 5689 08bd dec3 833d cebc 833d
000000b0: 2f7a aebd 8202 ba3b 40ad 933d 4901 803d
000000c0: 4d91 8d3d 4161 563c 090a 02bd 6e6c 8bbd
000000d0: 1512 3c3d 6add db3b c14a 393d 48bb 51bd
000000e0: 6d7b 5dbd 8fd9 9eba aee3 32bd 3490 b43c
000000f0: 6ac9 253d eeb9 7e3c 0e7c 10bd 7e09 41bd
00000100: b9d7 5e3d 62f7 6fbd 4dfe a83c f2e9 20bd
00000110: 81a9 68bd 9315 84bb 359f 12bc c9cc 4abc
00000120: b403 973d e3d9 a5bc 8cc3 77bd 5d58 4a3b
00000130: ad2f 983c 94cb a43d 8c12 27bd 67c4 4fbd
00000140: f101 33bd 6012 78bd 7753 0e3d 2e72 123d
00000150: 01e9 ac3b 1f41 e7bb 73b2 31bd 7043 453d
00000160: 9219 933c 2a62 37bd 3a88 e0bc 1a95 fabc
00000170: 090a f43c 2d25 3f3d 8c16 e6bb f1c2 2c3c
00000180: 4ec6 04bc 71ff 76bd 5023 38bd 86e6 413d
00000190: 523d 58bc a667 073d a762 3ebc 5d02 74bc
000001a0: 3c38 ba3b 511f 183c a0ce 433d 1bce 843d
000001b0: d29f 17bd 624a 9bbd 5260 d93c 00f7 a7b9
000001c0: 5587 6c3d 96a4 9bbd 6b4f 413d 99c1 b8bb
000001d0: a700 283c 504d 663d 7dbb ca3d c309 c53b
000001e0: 3de7 ab3d 2b91 3c3c 4890 0cbd 5e33 833c
000001f0: 8ae4 96bd 6f85 0abd 5f22 0cbc 4b1b 47bc
00000200: 1219 c5bc 5232 20bc 37cb 203d 4bf4 f2bc
00000210: 9976 b8bc 07ce 88bd 33e0 063c cacf 30bd
00000220: 356e 58bc f783 c8bc 01e5 0d3d 3149 fcbc
00000230: 1788 1f3d 909e 51bd a870 983d 5e3f 19bd
00000240: 8d2c abbc bf3f 94bc 2fab 98bc 1950 0a3d
00000250: 54ea 1abd fff7 ecbb 53e2 543d 00c7 393c
00000260: 86e8 bb3c 3fb4 aabd 6b4a 633d 1eca 4ebd
00000270: c6a5 fbbc 760d 44bd 64b3 643d bbad d0bc
00000280: 1feb dd3b a348 253c aa69 1f3d 58d9 d93b
00000290: a77a e6bb a38e 793c b563 a73c 07fc 50bd
000002a0: ce70 be3c 8e31 11bd d43e 433d e5ef c23c
000002b0: ec29 363d a23b 36bd 3b91 7d3d 6763 c2bb
000002c0: ae07 92bd d291 883d 1038 103d de1d e53c
000002d0: d4da afbc 9c94 8b3d 54ff 7e3d 5e4e 0f3d
000002e0: 0448 293d 0605 4bbd 1b0e 7d3c f371 453d
000002f0: 6515 413d 21ef 183d 64ef 803d ff68 0d3d
00000300: b7d6 3a3d 2cc0 9c3a 7287 9ebc f1cd 8c3c
00000310: 4d12 b13d 694e 253d 71f1 863d 6574 4b3d
00000320: 01ce e9bb b93e 49bd 34de 4e3d f03a c2bc
00000330: 16b6 a53c 77a7 cc3c b165 903d 5281 923b
00000340: 5582 0b3c 5e32 40bd 8677 173d 05ed 293d
00000350: fafd 493d de81 883d a100 363b 173a 2e3c
00000360: c1d4 90bc addd 23bd 6af3 81bc b500 f337
00000370: 78f8 18bd 9ddb 82ba 1ed1 9c3d 8b96 d93c
00000380: ed3b 57bd 6b33 3fbb 0dbb 8e3b e15e 9bbc
00000390: f0d4 183d dae4 e5bc 4d0d 4fbd f5df 59bd
000003a0: 4a61 40bd 5191 66bd 3ab9 903d bbc2 53bb
000003b0: 1aaf 803c 3805 e23b c166 e93c 091d 05bd
000003c0: c519 08bd 9a0b 51bd 8891 fbbc dc17 5abd
000003d0: 8b65 fbbb 8c69 d63c 8fcc 14bc 8adf 14bd
000003e0: ed45 bb3c b430 69bc 738f d43b dfbd be3c
000003f0: d966 813a 7530 19bd f178 80bc 43df fbbc
0.03703426 -0.0048839776 0.029093005 0.0061035673 -0.02582488 -0.019899817 -0.00992988 -0.038641576
-0.0020561903 -0.06518132 -0.013266354 0.053870447 0.017337903 0.026376165 -0.013772219 -0.027985824
0.0016773891 0.039789796 0.0039869216 0.0199872 0.06419538 0.011777991 -0.0034244687 0.019877499
0.05223891 0.00025529898 -0.04207265 -0.0629489 -0.023422398 0.02078636 -0.00078245584 0.07144991
0.017964488 -0.041864756 0.010630943 -0.03927726 0.013296253 -0.040991426 0.058366735 0.0344666
0.021469843 -0.0333341 0.06433843 0.06432496 -0.085193984 0.0056765685 0.07210779 0.06250245
0.069124795 0.013084711 -0.03174785 -0.06807791 0.045915682 0.006709744 0.045237307 -0.051203996
-0.054072786 -0.0012119281 -0.043674164 0.022041418 0.040475287 0.015547259 -0.035274558 -0.047128193
0.054404948 -0.058585532 0.020629073 -0.039285608 -0.056802277 -0.004030892 -0.008949091 -0.012377926
0.07373753 -0.020245498 -0.060489222 0.0030875423 0.018577421 0.08046642 -0.040789172 -0.050724413
-0.043703023 -0.0605644 0.034747567 0.03575342 0.0052767997 -0.0070573236 -0.043383073 0.048160017
0.017956529 -0.04477135 -0.027408708 -0.030588675 0.029789941 0.046666313 -0.0070217308 0.0105445245
-0.00810392 -0.0603022 -0.04495555 0.047338985 -0.013198214 0.03305783 -0.0116202 -0.014893142
0.005682973 0.00928481 0.047804475 0.06484624 -0.03701765 -0.07582547 0.026535187 -0.00032036752
0.05774625 -0.07599752 0.04719488 -0.005638313 0.010254062 0.056226075 0.09899042 0.0060131266
0.083937146 0.01150922 -0.034317285 0.016015705 -0.07367809 -0.03381866 -0.008553117 -0.012152503
-0.024059806 -0.009777622 0.0392563 -0.029657504 -0.02251749 -0.066799216 0.008232164 -0.043166913
-0.013209869 -0.024476988 0.034642223 -0.03079662 0.038948145 -0.051176608 0.074433625 -0.037413947
-0.020895267 -0.018096803 -0.018636314 0.033767793 -0.03782113 -0.007231712 0.051973652 0.011338949
0.022938024 -0.083351605 0.055490892 -0.050485723 -0.030718695 -0.0478644 0.055835143 -0.025473466
0.0067724134 0.010088119 0.03891913 0.006648224 -0.0070336643 0.015231761 0.020433286 -0.051021602
0.023247149 -0.03544765 0.04766734 0.023796031 0.044473574 -0.044490464 0.06190608 -0.00593226
-0.07130371 0.06668438 0.035209715 0.027968343 -0.02146665 0.06815454 0.06225522 0.034986846
0.041328445 -0.049565338 0.015445258 0.048204374 0.047139544 0.037337426 0.0629566 0.03452396
0.045614924 0.0011959127 -0.019351695 0.017188044 0.08646069 0.04035798 0.0658902 0.04967155
-0.0071351533 -0.049132083 0.05050488 -0.023709744 0.020228427 0.024982197 0.07050646 0.0044709826
0.00851496 -0.046923034 0.03697922 0.041485805 0.049314477 0.06665395 0.002777137 0.010633967
-0.017679574 -0.04000633 -0.01586314 2.8968187e-05 -0.037346333 -0.0009983663 0.076570734 0.026561042
-0.052547384 -0.0029174935 0.0043557943 -0.01896614 0.037312448 -0.028063226 -0.050549794 -0.053192098
-0.046967782 -0.05629093 0.07066579 -0.0032312113 0.015708495 0.006897595 0.02849138 -0.032498393
-0.0332277 -0.051036455 -0.030709043 -0.05324541 -0.007672017 0.026173376 -0.009081974 -0.036345996
0.022860492 -0.014232803 0.006486827 0.023283897 0.000987257 -0.037399728 -0.01568267 -0.030746108

action_model._continuous_distribution.mu.bias f4 [2]
00000000: 86e7 dabc 3773 5f3c
-0.026721727 0.013638309

onnx::Div_51 f4 [7]
00000000: 4c0b 363f a733 a13b dafe 323f e186 1d40
00000010: 42a0 d83f a733 a13b 7127 e93f
0.7111099 0.0049194875 0.6992012 2.4613574 1.6923907 0.0049194875 1.8215162
