Config/results/test_v6/SecurityGuard/SecurityGuard-19235.pt (torch, 447686 bytes, 44 tensors)

network_body.observation_encoder.processors.0.normalizer.running_mean f4 [7]
0	0x3c904aa9	0.017613726
1	0x00000000	0.0
2	0xbe1fd0a8	-0.1560694
3	0x40a0461d	5.0085588
4	0xbc402677	-0.011727921
5	0x00000000	0.0
6	0xbc42fadc	-0.01190063

network_body.observation_encoder.processors.0.normalizer.running_variance f4 [7]
0	0x460eb9aa	9134.416
1	0x3f800000	1.0
2	0x46167052	9628.08
3	0x480f3b74	146669.81
4	0x4714359c	37941.61
5	0x3f800000	1.0
6	0x471ceaca	40170.79

network_body.processors.0.normalizer.running_mean f4 [7]
0	0x3c904aa9	0.017613726
1	0x00000000	0.0
2	0xbe1fd0a8	-0.1560694
3	0x40a0461d	5.0085588
4	0xbc402677	-0.011727921
5	0x00000000	0.0
6	0xbc42fadc	-0.01190063

network_body.processors.0.normalizer.running_variance f4 [7]
0	0x460eb9aa	9134.416
1	0x3f800000	1.0
2	0x46167052	9628.08
3	0x480f3b74	146669.81
4	0x4714359c	37941.61
5	0x3f800000	1.0
6	0x471ceaca	40170.79

network_body._body_endoder.seq_layers.0.weight f4 [128, 7]
0	0xbe5323d9	-0.20619144
1	0x3c01e07d	0.007927057
2	0xbe09e9a1	-0.13468029
3	0x3e68dfe9	0.22741665
4	0x3e80e248	0.2517264
5	0x3e42ca43	0.19022469
6	0xbd48a197	-0.04898223
7	0xbf772436	-0.9653963
8	0x3eac2a08	0.33625817
9	0xbf10987e	-0.56482685
10	0xbca5f79d	-0.020259673
11	0x3d845a29	0.06462509
12	0x3e3752c7	0.17902671
13	0x3d786813	0.060646128
14	0xbebc419d	-0.3676881
15	0xbe73fa7e	-0.23826024
16	0x3ed0e75f	0.40801522
17	0xbe9de994	-0.30842268
18	0x3ed502e4	0.41603768
19	0x3d457ff2	0.04821772
20	0x3f1477ff	0.579956
21	0x3eb8732c	0.3602537
22	0xbf092e1a	-0.5358597
23	0xbeb3309a	-0.34998018
24	0x3f1f5b29	0.62248474
25	0x3e3d3e1d	0.18480726
26	0x3c81c1d5	0.015839497
27	0x3e9026c9	0.2815459
28	0x3f577821	0.8416768
29	0x3eafd616	0.34343022
30	0xbe145abd	-0.14487739
31	0x3e665a19	0.22495307
32	0x3edecb69	0.43514565
33	0x3d0c19e3	0.034204375
34	0x3d90bbe3	0.070670865
35	0x3f23e906	0.6402744
36	0xbe06cda1	-0.13164379
37	0x3ca1b1f3	0.019738173
38	0x3d05333f	0.032519575
39	0xbebdc7f3	-0.37066612
40	0x3d6b59ce	0.05745869
41	0xbd0e4c72	-0.034740873
42	0x3c995358	0.0187165
43	0xbd8e3e40	-0.06945467
44	0xbe002f30	-0.12518
45	0x3eb5c729	0.3550351
46	0xbe8cfabd	-0.27535048
47	0xbd8eeb4b	-0.06978472
48	0x3ba87edb	0.0051420755
49	0x3f190be3	0.5978376
50	0xbe90c933	-0.28278503
51	0x3d782f57	0.06059202
52	0x3d8eae88	0.06966883
53	0x3d9745e6	0.07386379
54	0x3e783e11	0.24242426
55	0x3d11ae67	0.035566714
56	0x3e07c389	0.13258184
57	0x3dd3f863	0.103501104
58	0x3eeee93b	0.46662316
59	0x3dbfe5c9	0.0937
60	0x3eeeee5a	0.46666223
61	0x3efe9ad8	0.4972751
62	0x3e3ecc36	0.18632588
63	0x3d96d74d	0.07365284
64	0x3e2a1325	0.16608866
65	0x3e584457	0.2111982
66	0x3e7b866f	0.24563001
67	0x3eacc1d8	0.3374164
68	0xbe9038f3	-0.2816845
69	0x3ea3f05e	0.32019323
70	0xbc554bab	-0.013018529
71	0x3e2c1da8	0.16808188
72	0x3e6106e9	0.21975292
73	0xbeda7771	-0.42669252
74	0x3e6a1851	0.22860838
75	0x3f21d62e	0.6321744
76	0xbf73765a	-0.95102465
77	0xbe4aa920	-0.19791079
78	0xbdc402b0	-0.09570825
79	0xbd8ec7e7	-0.06971722
80	0xbe412579	-0.18861951
81	0xbf0dcee8	-0.5539384
82	0xbe1b126e	-0.15143749
83	0x3e55b8bd	0.20871253
84	0x3eaa576c	0.33269823
85	0x3eae7f2a	0.34081393
86	0xbf17c94d	-0.59291536
87	0xbdc72759	-0.09724302
88	0x3eba0387	0.36330816
89	0x3eaff78b	0.34368548
90	0xbe8eb3e5	-0.27871624
91	0xbf108e7f	-0.5646743
92	0x3f87af00	1.0600281
93	0xbf121ba4	-0.57073426
94	0x3e1eaf22	0.15496495
95	0xbec87136	-0.39148873
96	0xbcb30364	-0.021852203
97	0x3f269955	0.65077716
98	0x3f0c7479	0.54865223
99	0x3e1eee1b	0.15520518
100	0xbeaf522f	-0.3424239
101	0x3df1601c	0.117859095
102	0x3e80b1be	0.25135607
103	0x3f70c667	0.9405274
104	0x3e6c2978	0.23062694
105	0xbe81d41d	-0.25357142
106	0xbee52676	-0.44755906
107	0xbc030431	-0.007996605
108	0x3e960c18	0.29306102
109	0xbdddccce	-0.10830079
110	0xbcb683ca	-0.022279639
111	0xbea94308	-0.33058953
112	0xbdbf3129	-0.093355484
113	0xbcfceb78	-0.030873999
114	0xbe459a03	-0.19297032
115	0x3f8b35f3	1.0875839
116	0x3f1de25c	0.6167352
117	0xbe4047f2	-0.18777445
118	0x3eb516d8	0.3536899
119	0x3d2c750f	0.042103823
120	0xbecebcb1	-0.40378335
121	0x3d758f16	0.05995091
122	0xbecac54d	-0.39603654
123	0xbe477c49	-0.19481005
124	0x3d0cdd22	0.034390576
125	0x3edf09f1	0.43562272
126	0x3f280f99	0.656488
127	0xbee7713d	-0.4520358
128	0x3ee4fd13	0.4472433
129	0x3e16126c	0.14655465
130	0xbf6447c4	-0.89172006
131	0x3eca635b	0.39528927
132	0x3dcfbe7d	0.10143755
133	0xbe52abd5	-0.20573361
134	0x3e938bd5	0.2881762
135	0x3fb05af8	1.3777761
136	0x3df00bf6	0.11721031
137	0x3d054525	0.032536644
138	0xbe66f475	-0.2255419
139	0x3e7df182	0.24799159
140	0xbb4d58bc	-0.0031333407
141	0xbf0bc43a	-0.5459629
142	0x3f4e6ac4	0.8063166
143	0x3de8918a	0.113558844
144	0xbdb22cd2	-0.08699955
145	0x3f4e09d5	0.8048375
146	0xbed94803	-0.42437753
147	0x3f8a5412	1.0806906
148	0xbb3b2494	-0.0028555738
149	0xbf253d31	-0.64546496
150	0xbe99b55e	-0.30021185
151	0xbe6066d6	-0.21914229
152	0x3ec724c8	0.3889525
153	0x3e824913	0.25446376
154	0xbebf9e5c	-0.37425506
155	0x3eddba20	0.43306065
156	0xbe1172fc	-0.1420402
157	0xbe6a27d9	-0.22866763
158	0xbed8e4fb	-0.42362198
159	0x3f122650	0.5708971
160	0x3eb847a6	0.35992163
161	0x3e2d38ae	0.16916153
162	0x3f226289	0.634316
163	0xbe3b9c0c	-0.18321246
164	0xbbf9ba73	-0.0076211034
165	0xbf09c18a	-0.5381094
166	0xbe2c703b	-0.16839688
167	0xbf1c051e	-0.6094531
168	0xbeb42880	-0.3518715
169	0x3e9a2450	0.3010583
170	0x3e3f260d	0.18666859
171	0x3eaf9133	0.34290466
172	0xbeb93c19	-0.36178663
173	0x3d310ec9	0.04322699
174	0xbe9558e4	-0.2916938
175	0x3e754341	0.23951437
176	0x3da0bb6d	0.07848249
177	0xbd238e4f	-0.039930638
178	0x3d56dfb7	0.052459445
179	0xbdaffea9	-0.085934944
180	0x3c9185d1	0.017764004
181	0xbf04d017	-0.5188002
182	0x3eee904f	0.46594474
183	0xbe34fb92	-0.17674091
184	0x3d9a5624	0.07535961
185	0x3f0d8619	0.5528274
186	0xbe52f2fc	-0.20600504
187	0xbcb93bb8	-0.022611484
188	0xbdc3459b	-0.095347606
189	0xb940863d	-0.00018360555
190	0x3e8bcfc0	0.27306938
191	0xbd4c6892	-0.049904414
192	0xbec79e32	-0.3898788
193	0xbc71c0ae	-0.014755411
194	0x3e9c317d	0.30506507
195	0xbf3aa241	-0.7290383
196	0xbe9b1d06	-0.3029558
197	0x3eada0fc	0.33911884
198	0x3e99ed1d	0.30063716
199	0xbe6e3014	-0.23260528
200	0x3e364e16	0.17803225
201	0x3ea727dc	0.32647598
202	0x3e4fd26e	0.20295116
203	0x3e8d4683	0.2759286
204	0x3d5af31a	0.053454496
205	0xbc09edd2	-0.008418517
206	0xbe83595e	-0.2565412
207	0xbe8077d0	-0.2509141
208	0xbf24b699	-0.6434112
209	0x3e9e170f	0.30876967
210	0xbe2b951c	-0.167561
211	0x3f037e69	0.5136476
212	0x3c704721	0.014665396
213	0x3edb1b09	0.42794064
214	0xbcf96f55	-0.030448595
215	0xbeaa7cb7	-0.33298275
216	0x3f63b512	0.88948166
217	0xbe924afd	-0.28572837
218	0x3d660972	0.05616135
219	0xbed66e34	-0.41880953
220	0xbefe8245	-0.49708763
221	0xbebe1fa2	-0.3713351
222	0xbeb64f13	-0.35607204
223	0x3e7206a7	0.2363535
224	0xbe068fd4	-0.13140804
225	0xbd3010e7	-0.04298487
226	0xbf400456	-0.75006616
227	0x3efda988	0.49543405
228	0x3e137f2b	0.1440398
229	0x3e8248e8	0.25446248
230	0x3f1510f8	0.5822902
231	0xbe3b20fe	-0.18274304
232	0x3e7f5ddd	0.2493815
233	0x3e75d290	0.24006104
234	0xbbf26ccc	-0.0073982235
235	0x3e6ef963	0.23337321
236	0xbead7109	-0.338753
237	0xbe21ed01	-0.15813066
238	0xbdb29538	-0.087198675
239	0x3f03ce04	0.5148623
240	0x3f062ecc	0.52415156
241	0x3de6ce09	0.11269767
242	0x3d2510d6	0.04029926
243	0x3f22da8f	0.63614744
244	0xbefa9ecb	-0.48949274
245	0xbf60e0a9	-0.87842804
246	0x3eeff0a7	0.4686329
247	0x3d224fae	0.03962677
248	0xbe95dfec	-0.292724
249	0xbf7d1732	-0.9886352
250	0xbf4e2622	-0.80526936
251	0x3da6bc8f	0.081414334
252	0x3e44c3bf	0.19215296
253	0xbd8cf631	-0.06882895
254	0xbd99e1ed	-0.07513795
255	0x3eb9baaa	0.36275226

network_body._body_endoder.seq_layers.0.bias f4 [128]
0	0x3d1c8997	0.038217153
1	0x3d270cee	0.040783815
2	0x3bff5a15	0.007792721
3	0xbc45d80b	-0.012075434
4	0x3c4b9432	0.012425469
5	0x3cd8023e	0.026368257
6	0xbc94c813	-0.01816181
7	0x3c676891	0.014124052
8	0x3a88e79b	0.0010445
9	0xbcf3beed	-0.029754126
10	0xbcd92312	-0.02650598
11	0xbc2f5fae	-0.010703964
12	0x3ccaee4b	0.02477183
13	0x3bfc0fa5	0.0076922947
14	0x3cf57813	0.029964482
15	0x3c8707ce	0.016483214
16	0xbc47a74d	-0.012185884
17	0xbc00b4d0	-0.007855609
18	0x3ca25680	0.019816637
19	0xbb27e444	-0.0025618235
20	0xbc3d131c	-0.011540201
21	0x3d22ca18	0.039743513
22	0xbb9f8517	-0.0048681605
23	0x3b06bd4d	0.002055961
24	0xbcb38f3a	-0.021918882
25	0x3b1d37fc	0.0023989668
26	0x3a43f686	0.00074753945
27	0xbb75b553	-0.003749211
28	0x3c0093c5	0.007847731
29	0x3cc302fd	0.023805136
30	0xbd77caa0	-0.060495973
31	0x3c8b44f3	0.017000651
32	0xbc7f71ce	-0.015591098
33	0x39ee1bd8	0.00045415643
34	0xbd01852e	-0.03162115
35	0x3c3bbaad	0.011458081
36	0xbc1dede3	-0.009639236
37	0x3d0e4881	0.034737114
38	0xbd0dd722	-0.034628995
39	0x3d17616d	0.036958147
40	0x3d158190	0.036500514
41	0x3d12e17d	0.035859574
42	0x3cbe2c9a	0.023214627
43	0x3cd224dc	0.025652342
44	0x3d32344c	0.043506905
45	0xbb10f9c6	-0.0022121533
46	0xbc9721a0	-0.01844865
47	0xbd04130c	-0.032244727
48	0xbb3ce8f3	-0.0028825372
49	0xbc1956f4	-0.00935911
50	0xbd4073c2	-0.046985395
51	0xbd0adb05	-0.03390028
52	0x3ce14219	0.027497338
53	0x3cd100b4	0.02551303
54	0x3d00c9a5	0.031442303
55	0x3c7ea885	0.015543108
56	0x3a5eaa4b	0.00084940036
57	0xbb846a41	-0.0040409868
58	0x3c747d85	0.014922504
59	0x3c0226b2	0.007943796
60	0x3cfe666c	0.031054698
61	0x3c85ff20	0.016357005
62	0x3c9b31ff	0.018944738
63	0xbcfe0517	-0.031008286
64	0x3c8d6c94	0.017263688
65	0x3d806813	0.062698506
66	0x3b088f21	0.0020837265
67	0xbb1c19df	-0.0023819131
68	0x3ccbcdb3	0.024878358
69	0xbc92b84a	-0.017910141
70	0x3c9af884	0.01891733
71	0x3c2d7097	0.010585926
72	0x3d1e8eb2	0.038710304
73	0xbca66262	-0.020310584
74	0x3cb5e244	0.022202618
75	0x3ca375e9	0.019953685
76	0xbc13483c	-0.00898939
77	0xbd174246	-0.036928438
78	0x3bd8210e	0.0065957373
79	0x3c2ac276	0.01042234
80	0x3cf4c12d	0.02987727
81	0xbd27ed37	-0.04099771
82	0x3a93e0b9	0.0011282183
83	0x3cb7d644	0.022441037
84	0xbc401182	-0.011722924
85	0x3bfa51b1	0.007639133
86	0x3c4a89f1	0.012361989
87	0x3d0892ce	0.03334313
88	0xbaee8200	-0.0018196702
89	0x3c596cc6	0.0132705625
90	0xbbb48bd6	-0.005509834
91	0x3c9a3d63	0.0188281
92	0xbc18a62a	-0.00931696
93	0xbcc8e95e	-0.02452534
94	0xbd07b48c	-0.033131167
95	0x3c06f1ea	0.008236388
96	0x3ca37422	0.019952837
97	0x3c8b2b71	0.016988488
98	0x3b9e03a1	0.00482221
99	0xbd06e616	-0.03293427
100	0xbcfbc500	-0.030733585
101	0x3d78acc4	0.060711637
102	0xbd07f0ee	-0.033188753
103	0x3d5bc030	0.05365008
104	0x3d102c9a	0.035198785
105	0x3cb08f6b	0.021552762
106	0x3ce77c05	0.02825738
107	0xbc52727d	-0.012844679
108	0x3d79740b	0.060901683
109	0xbc85473d	-0.01626932
110	0xbd1460c6	-0.036225103
111	0xbc302311	-0.010750548
112	0xbc24092a	-0.0100119505
113	0xbc9da7d3	-0.019245064
114	0xbd26bde9	-0.040708456
115	0xbc2036b2	-0.009778665
116	0xbcdff7f8	-0.02733992
117	0x3cdf6fe1	0.027275028
118	0x3b4b05d9	0.0030978827
119	0x3cfa6b22	0.030568663
120	0x3d2e57cb	0.042564195
121	0x3d02f976	0.031976186
122	0xbd405c9d	-0.046963323
123	0x3d1d503b	0.03840659
124	0x3cda0b96	0.026616853
125	0x38876f3e	6.458022e-05
126	0x3c660da6	0.01404134
127	0x3cdfc9ef	0.02731797

network_body._body_endoder.seq_layers.2.weight f4 [128, 128]
0	0x3ddf28ea	0.108964756
1	0x3dddd4df	0.108316176
2	0x3dbe9850	0.09306395
3	0xbcc1ec3e	-0.02367222
4	0x3d6dc8be	0.05805277
5	0xbe606bd9	-0.2191614
6	0x3dc1befc	0.094602555
7	0x3c8634b5	0.016382555
8	0xbdd60274	-0.10449687
9	0xbddc242f	-0.10749089
10	0x3d33f4bb	0.043934565
11	0xbd2eac05	-0.04264452
12	0xbd8ab6c3	-0.0677314
13	0x3cf2f472	0.029657576
14	0x3e2c2354	0.16810352
15	0x3d834adc	0.06410763
16	0x3ce3bdd8	0.027800485
17	0xbe1f4465	-0.15553434
18	0xbdb27f2c	-0.08715662
19	0xbcf80fb7	-0.03028093
20	0xbda880b5	-0.08227674
21	0xbd83d47f	-0.06437015
22	0x3d918791	0.07105935
23	0xbd460494	-0.04834421
24	0x3e1cd534	0.15315706
25	0x3e00297c	0.12515825
26	0x3d33ac30	0.043865383
27	0xbe12dcc2	-0.14342025
28	0xbe345e40	-0.17614079
29	0xbd3f575d	-0.046714175
30	0xbdcb279f	-0.099196665
31	0xbd8aae5e	-0.06771539
32	0xbcecae2e	-0.02889165
33	0x3d719642	0.058981188
34	0xbda08ebb	-0.07839724
35	0xbe05d337	-0.13068853
36	0x3cdaa9ae	0.026692238
37	0x3c2518d3	0.010076719
38	0xbcf2e471	-0.029649945
39	0x3e399ae6	0.18125495
40	0x3d0f1b8e	0.034938388
41	0x3c01b336	0.007916262
42	0x3d57ec5b	0.05271564
43	0x3cba6024	0.022750922
44	0xbd2bcf78	-0.041945904
45	0xbdac8382	-0.084235206
46	0x3ce50b32	0.02795944
47	0xbd6ce2ef	-0.05783361
48	0x3e3dc4a3	0.18532042
49	0xbd3756ff	-0.0447607
50	0x3d9e23ff	0.077217095
51	0xbe0d7718	-0.13814962
52	0x3ca86ecd	0.020560646
53	0x3df50e6b	0.11965641
54	0x3e22d032	0.15899733
55	0xbc7371d9	-0.014858686
56	0xbda3eb2d	-0.080038406
57	0x3d164a95	0.03669222
58	0xbd90992f	-0.070604675
59	0xbd19c546	-0.03754165
60	0x3d46acd3	0.04850466
61	0xbdaf914e	-0.085726365
62	0xbd255da7	-0.040372517
63	0x3e33db54	0.17564136
64	0xbd816e78	-0.06319898
65	0x3cc90bb0	0.024541706
66	0x3de733f2	0.11289205
67	0xbd6328ab	-0.055458706
68	0x3d57f7a8	0.052726418
69	0xbd04cda8	-0.03242269
70	0x3be8557f	0.00709027
71	0xbddb8913	-0.10719504
72	0xbde0cf50	-0.10977042
73	0x3ca10db9	0.019659864
74	0xbbf26723	-0.0073975488
75	0x3b1eac1f	0.002421148
76	0x3afd550a	0.0019327712
77	0xbde56082	-0.11200048
78	0xbdcf1f99	-0.10113449
79	0xbd5371ef	-0.051622327
80	0x3e0ab7b7	0.13546644
81	0xbdc05a17	-0.09392183
82	0x3d0d6d94	0.03452833
83	0xbca07f8c	-0.01959207
84	0xbe0bae62	-0.1364074
85	0x3c1eb758	0.009687267
86	0xbdf3adf6	-0.11898415
87	0xbe01e515	-0.12685044
88	0xbd0ed413	-0.03487022
89	0xbe3c9003	-0.18414311
90	0x3dcd100b	0.100128256
91	0xbbb7c318	-0.005607974
92	0x3b7dd53b	0.0038731832
93	0xbdf0df96	-0.11761396
94	0x3bb4bda5	0.0055157715
95	0xbddac0ae	-0.10681282
96	0xbdab2264	-0.08356169
97	0xbb5ed21b	-0.0033999744
98	0xbe2bf55a	-0.16792813
99	0xbe004d93	-0.12529592
100	0xbdb04c7e	-0.0860834
101	0x3daa948d	0.08329115
102	0x3d94c40f	0.07263958
103	0x3e060ca4	0.1309076
104	0x3c81a670	0.015826434
105	0x3d0bcb8a	0.034129657
106	0x3e34065f	0.17580555
107	0xbe034f00	-0.12823105
108	0xbd5e6185	-0.05429222
109	0x3e1da78f	0.1539595
110	0xbdd876a5	-0.10569505
111	0xb9f18075	-0.0004606281
112	0xbc02620e	-0.007957948
113	0xbe0cc60e	-0.13747427
114	0xbe30b0ed	-0.17254992
115	0x3d64c89b	0.055855375
116	0x3dee9132	0.116487876
117	0xbcc1c16d	-0.023651803
118	0xbc416ee4	-0.011806224
119	0x3e0f1af5	0.13975127
120	0x3ca77126	0.020439696
121	0x3ca2999c	0.019848637
122	0x3cbeb869	0.023281293
123	0x3dbd4aa9	0.09242756
124	0xbe378f2d	-0.17925711
125	0x3e1df271	0.15424515
126	0xbd34143d	-0.043964613
127	0x3de38dee	0.11111055
128	0xbe2aa096	-0.16662821
129	0xbd630fa2	-0.05543483
130	0xbd350fdc	-0.044204578
131	0x3e08f87b	0.13376038
132	0xbd5d88bb	-0.054085474
133	0x3bfc8eb8	0.007707443
134	0xbe2cd4f8	-0.16878116
135	0x3d604e17	0.054761972
136	0xbd007678	-0.03136298
137	0xbe4c5675	-0.19954856
138	0x3dd227f4	0.10261527
139	0x3deae28b	0.11468991
140	0x3d1c5fdb	0.038177352
141	0x3d1a1330	0.037615955
142	0x3e26a96c	0.16275567
143	0xbd067c21	-0.032833222
144	0xbd6f1cee	-0.0583772
145	0x3d8d566d	0.0690125
146	0xbc05ab0b	-0.008158456
147	0x3d5b991d	0.053612817
148	0x3a4c6839	0.0007797513
149	0x3a4fdbba	0.0007929165
150	0x3c981088	0.01856257
151	0xbd949bc5	-0.07256273
152	0xbceb42d3	-0.028718388
153	0x3cbca2a6	0.023026776
154	0xbde43103	-0.11142161
155	0x3cb7e567	0.022448255
156	0xbe25b2ef	-0.16181539
157	0xbddc0fd3	-0.10745206
158	0xbd81f879	-0.063462205
159	0x3db986b4	0.09058896
160	0xbd84fabd	-0.06493137
161	0xbd1ce111	-0.038300578
162	0x3d3eb55b	0.046559673
163	0x3d635da5	0.05550923
164	0xbd30a978	-0.043130368
165	0x3d1cc2aa	0.038271584
166	0xbda4f25d	-0.080540396
167	0x3d15d1a7	0.036576893
168	0x3c9a736e	0.01885387
169	0x3df08020	0.11743188
170	0xbd345bf9	-0.044033024
171	0x3e204490	0.15651155
172	0xbbf98f61	-0.007615969
173	0xbb8c911b	-0.004289759
174	0x3e21551b	0.15755121
175	0x3dc95e2b	0.09832414
176	0xbd19a210	-0.03750807
177	0xbd6f4dcb	-0.0584238
178	0xbd105e5f	-0.03524625
179	0x3deb0716	0.11475961
180	0xbd96e27f	-0.073674195
181	0xbe2da918	-0.16959035
182	0x3d16b403	0.036792766
183	0xbdfa08f1	-0.12208737
184	0xbe028d4a	-0.1274921
185	0xbe0d2672	-0.13784197
186	0xbd87d2f0	-0.0663203
187	0x3d0e3de3	0.03472699
188	0xbc96d530	-0.018412203
189	0x3dccf8f8	0.100084245
190	0x3d8f7cba	0.070062116
191	0xbd8598ae	-0.06523262
192	0xbb3b15a0	-0.0028546825
193	0x3e18f9c0	0.14939022
194	0x3d201ac3	0.039088022
195	0xbe19dc04	-0.15025336
196	0x3c9df43f	0.019281505
197	0x3e346fd8	0.1762079
198	0xbd69a27a	-0.057039715
199	0xbd7a75be	-0.061147444
200	0x3d044470	0.03229183
201	0x3d3f742f	0.04674166
202	0x3d4cc3c1	0.049991373
203	0xbcb51e8b	-0.02210929
204	0xbde82896	-0.11335866
205	0xbc725bbd	-0.01479238
206	0x3dc391c5	0.09549288
207	0x3da2b35b	0.079443656
208	0xbbd58901	-0.0065165763
209	0xbe1a2af4	-0.15055448
210	0x3d22e2cc	0.03976707
211	0xbd5f7dce	-0.054563336
212	0x3e269a0d	0.16269703
213	0x3bb54fd1	0.0055331965
214	0xbd6d147e	-0.05788087
215	0x3dc205ca	0.094737604
216	0xbd472503	-0.04861928
217	0x3d641eda	0.055693485
218	0x3d147067	0.036240008
219	0xbd79ad5b	-0.06095634
220	0xbc0173f8	-0.007901184
221	0x3c0e251d	0.008675841
222	0x3d8753c7	0.06607776
223	0x3d927799	0.07151718
224	0x3d52ca34	0.051462367
225	0x3cdebdc1	0.027190091
226	0xbd7a8349	-0.06116036
227	0x3deb1d30	0.114801764
228	0x3c5ef58c	0.013608348
229	0xbdde0a69	-0.10841829
230	0x3d022993	0.03177793
231	0xbd55ca81	-0.052195076
232	0xba9e0a91	-0.0012057592
233	0x3c2744e8	0.0102093
234	0xbe0535d7	-0.1300882
235	0x3bb8be37	0.0056379098
236	0xbd9cde79	-0.07659621
237	0x3d9c907c	0.07644746
238	0xbe35f2ae	-0.17768356
239	0x3dbc2b0f	0.091879
240	0xbd2c8970	-0.042123258
241	0xbc67d36c	-0.014149528
242	0x3da23c1c	0.07921621
243	0x3dae4d1e	0.08510803
244	0xbde2a785	-0.11067108
245	0x3d1bd4c8	0.03804472
246	0x3b538966	0.003227794
247	0xbc39bf13	-0.01133706
248	0xbdbdfca0	-0.092767
249	0xbe258979	-0.16165723
250	0x3d14a8c6	0.036293767
251	0x3dfa14f7	0.1221103
252	0xbdf17600	-0.11790085
253	0xbdbb6757	-0.0915057
254	0xbd945549	-0.07242829
255	0x3db5e94a	0.08882387

network_body._body_endoder.seq_layers.2.bias f4 [128]
0	0x3d15b69f	0.036551114
1	0x3b2d5447	0.0026447938
2	0x3d0e23ba	0.03470204
3	0x3c7c8cc8	0.015414424
4	0xbb9bc1c0	-0.0047533214
5	0x3c8e62db	0.017381122
6	0x3c9b8081	0.018982174
7	0x3ca81973	0.020519948
8	0xbbc6ae95	-0.0060632923
9	0x3c5aa868	0.013345815
10	0x3bd4b0f7	0.0064908224
11	0x3ce843b7	0.028352601
12	0xbd0e3f1c	-0.034728155
13	0x3d2dc5d2	0.042424984
14	0x3d330754	0.04370816
15	0x3ccac4a8	0.024751976
16	0xbc7222ff	-0.0147788515
17	0xbbaf56a2	-0.0053509036
18	0xbae4dbd9	-0.0017460539
19	0xb987e511	-0.00025919874
20	0x3c50f145	0.012752836
21	0xbbfc710e	-0.007703907
22	0x3bc074b3	0.0058732866
23	0xbc305461	-0.010762305
24	0x3c054e44	0.008136336
25	0x3d1f79d0	0.03893453
26	0x3c119c42	0.008887352
27	0x3d031c28	0.032009274
28	0xbbc8aa19	-0.006123793
29	0x3cc8581a	0.024456073
30	0x3c8764b2	0.016527507
31	0xbabb6bef	-0.0014299134
32	0xba817217	-0.000987592
33	0xbbb2268f	-0.0054367254
34	0xbb922a5a	-0.004460615
35	0x3b087e3e	0.00208272
36	0xbc94827c	-0.018128626
37	0x3af57fe2	0.0018730129
38	0xbc714565	-0.014726018
39	0x3b542a89	0.0032373986
40	0x3a972ecd	0.0011534333
41	0x3cbb1ed2	0.022841845
42	0x3b5ebfdb	0.0033988866
43	0x3d246c4a	0.040142335
44	0x3b311fdd	0.0027027049
45	0x3d100caf	0.035168346
46	0x3cc0d71d	0.023540074
47	0xbc7a3c89	-0.015273222
48	0xbaa2e59b	-0.0012428047
49	0xbb52cdd8	-0.003216615
50	0x3beb0bac	0.0071730223
51	0x3a223bdc	0.00061887293
52	0x3badadbe	0.0053002527
53	0x3c2e1910	0.010626093
54	0x3c910a6e	0.017705169
55	0xbbe2e55d	-0.006924315
56	0x3c0c8e49	0.008578845
57	0x3bef0478	0.007294234
58	0x3d1d7aca	0.03844718
59	0x3c814b6d	0.015783036
60	0x3cae1129	0.021248417
61	0xbbce2c0e	-0.006291873
62	0x3c43cdc1	0.011950911
63	0xbc7499ca	-0.014929244
64	0xbc03e86d	-0.00805102
65	0x3cd47cb5	0.025938371
66	0xbb11be48	-0.002223866
67	0x3cae3a47	0.021268023
68	0x3bb24ab0	0.0054410324
69	0x3bbcda3a	0.0057633193
70	0xbce0b2c0	-0.027428985
71	0x3ca8fea0	0.020629227
72	0x3b903148	0.004400406
73	0x3c78a979	0.015177124
74	0xbb5bc702	-0.0033535366
75	0xbb6558fc	-0.0034995666
76	0x3cf7727b	0.030205956
77	0xbc059a96	-0.008154532
78	0xbc5fd191	-0.013660804
79	0x3a387928	0.00070370967
80	0x3ca552a8	0.020181015
81	0x3abbad8a	0.0014318686
82	0x3c47193d	0.012152013
83	0xbc785f02	-0.01515937
84	0x3c1fe3b1	0.009758876
85	0x3c7c0ac2	0.015383424
86	0x3ca25443	0.01981557
87	0x3cdfff75	0.027343491
88	0x3cea3665	0.02859039
89	0xbaecdbe6	-0.0018070906
90	0x3a171fef	0.00057649513
91	0x3be0fa2b	0.00686576
92	0x3cca69d2	0.024708662
93	0x3c4ef4cc	0.012631606
94	0xba04827f	-0.0005054846
95	0x3bfbf6d4	0.0076893363
96	0x3d20be49	0.03924397
97	0x3b5715fa	0.0032819496
98	0x3b04b2bf	0.0020248143
99	0xbbdb4239	-0.006691244
100	0x3d49972e	0.04921644
101	0xbc1a3b87	-0.0094136065
102	0xbcc2edaa	-0.023794968
103	0xbcc6d5e6	-0.024271917
104	0xba12eaca	-0.00056044443
105	0x3bf0c0f3	0.00734722
106	0x3cc0441d	0.023469979
107	0x3c8bd3e9	0.01706882
108	0x3be7ab03	0.0070699467
109	0xbbe3adf3	-0.0069482266
110	0x3b4bebe5	0.0031115946
111	0x3d3fe299	0.04684696
112	0xbcaa81e2	-0.020813886
113	0xbc4fcf89	-0.012683758
114	0x3c34d8e1	0.011038036
115	0xbbd25688	-0.0064190067
116	0x3ae8c849	0.0017759885
117	0x3b09c0da	0.002101949
118	0x3c290404	0.010315899
119	0xbc127f7f	-0.00894153
120	0x3c052dbc	0.00812858
121	0x3cb04fa1	0.021522345
122	0x3c6735a0	0.014111906
123	0xbc04eb8b	-0.008112798
124	0x3c7abd27	0.0153038865
125	0x3cf628d7	0.03004877
126	0x3c1060fd	0.008812186
127	0x3cb0fe86	0.021605741

action_model._continuous_distribution.log_sigma f4 [1, 2]
0	0xbd608a8c	-0.05481963
1	0xbd2145b8	-0.03937313

action_model._continuous_distribution.mu.weight f4 [2, 128]
0	0xbd47b5db	-0.048757415
1	0x3cc8677e	0.024463411
2	0x3d229c73	0.039699983
3	0xbc2dab3f	-0.01059991
4	0xbb8438f0	-0.004035108
5	0x3d040463	0.032230746
6	0x3dd6d4b9	0.104897924
7	0x3d20c895	0.03925379
8	0xbc2abe52	-0.010421352
9	0x3d16d50e	0.03682428
10	0x3d2db1d2	0.04240591
11	0x3c581df4	0.013190735
12	0x3a2a1b7d	0.00064890814
13	0x3a45d00a	0.0007545954
14	0x3c12e84d	0.008966518
15	0x3c3dd4aa	0.011586348
16	0xba3bbbe2	-0.00071614806
17	0x3cc95169	0.024574952
18	0x3b66dfdc	0.0035228645
19	0x3c6b8c2d	0.014376682
20	0x3d18e7d2	0.037330456
21	0xbc812959	-0.015766786
22	0x3d09ae77	0.03361365
23	0xbca94e94	-0.020667352
24	0x3ce8eac3	0.028432256
25	0x3d27dbc0	0.040981054
26	0xbd51020d	-0.051027346
27	0xbb1d2e9f	-0.0023984087
28	0xbd0188ee	-0.031624727
29	0xbaf06581	-0.0018340797
30	0xbd9cd7d1	-0.07658351
31	0xbb865040	-0.004098922
32	0x3cddd90b	0.027081033
33	0xbc1eb6f1	-0.009687171
34	0x3d05d908	0.03267768
35	0x3c83eb5b	0.016103437
36	0x3cbb8506	0.022890579
37	0xbd494268	-0.049135596
38	0xbc8e5634	-0.01737509
39	0x3d2e6fc7	0.042587068
40	0x3c9e816e	0.019348826
41	0x3d5d7711	0.05406863
42	0x3d018415	0.031620104
43	0xbd624ad1	-0.05524713
44	0x3d2c9177	0.042130914
45	0x3d390926	0.04517474
46	0x3cd48911	0.025944265
47	0x3b943469	0.0045228493
48	0x3c21cb14	0.009875078
49	0xba4d1631	-0.0007823436
50	0x3cc70d71	0.024298402
51	0x3d095eb4	0.03353758
52	0xbd13d73c	-0.036093935
53	0x3c845b1c	0.016156726
54	0xbd0555b4	-0.032552436
55	0xbcde1da8	-0.02711375
56	0x3d4a8d87	0.049451377
57	0x3d06bb03	0.032893192
58	0xbd84d946	-0.06486754
59	0xbd34141b	-0.043964487
60	0x3c4d7006	0.0125389155
61	0x3cea5412	0.028604541
62	0xbd0d3510	-0.034474432
63	0xbbb1f38f	-0.005430646
64	0xbd06e302	-0.032931335
65	0x3cc9e38a	0.024644632
66	0x3d16a68f	0.036779936
67	0x3c80cfbe	0.01572406
68	0x3cf6e0f9	0.030136572
69	0x3d26548f	0.040607985
70	0x3a3d2ead	0.0007216733
71	0xbd575ea9	-0.05258051
72	0x3cd3d2e0	0.025857389
73	0x3c37222d	0.011177582
74	0xbc935745	-0.01798595
75	0xbceb8d82	-0.028754
76	0x3d66559f	0.056234
77	0x3cc97a21	0.024594368
78	0x3c14118b	0.009037386
79	0xbc811dbc	-0.015761249
80	0xbd5f04df	-0.054448005
81	0xbc4fe6cb	-0.012689303
82	0x3d1f702c	0.038925335
83	0xbc696dac	-0.014247339
84	0xbd8074f3	-0.06272306
85	0x3d31fb65	0.04345264
86	0x3d4eaa7c	0.050455555
87	0xbcc38518	-0.023867175
88	0xbda05054	-0.078278214
89	0x3d0b00f4	0.033936456
90	0x3d4238f4	0.047417596
91	0x3c71d9dd	0.014761415
92	0xbc48303d	-0.012218532
93	0x3d3e36d2	0.046439
94	0x3d21dd45	0.03951766
95	0x3d1e5ef6	0.03866478
96	0xbd0db523	-0.034596574
97	0x3d3637b5	0.04448672
98	0x3d11cab3	0.0355937
99	0xbcec0477	-0.028810723
100	0x3cac4f1d	0.021033818
101	0x3c4d18c5	0.012518113
102	0x3c007c3c	0.00784212
103	0x3b589d90	0.00330529
104	0x3b18c082	0.0023308103
105	0x3cdc1ee9	0.026870208
106	0xbdcc32ee	-0.099706516
107	0xbc36d771	-0.011159764
108	0x3d520373	0.05127282
109	0xbcd627d6	-0.026142042
110	0x3d415c19	0.04720697
111	0xbd15bded	-0.03655808
112	0x3c2c7174	0.010525096
113	0xbce2a3a6	-0.027665924
114	0xbce4ee99	-0.027945803
115	0xbcee2af7	-0.029073222
116	0xbca445c5	-0.0200528
117	0xbca19e30	-0.01972875
118	0xbcee4671	-0.029086323
119	0x3ce2d485	0.027689228
120	0x3c9b75b4	0.018977024
121	0x3d619e04	0.055082336
122	0x3d1d6f4d	0.038436223
123	0xbc926371	-0.017869683
124	0xbd263b6a	-0.040584005
125	0x3d507cee	0.050900392
126	0xbcf69b72	-0.030103419
127	0x3d1b4250	0.037905037
128	0xbd0a8698	-0.033819765
129	0xbbf6f1cd	-0.007536149
130	0xbc071fed	-0.008247358
131	0xbccc6058	-0.024948284
132	0x3d213108	0.0393534
133	0xbce9eb9d	-0.028554732
134	0x3d13768d	0.03600173
135	0x383bc706	4.476963e-05
136	0x3d25fb5c	0.040522918
137	0xbca98bce	-0.020696547
138	0x3bb88ed6	0.0056322617
139	0xbd6831ba	-0.056688048
140	0x3ae9adb3	0.0017828256
141	0xbd92a133	-0.071596526
142	0xbd1959cc	-0.037439153
143	0xbd1edda7	-0.038785603
144	0x3bbfffce	0.0058593517
145	0xbb31d016	-0.0027132086
146	0x3da55e32	0.08074607
147	0x3ce43d8e	0.027861383
148	0xbc5d762d	-0.013516945
149	0x3c4f4ce5	0.01265261
150	0x3ca4a4e3	0.020098155
151	0x3c977cf9	0.018492209
152	0xbbf8229b	-0.0075724847
153	0xbca1d7f4	-0.019756295
154	0x3c686b5a	0.014185751
155	0xbd41e79f	-0.04734003
156	0x3d5a2b8b	0.053264182
157	0xbd82c5eb	-0.06385406
158	0x3a8d2e06	0.0010771162
159	0xbbebebce	-0.007199741
160	0x3c652bea	0.013987521
161	0x3bc76615	0.006085167
162	0x3cee8fe1	0.029121341
163	0xbc14fccb	-0.009093474
164	0x3c2e0f22	0.010623725
165	0x3c9658f0	0.018352956
166	0x3c695131	0.014240549
167	0x3cdca19d	0.026932532
168	0x3d2d8076	0.042358838
169	0xbc924bbb	-0.017858377
170	0x3d00de12	0.031461783
171	0xbd8a8f97	-0.06765669
172	0x3afca472	0.0019275083
173	0xbd61f025	-0.05516066
174	0xbc8d2643	-0.017230159
175	0x3cd1af11	0.025596173
176	0x3d2a32d9	0.0415524
177	0xbbccbebe	-0.006248324
178	0x3d2c11de	0.042009227
179	0x3c756783	0.014978292
180	0x398822a6	0.00025965757
181	0x3b0ceac2	0.0021502231
182	0xbc096474	-0.008385766
183	0x3cb022cd	0.02150097
184	0x3b8581ef	0.004074327
185	0x3cffde5d	0.03123396
186	0xbb33d2c5	-0.002743886
187	0xbbdbd039	-0.0067081717
188	0xbd8061c0	-0.06268644
189	0x3c6b7c7a	0.014372939
190	0xbd08cd63	-0.033398997
191	0x3d55589c	0.052086458
192	0x3c59db21	0.013296873
193	0xbd2c3117	-0.042039003
194	0x3d0d41e6	0.034486674
195	0xbc5f99aa	-0.013647476
196	0x3d542ee2	0.051802523
197	0x3d3f3df7	0.046689954
198	0x3c8e4933	0.017368888
199	0xbc3f4549	-0.011674234
200	0x3c91c5d6	0.01779453
201	0xbcaee8fc	-0.02135133
202	0x3d9a0523	0.07520511
203	0xbcbd5c79	-0.023115383
204	0xbd0e436e	-0.034732275
205	0x3b90d4f8	0.004419919
206	0x3be98083	0.0071259155
207	0xbc3e7d08	-0.011626489
208	0x3b0c93c0	0.002145037
209	0xbb620f7f	-0.00344941
210	0xbcd6c5f0	-0.02621743
211	0x3cc63961	0.024197282
212	0x3d0676ff	0.032828327
213	0x3aa2dc71	0.0012425316
214	0x3c844e04	0.016150482
215	0xbd6a9e78	-0.057280034
216	0xbc8dae18	-0.017294928
217	0x3b5e0428	0.003387699
218	0x3d033902	0.03203679
219	0x3cacbb91	0.021085532
220	0xbd2790fe	-0.04090976
221	0x3b72220d	0.0036946565
222	0x3ccaa70f	0.024737863
223	0x3c4ffd2c	0.012694638
224	0xbdb51f27	-0.088438325
225	0x3c61cd78	0.013781898
226	0x3c507ff1	0.012725816
227	0xbb1bb64e	-0.0023759785
228	0xbd6257cf	-0.055259522
229	0x3d01c685	0.031683464
230	0x3d34f37c	0.044177517
231	0x3abbda60	0.0014332049
232	0xbb00dd6c	-0.0019663228
233	0xbc250e78	-0.01007425
234	0x3b760c98	0.0037544128
235	0xbd5225e5	-0.05130567
236	0xbc297608	-0.010343082
237	0x3c1f0224	0.0097051
238	0x3bd0b8b1	0.006369673
239	0xbd596b88	-0.053081065
240	0x3bd95e82	0.0066335807
241	0x3d21f9a6	0.039544724
242	0xbaefe2e1	-0.0018301868
243	0x3d05f9d0	0.032708943
244	0x3d604ab4	0.054758742
245	0x3cd12c10	0.025533706
246	0xb93a5c9d	-0.00017772843
247	0x3d0b61e3	0.0340289
248	0xbcf2edec	-0.029654466
249	0xbc0bf98f	-0.008543386
250	0x3b80b56f	0.0039278786
251	0x3d20abad	0.039226223
252	0xbb11e70a	-0.0022262954
253	0xbcb7d55f	-0.02244061
254	0x3b32e911	0.0027299563
255	0xbcea99e5	-0.028637836

action_model._continuous_distribution.mu.bias f4 [2]
0	0xbb3a2d00	-0.002840817
1	0xbc493e32	-0.012282895

exp_avg f4 [128, 7]
0	0xba1ddad6	-0.0006021684
1	0x00000000	0.0
2	0xb9ab5f61	-0.00032686724
3	0x3900102a	0.00012213053
4	0xba11327f	-0.00055388355
5	0x00000000	0.0
6	0xba68e78f	-0.00088846026
7	0xba7581fa	-0.00093653763
8	0x00000000	0.0
9	0xba55e0f1	-0.0008158824
10	0xb9fcd963	-0.0004822715
11	0xbaf2e851	-0.001853237
12	0x00000000	0.0
13	0xbaeaedee	-0.0017923692
14	0xb9d1071b	-0.0003986888
15	0x00000000	0.0
16	0xb9ec6aaf	-0.00045092913
17	0x39f2b627	0.0004629355
18	0xba71dd26	-0.0009226374
19	0x00000000	0.0
20	0xba079a38	-0.00051728217
21	0xb958d39f	-0.000206782
22	0x00000000	0.0
23	0x37fb77a1	2.9977238e-05
24	0x39113850	0.00013849256
25	0xb8e36fb0	-0.00010845007
26	0x00000000	0.0
27	0x386dc716	5.6690616e-05
28	0xba0fd486	-0.00054866855
29	0x00000000	0.0
30	0x39bbfb48	0.0003585464
31	0x377d4370	1.5095677e-05
32	0x395d6105	0.00021112345
33	0x00000000	0.0
34	0x3a26feb0	0.0006370349
35	0x3a7ade52	0.00095698715
36	0x00000000	0.0
37	0x3af588f4	0.0018732832
38	0x37be6920	2.2698718e-05
39	0x3a1dce47	0.00060198124
40	0x00000000	0.0
41	0x3a370502	0.0006981642
42	0xb68627df	-3.998153e-06
43	0x00000000	0.0
44	0xb87b793e	-5.995598e-05
45	0xb71f7b5f	-9.505863e-06
46	0x3801d02b	3.094987e-05
47	0x00000000	0.0
48	0x3835a132	4.3303888e-05
49	0xb923824c	-0.0001559343
50	0x00000000	0.0
51	0x3a7c626c	0.0009627703
52	0xb99c3fd0	-0.00029802183
53	0x39b97050	0.0003536963
54	0x00000000	0.0
55	0x3a47260a	0.0007596916
56	0x396b4d9b	0.00022440257
57	0x00000000	0.0
58	0xb93a3f39	-0.00017761895
59	0x38d1d77c	0.00010006034
60	0xb99a110b	-0.00029385867
61	0x00000000	0.0
62	0xb95f9f27	-0.00021326226
63	0x3980ca6e	0.00024564884
64	0x00000000	0.0
65	0xb93efb1c	-0.00018213358
66	0xb9706383	-0.00022925255
67	0x390717e1	0.00012883499
68	0x00000000	0.0
69	0xb78a80cc	-1.6510858e-05
70	0x3983d7b1	0.0002514697
71	0x00000000	0.0
72	0xba2acd27	-0.00065155554
73	0xb73271b4	-1.06361e-05
74	0xb84cc52c	-4.882102e-05
75	0x00000000	0.0
76	0xb9ba3dd0	-0.00035522738
77	0x3a1f2a3c	0.0006071662
78	0x00000000	0.0
79	0x39743b9e	0.00023291862
80	0x390bb24b	0.00013322492
81	0x3a7725d1	0.00094279373
82	0x00000000	0.0
83	0x39a8467e	0.00032095978
84	0xba594780	-0.00082885474
85	0x00000000	0.0
86	0x39b769f2	0.00034983415
87	0x398b2098	0.0002653643
88	0xb86cd904	-5.6468896e-05
89	0x00000000	0.0
90	0x39c6e751	0.00037937847
91	0xb9879438	-0.00025859638
92	0x00000000	0.0
93	0xb9f9a38b	-0.0004761483
94	0xb9af6b45	-0.00033458523
95	0xba0cec17	-0.00053757563
96	0x00000000	0.0
97	0xb9ea6118	-0.00044704298
98	0xba49e874	-0.000770218
99	0x00000000	0.0
100	0x3a27783d	0.00063884613
101	0x38670d88	5.5087294e-05
102	0x3957a74e	0.00020566324
103	0x00000000	0.0
104	0x3a3f98ac	0.00073088217
105	0xba2765d4	-0.0006385718
106	0x00000000	0.0
107	0xb9fb1c8d	-0.00047895723
108	0xb9346a67	-0.00017205776
109	0xba054585	-0.00050839066
110	0x00000000	0.0
111	0xba251569	-0.0006297441
112	0x38c5eb76	9.43755e-05
113	0x00000000	0.0
114	0xb8eca6cc	-0.00011284425
115	0x38164131	3.58235e-05
116	0x387cd1fe	6.0277052e-05
117	0x00000000	0.0
118	0xb8a2f2bf	-7.769977e-05
119	0x39a039ce	0.00030560646
120	0x00000000	0.0
121	0x397d4ce9	0.00024156611
122	0xb91f9fd5	-0.00015222964
123	0x3a20f40f	0.0006139883
124	0x00000000	0.0
125	0x39a566a3	0.00031547723
126	0x3a864dd7	0.0010246587
127	0x00000000	0.0
128	0x3a8cea8c	0.0010751053
129	0xb91664b0	-0.00014342624
130	0x3a73b638	0.0009296867
131	0x00000000	0.0
132	0x39fbc816	0.00048023526
133	0x38ab78cc	8.1764156e-05
134	0x00000000	0.0
135	0xb86d9a04	-5.664864e-05
136	0x39969f82	0.00028729072
137	0xb98da52a	-0.00027016673
138	0x00000000	0.0
139	0xb7d422e8	-2.5288624e-05
140	0x392714e1	0.00015934139
141	0x00000000	0.0
142	0xb945f26d	-0.00018877695
143	0x38dc2170	0.00010496646
144	0xb90949ec	-0.00013092876
145	0x00000000	0.0
146	0xb89153e5	-6.9297654e-05
147	0xba2dcf12	-0.0006630282
148	0x00000000	0.0
149	0x3ab87173	0.0014071896
150	0x39c2a075	0.00037122113
151	0x3a614b0b	0.0008594251
152	0x00000000	0.0
153	0x3a4cbea7	0.0007810392
154	0xb95d80fa	-0.0002112425
155	0x00000000	0.0
156	0xb98776f0	-0.00025837822
157	0xb907a441	-0.00012935793
158	0xb8a6968b	-7.943538e-05
159	0x00000000	0.0
160	0xb919b809	-0.00014659775
161	0x3531f2c0	6.6290886e-07
162	0x00000000	0.0
163	0x3a0bd26e	0.00053337857
164	0x399fd46a	0.00030485104
165	0x3928f1dd	0.0001611183
166	0x00000000	0.0
167	0x39eec0f1	0.0004553865
168	0xb997f9a1	-0.00028986952
169	0x00000000	0.0
170	0xb8cf6fdb	-9.891364e-05
171	0xb9017a02	-0.0001234785
172	0xb9d8442e	-0.00041249528
173	0x00000000	0.0
174	0x3834893f	4.3043165e-05
175	0x38ed7f4f	0.00011324754
176	0x00000000	0.0
177	0x394c39c4	0.00019476475
178	0x387a3576	5.9654434e-05
179	0x388832ea	6.494469e-05
180	0x00000000	0.0
181	0x3818b0a6	3.640414e-05
182	0x39b089cb	0.00033672
183	0x00000000	0.0
184	0x3a107f19	0.0005512103
185	0xb7921a77	-1.741688e-05
186	0xb8d5c9aa	-0.00010194194
187	0x00000000	0.0
188	0x3966777a	0.00021979018
189	0x39ebba30	0.00044961413
190	0x00000000	0.0
191	0xb831b7d7	-4.2371303e-05
192	0xb88bed70	-6.672263e-05
193	0x39fa9c1a	0.0004780002
194	0x00000000	0.0
195	0x39c9d871	0.0003849897
196	0xb9fe7396	-0.00048532774
197	0x00000000	0.0
198	0xb9f62645	-0.0004694929
199	0x3a037d80	0.00050159544
200	0xba866e95	-0.0010256345
201	0x00000000	0.0
202	0xba343f01	-0.00068758434
203	0x3965416b	0.00021863512
204	0x00000000	0.0
205	0x3a1f723d	0.00060823915
206	0x36b0c580	5.2682008e-06
207	0x39ad116e	0.00033010117
208	0x00000000	0.0
209	0x3998c426	0.0002913784
210	0x38cc1646	9.731627e-05
211	0x00000000	0.0
212	0xb94c559e	-0.00019486851
213	0xb905ae06	-0.00012748697
214	0xba0cc62a	-0.0005370105
215	0x00000000	0.0
216	0xb91a5c8b	-0.0001472106
217	0x3796e56d	1.7988228e-05
218	0x00000000	0.0
219	0x39d9c58a	0.00041536643
220	0x39cfefa5	0.00039660666
221	0x3a820178	0.0009918651
222	0x00000000	0.0
223	0x381d0af4	3.7441918e-05
224	0x38336974	4.2775137e-05
225	0x00000000	0.0
226	0xb909e8ff	-0.00013152136
227	0x38003468	3.0566385e-05
228	0xbaa9d187	-0.0012956121
229	0x00000000	0.0
230	0xba3989b6	-0.00070777105
231	0xb7dc4ba7	-2.6261272e-05
232	0x00000000	0.0
233	0xba2369a9	-0.0006233701
234	0x39d37fcb	0.0004034027
235	0xba51a108	-0.0007996713
236	0x00000000	0.0
237	0xba7bdfe3	-0.0009608252
238	0x39d8f11d	0.00041378374
239	0x00000000	0.0
240	0x39861868	0.00025576656
241	0x37a867dc	2.0075524e-05
242	0xb8e7ef7a	-0.00011059544
243	0x00000000	0.0
244	0x39940934	0.00028235617
245	0x375c67c4	1.3137182e-05
246	0x00000000	0.0
247	0xb9bc5de4	-0.00035928108
248	0x3783f71c	1.5731486e-05
249	0x39452703	0.00018801917
250	0x00000000	0.0
251	0xb9d94242	-0.0004143883
252	0x38fa4e5b	0.00011935524
253	0x00000000	0.0
254	0x391a07fc	0.00014689559
255	0xb66956a0	-3.4770128e-06

exp_avg_sq f4 [128, 7]
0	0x35991086	1.1404197e-06
1	0x00000000	0.0
2	0x3589a299	1.0254618e-06
3	0x35398de0	6.9124326e-07
4	0x35fa6402	1.8655558e-06
5	0x00000000	0.0
6	0x35fb44cc	1.872098e-06
7	0x36845890	3.9442166e-06
8	0x00000000	0.0
9	0x367d5b13	3.775295e-06
10	0x364f81f9	3.0921058e-06
11	0x36f47837	7.2857615e-06
12	0x00000000	0.0
13	0x36eaef41	7.0015963e-06
14	0x35c6ccdd	1.4811773e-06
15	0x00000000	0.0
16	0x35cd5784	1.5299161e-06
17	0x357d1904	9.4286247e-07
18	0x3647b41d	2.975815e-06
19	0x00000000	0.0
20	0x368d577f	4.2123133e-06
21	0x347af0ba	2.337064e-07
22	0x00000000	0.0
23	0x347dee15	2.3649075e-07
24	0x343eed55	1.778147e-07
25	0x34fbe0a1	4.6915832e-07
26	0x00000000	0.0
27	0x3568165f	8.645929e-07
28	0x355b28d7	8.164329e-07
29	0x00000000	0.0
30	0x35094d88	5.11493e-07
31	0x350a30ef	5.1480214e-07
32	0x35d8ac2c	1.6143363e-06
33	0x00000000	0.0
34	0x3596ba39	1.1230069e-06
35	0x368063c4	3.8263115e-06
36	0x00000000	0.0
37	0x3658c657	3.2301957e-06
38	0x362e678e	2.5988297e-06
39	0x369c6b0d	4.6616246e-06
40	0x00000000	0.0
41	0x36c48363	5.8565506e-06
42	0x33b556b9	8.444244e-08
43	0x00000000	0.0
44	0x33b1770f	8.2638614e-08
45	0x33716bbc	5.621017e-08
46	0x3436521b	1.697994e-07
47	0x00000000	0.0
48	0x345ac513	2.0374527e-07
49	0x35e7ed2e	1.727987e-06
50	0x00000000	0.0
51	0x35b0ea4a	1.3181209e-06
52	0x35990b2f	1.1402643e-06
53	0x36321a75	2.6539467e-06
54	0x00000000	0.0
55	0x36411321	2.8770376e-06
56	0x3520a726	5.984788e-07
57	0x00000000	0.0
58	0x352ea106	6.505437e-07
59	0x34f3743a	4.5346843e-07
60	0x359b4e7b	1.1571241e-06
61	0x00000000	0.0
62	0x35d9b20e	1.6219581e-06
63	0x34dd0312	4.1166692e-07
64	0x00000000	0.0
65	0x348c6bbd	2.6155422e-07
66	0x347f28a2	2.3763508e-07
67	0x354824f2	7.455957e-07
68	0x00000000	0.0
69	0x354d05a2	7.637665e-07
70	0x35a1a061	1.2042111e-06
71	0x00000000	0.0
72	0x35778f19	9.2222905e-07
73	0x358f8f98	1.0696122e-06
74	0x35bce599	1.4073913e-06
75	0x00000000	0.0
76	0x36192533	2.282043e-06
77	0x35931e8e	1.0961246e-06
78	0x00000000	0.0
79	0x35412c04	7.1962154e-07
80	0x352bf5ea	6.4060316e-07
81	0x3620e2ea	2.397394e-06
82	0x00000000	0.0
83	0x362e07f9	2.5932661e-06
84	0x35c336fb	1.4544634e-06
85	0x00000000	0.0
86	0x359c6812	1.1653194e-06
87	0x359b784c	1.1583411e-06
88	0x36139961	2.1993985e-06
89	0x00000000	0.0
90	0x3604cf2f	1.979013e-06
91	0x3548a721	7.474901e-07
92	0x00000000	0.0
93	0x3561505d	8.3935976e-07
94	0x3510573b	5.377112e-07
95	0x35b9a991	1.3832924e-06
96	0x00000000	0.0
97	0x361bac12	2.3196958e-06
98	0x36346e44	2.6886273e-06
99	0x00000000	0.0
100	0x35d7addd	1.6069349e-06
101	0x35e5ed1c	1.7130837e-06
102	0x368be8eb	4.169638e-06
103	0x00000000	0.0
104	0x369dacbb	4.699073e-06
105	0x3532509a	6.642746e-07
106	0x00000000	0.0
107	0x3519e365	5.7327844e-07
108	0x34d3b48f	3.9433186e-07
109	0x354d96f7	7.6588134e-07
110	0x00000000	0.0
111	0x356d229d	8.833975e-07
112	0x34453439	1.8366053e-07
113	0x00000000	0.0
114	0x34499420	1.8773471e-07
115	0x33c9aec0	9.391579e-08
116	0x34863448	2.4997485e-07
117	0x00000000	0.0
118	0x34b96828	3.453472e-07
119	0x35317ff6	6.6123846e-07
120	0x00000000	0.0
121	0x3519f258	5.73496e-07
122	0x35001681	4.7716463e-07
123	0x3590ec53	1.0797615e-06
124	0x00000000	0.0
125	0x35c24ffd	1.4477406e-06
126	0x35f953b6	1.8576309e-06
127	0x00000000	0.0
128	0x35e43d0a	1.7005088e-06
129	0x3590b64f	1.0781895e-06
130	0x36403dbb	2.8646161e-06
131	0x00000000	0.0
132	0x36536f8c	3.150638e-06
133	0x350e172c	5.293284e-07
134	0x00000000	0.0
135	0x3508104f	5.068768e-07
136	0x34d3fc2f	3.94853e-07
137	0x3534d241	6.7361185e-07
138	0x00000000	0.0
139	0x35940790	1.102906e-06
140	0x35a3faec	1.2217474e-06
141	0x00000000	0.0
142	0x35721679	9.018473e-07
143	0x35577cb9	8.0275237e-07
144	0x35955821	1.1127014e-06
145	0x00000000	0.0
146	0x35dd4926	1.6487072e-06
147	0x36c595d8	5.8885016e-06
148	0x00000000	0.0
149	0x368a4d7e	4.1217418e-06
150	0x36908141	4.3065816e-06
151	0x3717ef0d	9.05596e-06
152	0x00000000	0.0
153	0x374e8882	1.231034e-05
154	0x342f0e62	1.6303377e-07
155	0x00000000	0.0
156	0x34744c6f	2.2752077e-07
157	0x340ad841	1.2930924e-07
158	0x34cac4ca	3.7768615e-07
159	0x00000000	0.0
160	0x34d0e0d5	3.8906606e-07
161	0x34ba08a4	3.4651487e-07
162	0x00000000	0.0
163	0x34f9d337	4.6533543e-07
164	0x34bc075a	3.5023078e-07
165	0x34fb2a88	4.678334e-07
166	0x00000000	0.0
167	0x3555f355	7.970278e-07
168	0x351dd3ed	5.879545e-07
169	0x00000000	0.0
170	0x3502d4f3	4.8738656e-07
171	0x34da5667	4.066853e-07
172	0x359ce550	1.1689644e-06
173	0x00000000	0.0
174	0x359f6665	1.1876224e-06
175	0x340f04e7	1.3319696e-07
176	0x00000000	0.0
177	0x3410756c	1.3453763e-07
178	0x33ea49b0	1.0909878e-07
179	0x342ef93d	1.6295685e-07
180	0x00000000	0.0
181	0x348a8f75	2.5808882e-07
182	0x34f97dd4	4.6471416e-07
183	0x00000000	0.0
184	0x350c554f	5.2278205e-07
185	0x3461ec23	2.1040664e-07
186	0x35075f63	5.0430225e-07
187	0x00000000	0.0
188	0x351949b8	5.7104216e-07
189	0x3588536f	1.0157072e-06
190	0x00000000	0.0
191	0x358456da	9.860044e-07
192	0x358f8534	1.0693097e-06
193	0x35891055	1.0212049e-06
194	0x00000000	0.0
195	0x360afd5c	2.0711077e-06
196	0x35ce1fc5	1.5357442e-06
197	0x00000000	0.0
198	0x35daa0a8	1.6289023e-06
199	0x3583d885	9.823276e-07
200	0x3633fc16	2.6819812e-06
201	0x00000000	0.0
202	0x366e24ab	3.5486107e-06
203	0x3525fb25	6.1832753e-07
204	0x00000000	0.0
205	0x350dead8	5.2868336e-07
206	0x34e37da3	4.2373458e-07
207	0x353f0ab7	7.1168637e-07
208	0x00000000	0.0
209	0x35a32f40	1.2158198e-06
210	0x3571d0c3	9.0083284e-07
211	0x00000000	0.0
212	0x35194fe2	5.7113186e-07
213	0x3508f3c5	5.101868e-07
214	0x361ae6dc	2.3082166e-06
215	0x00000000	0.0
216	0x365bfaf8	3.2779626e-06
217	0x364832fb	2.9831997e-06
218	0x00000000	0.0
219	0x36334c4d	2.6717491e-06
220	0x3614aa16	2.2152722e-06
221	0x36b4c9af	5.387897e-06
222	0x00000000	0.0
223	0x36e958b0	6.9542657e-06
224	0x35fa70c0	1.8659266e-06
225	0x00000000	0.0
226	0x360f09af	2.1314297e-06
227	0x35ac6a43	1.2845925e-06
228	0x36a2f39e	4.856337e-06
229	0x00000000	0.0
230	0x36de71b7	6.6293537e-06
231	0x3607f484	2.0258894e-06
232	0x00000000	0.0
233	0x35f96f8c	1.858441e-06
234	0x35c1295d	1.4391659e-06
235	0x36504dbb	3.103966e-06
236	0x00000000	0.0
237	0x365cfbe2	3.292917e-06
238	0x35497458	7.504764e-07
239	0x00000000	0.0
240	0x351a1370	5.7397756e-07
241	0x351212c2	5.4416535e-07
242	0x354014fd	7.1556116e-07
243	0x00000000	0.0
244	0x359c5ad8	1.1649345e-06
245	0x34a9c11d	3.1619211e-07
246	0x00000000	0.0
247	0x34e3185e	4.2299774e-07
248	0x34938310	2.7476244e-07
249	0x34d9492b	4.0472636e-07
250	0x00000000	0.0
251	0x353e5858	7.090907e-07
252	0x34afe4ed	3.2762856e-07
253	0x00000000	0.0
254	0x3485ba2f	2.4908647e-07
255	0x346008ab	2.0864779e-07

exp_avg f4 [128]
0	0x3a0f5b7a	0.0005468648
1	0x3aae4eac	0.0013298593
2	0xb94413c6	-0.00018699383
3	0xb92c2cc4	-0.00016419875
4	0xb9b3ddde	-0.00034306844
5	0xb9e39f3e	-0.0004341546
6	0xb7856e9b	-1.590634e-05
7	0xb9781832	-0.00023660137
8	0x3856ccbc	5.121225e-05
9	0x391da118	0.00015032699
10	0x39ce847b	0.00039390087
11	0xb9d093c2	-0.0003978294
12	0xba19e1de	-0.00058701437
13	0x39ab9f94	0.00032734557
14	0xba11ae60	-0.0005557295
15	0x3a2290fa	0.0006201413
16	0x388c03fc	6.676462e-05
17	0xb7c4ebf6	-2.3474899e-05
18	0x39014e6a	0.0001233161
19	0x37e34130	2.7090864e-05
20	0x38f62e51	0.00011738821
21	0xba73b216	-0.0009296251
22	0x38166415	3.5855996e-05
23	0xb9ef3c23	-0.00045630438
24	0x3999a14a	0.00029302604
25	0xb8f175cb	-0.00011513716
26	0xb9462d84	-0.00018899707
27	0x36aa2940	5.071197e-06
28	0x37d05608	2.4835594e-05
29	0xb91bb3eb	-0.00014848977
30	0xb888b2d0	-6.518292e-05
31	0xba21efce	-0.0006177396
32	0x39dd157b	0.0004216841
33	0x39bf523b	0.00036491625
34	0xb912d654	-0.00014003488
35	0xb93a28b1	-0.00017753501
36	0xb74bd236	-1.2148686e-05
37	0x3a4f4193	0.00079061947
38	0x399fc7ac	0.0003047561
39	0xba100666	-0.00054941175
40	0xb9d153ba	-0.00039925968
41	0xb9e0f049	-0.00042903636
42	0x39f669e3	0.00046999668
43	0xb9e97d74	-0.00044534693
44	0xbaa47a80	-0.0012548715
45	0x39e48aba	0.00043590908
46	0x39159e54	0.00014268729
47	0x381a41e0	3.6777812e-05
48	0x38a22007	7.7307275e-05
49	0xbaa66b50	-0.0012696777
50	0xb8055bca	-3.1795156e-05
51	0xb8f4a37e	-0.000116652795
52	0x3928684e	0.00016060585
53	0x36e9b588	6.965074e-06
54	0x3a13eeac	0.000564317
55	0x39d52536	0.0004065425
56	0x389f8eb0	7.6082884e-05
57	0x391387a7	0.00014069547
58	0xba1f280c	-0.0006071336
59	0xb8814b70	-6.165251e-05
60	0x3a9bf34a	0.0011898067
61	0xb8e78b77	-0.00011040916
62	0xba57c98c	-0.0008231632
63	0x399ce45a	0.00029924774
64	0xb8bc4737	-8.9778034e-05
65	0xba3d5ff5	-0.00072240765
66	0x39a7e235	0.0003202126
67	0xb93ec506	-0.00018193209
68	0x39879366	0.00025859027
69	0xba069cd9	-0.00051350665
70	0xb5f0d400	-1.7943094e-06
71	0xb9fe92bc	-0.0004855598
72	0xba0bae89	-0.0005328437
73	0x3949034f	0.00019170086
74	0x38ac8c08	8.227682e-05
75	0xb9a75585	-0.0003191644
76	0x39a20582	0.00030903151
77	0x38a94039	8.0705104e-05
78	0xb83b65d6	-4.4679116e-05
79	0xb8234c2c	-3.893317e-05
80	0x38e712ea	0.000110184614
81	0x38441c38	4.6756322e-05
82	0xb962eee8	-0.00021642039
83	0xb9a7a2bd	-0.00031973972
84	0xb8452345	-4.7001307e-05
85	0x3687b418	4.044279e-06
86	0xb9752bb6	-0.00023381304
87	0xba1d04b1	-0.0005989774
88	0x390d8145	0.00013494965
89	0xb9ad9221	-0.00033106006
90	0x3942d440	0.00018580351
91	0xb9bda53a	-0.00036171993
92	0x3915b87a	0.0001427847
93	0x398e54be	0.00027147488
94	0x39a44a56	0.00031335902
95	0xb982a107	-0.00024915507
96	0x39138b33	0.00014070868
97	0x3a010354	0.00049214554
98	0x372c1640	1.0257179e-05
99	0xb88894b4	-6.5126835e-05
100	0x395f2faa	0.00021284694
101	0x385da06a	5.2839903e-05
102	0x393d8586	0.00018074186
103	0xb9425217	-0.00018531863
104	0xb723bae0	-9.759067e-06
105	0x3991fa91	0.00027843242
106	0x39086456	0.00013007349
107	0xb7b6062e	-2.1698968e-05
108	0xb8e7c182	-0.00011050982
109	0x39549396	0.00020272876
110	0x3902957b	0.00012453452
111	0x38938767	7.034727e-05
112	0x38aa1d0c	8.111642e-05
113	0x380c76ae	3.348913e-05
114	0xb8c28672	-9.275683e-05
115	0x3970d318	0.00022966822
116	0xb78b0906	-1.6574293e-05
117	0xba2a6aeb	-0.00065009174
118	0xb895a098	-7.1347866e-05
119	0xb85eef88	-5.3152005e-05
120	0x389ebbce	7.5690084e-05
121	0xba45dd65	-0.0007547944
122	0xb8472870	-4.7482958e-05
123	0x3989c87b	0.00026280046
124	0xba3556dc	-0.0006917545
125	0x39474bd9	0.00019006374
126	0xb95378a4	-0.0002016747
127	0xb93e7660	-0.0001816391

exp_avg_sq f4 [128]
0	0x3597acd7	1.130068e-06
1	0x36891259	4.085054e-06
2	0x35ae8d20	1.3005083e-06
3	0x34890c56	2.5527214e-07
4	0x354b8fa8	7.583244e-07
5	0x36705c8a	3.5816652e-06
6	0x33ad01f0	8.056293e-08
7	0x35dac6bc	1.6300105e-06
8	0x35154592	5.5608064e-07
9	0x34be852a	3.5487147e-07
10	0x35998e51	1.1440808e-06
11	0x356f0f01	8.905627e-07
12	0x35c3c736	1.458661e-06
13	0x355f7551	8.324469e-07
14	0x361e13ca	2.3555353e-06
15	0x352a2cc9	6.3395106e-07
16	0x3449ef50	1.8806645e-07
17	0x3522a722	6.0592913e-07
18	0x35d5e06c	1.5935052e-06
19	0x34f18237	4.4984492e-07
20	0x357b44b3	9.3604757e-07
21	0x36c04b29	5.7307957e-06
22	0x342da79b	1.6172855e-07
23	0x34cd32f0	3.8221287e-07
24	0x350a42d6	5.1506265e-07
25	0x34109eaf	1.3468774e-07
26	0x34f26833	4.5151828e-07
27	0x358e0002	1.0579827e-06
28	0x35aad988	1.2729297e-06
29	0x35152fa5	5.557616e-07
30	0x35536bd4	7.8760536e-07
31	0x3633c74b	2.6789082e-06
32	0x360b85cb	2.0790492e-06
33	0x35ef60ee	1.7835098e-06
34	0x35320efd	6.633198e-07
35	0x34b09e9a	3.2897952e-07
36	0x34a5a019	3.085013e-07
37	0x35db57ed	1.6342361e-06
38	0x359a4ee4	1.1496854e-06
39	0x3577386a	9.2096764e-07
40	0x360998d8	2.0503558e-06
41	0x35f8e190	1.8543087e-06
42	0x367f9251	3.8083128e-06
43	0x35c35148	1.4552288e-06
44	0x36223a84	2.4173942e-06
45	0x3603b93b	1.962834e-06
46	0x353dbf76	7.06866e-07
47	0x3499b935	2.8633227e-07
48	0x333bdb60	4.373885e-08
49	0x364eea6c	3.0832844e-06
50	0x34b23418	3.3192987e-07
51	0x345ed975	2.0754472e-07
52	0x352b6e80	6.386326e-07
53	0x341d32b0	1.4640204e-07
54	0x35d2464d	1.566668e-06
55	0x360c0732	2.0865814e-06
56	0x350e4830	5.300417e-07
57	0x3531be2b	6.621437e-07
58	0x36029828	1.9460076e-06
59	0x353aec68	6.9634416e-07
60	0x36848f2e	3.950575e-06
61	0x358544b9	9.929273e-07
62	0x35f2d419	1.8092134e-06
63	0x356adc4f	8.7492384e-07
64	0x35a68fd6	1.2409826e-06
65	0x35d31c54	1.572897e-06
66	0x3603a6a8	1.9617528e-06
67	0x35a5306e	1.2307553e-06
68	0x34bfaba0	3.5701396e-07
69	0x350ea9df	5.314632e-07
70	0x35adcd1c	1.2949199e-06
71	0x35673c06	8.614155e-07
72	0x35194249	5.70934e-07
73	0x361e8c44	2.362548e-06
74	0x34525a86	1.9590706e-07
75	0x36260ed6	2.4744563e-06
76	0x359e40ad	1.179074e-06
77	0x34499f45	1.8777526e-07
78	0x35a655d5	1.2392944e-06
79	0x34d0f200	3.8919097e-07
80	0x358a87df	1.0321345e-06
81	0x353875ea	6.871693e-07
82	0x3489fc96	2.570202e-07
83	0x34b72b6d	3.4118003e-07
84	0x3463256b	2.1154635e-07
85	0x35c4474c	1.4623888e-06
86	0x34acb7fb	3.217136e-07
87	0x35b40e5b	1.3415223e-06
88	0x35e3751f	1.6946905e-06
89	0x35ee6855	1.7762746e-06
90	0x34c776fb	3.7153208e-07
91	0x35c4bdfc	1.4658431e-06
92	0x34a37095	3.044303e-07
93	0x35671516	8.608489e-07
94	0x350b7a11	5.1959165e-07
95	0x361a8e06	2.3030457e-06
96	0x367def8d	3.7839375e-06
97	0x360c17b0	2.0875414e-06
98	0x357e7087	9.478612e-07
99	0x34d784ca	4.0143487e-07
100	0x34aad624	3.1820775e-07
101	0x351e5ea8	5.899733e-07
102	0x3464fd04	2.1326201e-07
103	0x35bb288e	1.3944389e-06
104	0x356491a5	8.514856e-07
105	0x35a85b4b	1.2543545e-06
106	0x3599686b	1.1429778e-06
107	0x354e2b45	7.6803946e-07
108	0x34b0781f	3.2869954e-07
109	0x34e36515	4.2355592e-07
110	0x34d8f33b	4.041011e-07
111	0x358afe2b	1.0355774e-06
112	0x3505846a	4.973905e-07
113	0x34be744a	3.547487e-07
114	0x348cff04	2.626258e-07
115	0x348971b5	2.560097e-07
116	0x353cf820	7.0396527e-07
117	0x36082b43	2.029076e-06
118	0x34854d75	2.4829538e-07
119	0x35f57898	1.828902e-06
120	0x35a2ed6a	1.2139037e-06
121	0x360d5f87	2.1066242e-06
122	0x33ec6727	1.100837e-07
123	0x355f515d	8.319237e-07
124	0x357890da	9.2597986e-07
125	0x357ccd63	9.417619e-07
126	0x353261b1	6.6452327e-07
127	0x354faedc	7.7367963e-07
