Config/results/test_v5/SecurityGuard/SecurityGuard-49996.onnx (onnx, 76496 bytes, 9 tensors)

network_body.observation_encoder.processors.0.normalizer.running_mean f4 [7]
0	0xbd181192	-0.03712613
1	0x00000000	0.0
2	0xbd24d376	-0.040240727
3	0x4081407f	4.039123
4	0x3c9057cf	0.017619995
5	0x00000000	0.0
6	0x3d19869a	0.03748188

network_body._body_endoder.seq_layers.0.weight f4 [128, 7]
0	0x3eb7ddcb	0.35911402
1	0xbcfab686	-0.030604612
2	0x3cfcaefd	0.03084516
3	0x3eda537b	0.42641816
4	0x3eeb295b	0.4592999
5	0xbde228c5	-0.110429324
6	0x3ed201ab	0.41016898
7	0xbf45affd	-0.7722166
8	0x3deee9e9	0.116657086
9	0xbe1f54b6	-0.15559658
10	0x3dd0a069	0.10186846
11	0x3f4bbd2c	0.7958553
12	0xbe9ff373	-0.31240425
13	0x3f2a653d	0.6656073
14	0x3f17ea49	0.59341866
15	0x3e07c1dd	0.13257547
16	0x3f07abed	0.5299671
17	0xbd71db28	-0.059046894
18	0xbef77bfe	-0.48336786
19	0x3f3d7d1d	0.7401903
20	0xbf35aef1	-0.70970064
21	0xbed109df	-0.40827844
22	0xbf301eed	-0.6879719
23	0xbe88a93a	-0.2669161
24	0xbe9478e0	-0.2899847
25	0x3dc9a94a	0.098467425
26	0x3e03fa1d	0.1288838
27	0xbe91993d	-0.28437224
28	0x3c871ad6	0.016492289
29	0x3c08ebf5	0.008357038
30	0xbe7da4c5	-0.24769886
31	0xbebfad12	-0.3743673
32	0xbe9d68a8	-0.3074391
33	0x3f2f145c	0.6839044
34	0xbf05e98d	-0.52309495
35	0xbf2f9130	-0.68580914
36	0x3e806de4	0.2508384
37	0xbf1fd576	-0.6243509
38	0xbee48b8c	-0.44637716
39	0xbc851176	-0.016243678
40	0x3d9c16c5	0.076215304
41	0xbee0585d	-0.43817416
42	0xbdb4df58	-0.08831662
43	0xbec1231f	-0.37722108
44	0xbdb0fc93	-0.08641925
45	0x3e9915a3	0.2989932
46	0x3e17ba5f	0.14817189
47	0xbdd24751	-0.10267509
48	0x3ebac4b2	0.36478192
49	0xbf7e11f4	-0.99246144
50	0xbc434544	-0.01191837
51	0xbef1afe9	-0.4720452
52	0x3e6066ee	0.21914265
53	0xbda85a6b	-0.08220371
54	0x3e8e6c53	0.2781702
55	0x3e6d0fbb	0.23150532
56	0x3e64e6d6	0.22353682
57	0xbf2ff267	-0.6872925
58	0x3e99af9d	0.30016795
59	0x3f294cc1	0.6613274
60	0xbef1d8a4	-0.47235596
61	0x3e872206	0.26393145
62	0x3d3eecf8	0.04661271
63	0xbe2f6ab8	-0.17130554
64	0x3ef022b6	0.46901482
65	0x3db24b93	0.08705821
66	0x3ef32420	0.474885
67	0x3e29b5f5	0.16573317
68	0x3e8e064b	0.27739176
69	0x3e8a1a25	0.26973072
70	0xbe3af2fc	-0.18256754
71	0x3e4a5ac1	0.19761182
72	0x3eaa200d	0.33227578
73	0x3e312159	0.17297877
74	0xbe2c3273	-0.1681612
75	0x3f1a3f99	0.6025329
76	0x3cb4aaaa	0.022054035
77	0x3ea10971	0.31452516
78	0xbf246e43	-0.64230746
79	0xbd753a74	-0.0598702
80	0xbe6115dc	-0.21980995
81	0x3f02c9ae	0.5108899
82	0xbe253819	-0.16134681
83	0x3e2ee071	0.17077805
84	0xbf2321a2	-0.63723195
85	0x3cbd873f	0.02313578
86	0x3e00327b	0.12519257
87	0x3f7912ba	0.972942
88	0x3e104fce	0.14092943
89	0x3eac2fbb	0.33630165
90	0xbe261dcc	-0.16222304
91	0xbeb2ed1d	-0.34946528
92	0x3eefbc31	0.46823266
93	0x3e821096	0.2540328
94	0x3e84cb20	0.25936222
95	0x3effb3bf	0.49941823
96	0x3f1258ce	0.57166755
97	0x3eb5222c	0.35377634
98	0x3f094129	0.5361505
99	0x3db7a645	0.0896726
100	0xbe835175	-0.25648084
101	0xbeaa2b8f	-0.33236358
102	0xbf2e8f1a	-0.68187106
103	0xbf274d9d	-0.65352803
104	0xbea6d592	-0.32584816
105	0x3e6fdeb1	0.23424794
106	0x3f0bc55a	0.5459801
107	0x3e5e9424	0.21736199
108	0xbd835fe9	-0.06414778
109	0xbefc9a72	-0.49336582
110	0x3deb4828	0.11488372
111	0x3d44c2ae	0.048037224
112	0xbea71869	-0.3263581
113	0x3ef57e65	0.47947994
114	0xbed6669f	-0.4187517
115	0x3b50d004	0.0031862268
116	0x3e6185ed	0.22023745
117	0xbe87520f	-0.26429793
118	0x3ede6d66	0.4344284
119	0xbeb200f0	-0.3476634
120	0xbf0af7ed	-0.54284555
121	0x3e8856a9	0.26628616
122	0xbe2bf66b	-0.1679322
123	0x3cd90ac1	0.026494386
124	0x3f000420	0.50006294
125	0x3e8f9a67	0.28047487
126	0x3ec79cd8	0.3898685
127	0x3ed5a1da	0.41725045
128	0xbca01a93	-0.019543922
129	0xbf0813a1	-0.5315495
130	0x3e025ed6	0.1273149
131	0x3eee4a3b	0.46541008
132	0xbc5036e8	-0.012708403
133	0xbf5ea2b4	-0.86967015
134	0x3eaff1c2	0.34364134
135	0xbed4ad2f	-0.4153838
136	0xbe1611a5	-0.14655168
137	0xbef08ad5	-0.4698092
138	0x3f2f0f6a	0.68382895
139	0xbe0a0e95	-0.13482125
140	0x3ed025ff	0.4065399
141	0x3e39ad7c	0.18132585
142	0xbf2f4a5d	-0.68472844
143	0xbf8bf894	-1.0935235
144	0xbe26f986	-0.16306123
145	0x3db01547	0.08597808
146	0xbdf4710b	-0.11935624
147	0xbf349797	-0.7054381
148	0x3f185c33	0.59515685
149	0x3f0c599f	0.5482425
150	0x3e70ead1	0.23527075
151	0x3eb02fdb	0.3441151
152	0xbdff4e18	-0.12466067
153	0x3e724049	0.23657335
154	0x3d1dea51	0.03855354
155	0xbab9f0eb	-0.0014186179
156	0xbeb0e91c	-0.34552848
157	0xbf261a94	-0.64884305
158	0xbd3e7375	-0.046496827
159	0xbe3f0422	-0.1865392
160	0xbca0b946	-0.019619595
161	0x3efb41eb	0.4907373
162	0xbe891633	-0.2677475
163	0x3f44cf80	0.7687912
164	0xba1b7af5	-0.0005931103
165	0x3d8f9b28	0.070120156
166	0xbd03c98f	-0.032174643
167	0x3f5a344a	0.85236037
168	0x3e18f0d5	0.1493562
169	0x3f114c58	0.56757116
170	0x3eba0bb2	0.36337048
171	0xbe875ae0	-0.2643652
172	0xbe08f5b6	-0.13374981
173	0xbf327787	-0.69713634
174	0xbf021935	-0.5081971
175	0xbd193aa2	-0.037409432
176	0x3f2f4a6f	0.6847295
177	0x3d8d8f6f	0.069121234
178	0x3f1e9551	0.6194659
179	0xbef1899d	-0.47175303
180	0xbe434b87	-0.1907178
181	0x3eee4808	0.4653933
182	0xbec07f4a	-0.37597114
183	0xbed60a12	-0.41804558
184	0x3f2781ef	0.6543264
185	0xbf084a1c	-0.5323808
186	0xbf4172e0	-0.7556591
187	0x3de70a15	0.1128122
188	0xbc81deb9	-0.015853273
189	0x3eefefe9	0.46862724
190	0xbf22a56c	-0.63533664
191	0xbf804a63	-1.0022701
192	0x3e3f2baa	0.18669
193	0x3ddc5724	0.10758808
194	0x3d8f7546	0.0700479
195	0x3f134eb5	0.5754197
196	0xbdfc6fb7	-0.123259954
197	0x3e31d933	0.17368011
198	0x3e59b399	0.21259917
199	0xbeb15bd9	-0.34640387
200	0xbdcab8d7	-0.09898537
201	0x3e10ec93	0.14152746
202	0x3d15f8d2	0.036614247
203	0x3eb5cbff	0.355072
204	0x3e753a3c	0.23947996
205	0x3eccb93f	0.39985082
206	0xbf15a6fc	-0.5845792
207	0xbef988c9	-0.4873717
208	0xbf0a59ab	-0.5404307
209	0xbe9cd936	-0.3063447
210	0xbec65750	-0.3873849
211	0x3dded2f5	0.108800806
212	0x3d1eb265	0.03874435
213	0x3e3c91bc	0.18414968
214	0xbf40e276	-0.7534555
215	0x3c436b13	0.011927384
216	0x3d75eee2	0.06004227
217	0x3cc5d780	0.02415061
218	0x3bd5f20a	0.0065290974
219	0xbeaa9148	-0.33313966
220	0xbe87c205	-0.26515213
221	0x3eda9995	0.426953
222	0x3e1d4823	0.15359549
223	0xbe778ab3	-0.24174003
224	0x3e59fc95	0.21287759
225	0x3e967e42	0.29393202
226	0xbe2d6bef	-0.16935705
227	0x3ec42117	0.38306496
228	0xbf5c20be	-0.8598746
229	0xbf2ad433	-0.6673004
230	0xbdb55874	-0.08854762
231	0xbd4f9aeb	-0.05068485
232	0x3eab6edb	0.33483014
233	0x3eac9974	0.33710825
234	0xbed3633f	-0.41286656
235	0x3e45a3dd	0.1930079
236	0x3b52e511	0.0032179991
237	0xbe7570d5	-0.23968823
238	0xbbadf7a8	-0.005309064
239	0x3f09a07f	0.5376052
240	0xbee11173	-0.43958625
241	0x3f1e62c2	0.6186944
242	0x3cfb8b25	0.030705998
243	0x3d20fbcc	0.039302632
244	0xbeac1c75	-0.3361546
245	0x3e1eb6d2	0.15499428
246	0xbea580d8	-0.32324862
247	0x3e8c66f3	0.27422294
248	0x3e876b82	0.2644921
249	0xbe18a932	-0.14908293
250	0x3e8bc82b	0.27301154
251	0xbe07427c	-0.13208956
252	0x3cf37489	0.029718654
253	0x3f340fd0	0.7033663
254	0xbf37b672	-0.71762764
255	0xbe5280eb	-0.20556991

network_body._body_endoder.seq_layers.0.bias f4 [128]
0	0xbc9d736e	-0.01922008
1	0x3c984ecf	0.018592266
2	0x39d0f251	0.0003985339
3	0x3cbb96ee	0.022899117
4	0x3cd63781	0.026149513
5	0x3d1f24fc	0.03885363
6	0xbbcd20a8	-0.0062599964
7	0x3d543ca9	0.051815663
8	0x3beaacd4	0.007161716
9	0xbd4bf880	-0.049797535
10	0xbc2b411d	-0.010452536
11	0xbd23871c	-0.039923772
12	0x3d8cfacd	0.06883774
13	0xbd750f03	-0.05982877
14	0x3c5db647	0.013532228
15	0xba11c276	-0.0005560288
16	0x3d108b15	0.03528889
17	0x3d01e4be	0.031712286
18	0x3ca9e150	0.02073732
19	0x3d715746	0.05892112
20	0x3b9ca98d	0.004780954
21	0x3d867dce	0.06566964
22	0x3c83a94e	0.016071942
23	0xbca6fd0d	-0.020384336
24	0x3c66f9b5	0.014097621
25	0xbc1a8327	-0.009430683
26	0x3b3e9436	0.002908004
27	0x3ce2d919	0.02769141
28	0x3cded6a2	0.027201954
29	0x3c3d96f1	0.011571632
30	0xbca654d8	-0.020304129
31	0x3ba98672	0.005173498
32	0x3d0ca9c6	0.034341596
33	0xbc24985f	-0.010046094
34	0x3c1ef07e	0.0097008925
35	0x3d1675e6	0.03673353
36	0xbca9363c	-0.020655744
37	0xbc855d4f	-0.016279845
38	0xbce6d24c	-0.02817645
39	0x3c5a1552	0.013310747
40	0xbc67c250	-0.014145449
41	0x3d367015	0.044540484
42	0xbc0e65d6	-0.008691272
43	0x3d8a2f0e	0.06747256
44	0xbcbdfb33	-0.02319107
45	0x3bb4c69c	0.00551684
46	0x3cf81724	0.030284472
47	0x3c08692c	0.008325856
48	0x3cf0cdc5	0.029394994
49	0x3c40cfe0	0.011768311
50	0xbc3ea215	-0.011635323
51	0x3d594c1e	0.053051107
52	0x3bcc4f44	0.006235035
53	0xbcb0490a	-0.021519203
54	0x3cb5e2f3	0.022202944
55	0x3cc9f3a7	0.024652315
56	0x3b972d67	0.0046135667
57	0xbd190de8	-0.037366778
58	0x3d23da74	0.040003255
59	0x3d258194	0.04040678
60	0x3d163fa6	0.036681794
61	0x3b721e37	0.003694428
62	0x3c89f181	0.01683879
63	0x3c9ae1b1	0.018906446
64	0xbcef2647	-0.029193057
65	0x3d4adf42	0.04952932
66	0x3c04d85c	0.008108225
67	0xbc094da0	-0.008380324
68	0x3cb25361	0.021768274
69	0x3aa9eb87	0.0012963869
70	0xbd15f1ed	-0.03660767
71	0x3d1c5b8a	0.038173236
72	0x3d83ef23	0.06442096
73	0xba708067	-0.0009174407
74	0x3ccc18d2	0.024914179
75	0x3cdb6488	0.026781335
76	0x3c75f868	0.015012838
77	0x3c40e335	0.01177292
78	0xbd853bdf	-0.0650556
79	0x3cfaed4c	0.03063073
80	0xbb4d2cac	-0.0031307144
81	0x3ce74613	0.028231656
82	0x3ca8fbf5	0.020627955
83	0x3d15ca90	0.03657013
84	0xbb543efe	-0.003238618
85	0xbc404244	-0.011734549
86	0x3ca1707b	0.019706955
87	0xbb394556	-0.0028270087
88	0x3b294f95	0.0025834788
89	0x3cfd3585	0.03090931
90	0x3d46bb23	0.04851831
91	0x3c660176	0.014038434
92	0x3c0d96a4	0.008641873
93	0x3d28ad5a	0.041180946
94	0x3d13f2d6	0.03612026
95	0x3cf6413a	0.0300604
96	0x3cff2e6d	0.031150067
97	0x3d1882fa	0.037234284
98	0x3ca49683	0.0200913
99	0x3ca76017	0.020431561
100	0xbcc21627	-0.023692204
101	0xbc7a6a18	-0.015284084
102	0x3baaad1f	0.005208626
103	0xbd2879e4	-0.04113187
104	0x3d1c6838	0.03818533
105	0x3c6c9398	0.014439486
106	0x3d4574f9	0.048207257
107	0xbafd5adc	-0.0019329446
108	0xbd2a6c1b	-0.041607004
109	0x3d304a76	0.04303976
110	0xbacfee39	-0.0015863843
111	0x3ce20b87	0.027593387
112	0xbcebf1b1	-0.02880177
113	0xbcba1df8	-0.022719368
114	0xbc0f308a	-0.0087396
115	0xbd47fd6e	-0.048825674
116	0xbd17e4b3	-0.03708334
117	0x3d4892eb	0.048968237
118	0xbd133278	-0.035936803
119	0x3cab287b	0.020893326
120	0x3cf39119	0.029732274
121	0x3c9b279d	0.018939788
122	0x3c3bfc9c	0.011473801
123	0xbca7e901	-0.020496847
124	0x3d4abff6	0.049499474
125	0xbb635e4a	-0.0034693652
126	0xbd3870e8	-0.04502955
127	0x3c0bf17d	0.008541462

network_body._body_endoder.seq_layers.2.weight f4 [128, 128]
0	0x3df6a231	0.12042654
1	0x3dc71983	0.09721663
2	0x3c3355b5	0.010945727
3	0x3e511918	0.20419729
4	0xbdb1d8c2	-0.086839214
5	0x3e6877b0	0.22701907
6	0xbcfb57c9	-0.030681508
7	0xbdc64d5d	-0.096827246
8	0x3e2027a9	0.15640129
9	0xbe1062e8	-0.1410023
10	0x3ca9d595	0.020731727
11	0x3d422cbb	0.04740594
12	0x3d45fbc5	0.04833581
13	0x3c9804fa	0.01855706
14	0x3d34154c	0.043965623
15	0x3c94ca7e	0.018162962
16	0xbd2f7c54	-0.042843178
17	0x3df79201	0.12088395
18	0xbe672f66	-0.22576675
19	0xbdb67066	-0.08908157
20	0x3e32f938	0.17477882
21	0x3cddd1cd	0.02707758
22	0xbe4529b0	-0.19254184
23	0xbe54d846	-0.20785627
24	0x3d69f6ae	0.057120018
25	0x3de3d445	0.111244716
26	0x3c2344ce	0.009965135
27	0x3db47d09	0.08812911
28	0x3d84de9c	0.06487772
29	0xbdf0228f	-0.117253415
30	0x3db2abb6	0.087241575
31	0x3c269205	0.01016665
32	0xbdf047d6	-0.117324516
33	0xbd280114	-0.041016653
34	0xbc90dbd1	-0.017682942
35	0x3d0aa83e	0.033851855
36	0x3d388510	0.045048773
37	0x3da390f6	0.079866335
38	0xbd3df346	-0.04637458
39	0xbc26ea9f	-0.010187774
40	0x3bc86679	0.0061157313
41	0xbd99ebf0	-0.07515705
42	0x3d5111ba	0.051042296
43	0xbe22e13c	-0.15906233
44	0xbc8e73df	-0.017389236
45	0x3c6664e0	0.014062136
46	0xbd4e9b4e	-0.05044108
47	0xbcf4a728	-0.029864863
48	0x3df957b1	0.12174929
49	0x3e2e1ff4	0.17004377
50	0x3c66ebf4	0.014094342
51	0x3d7af595	0.06126936
52	0x399c5f17	0.00029825486
53	0x3e2698ef	0.16269277
54	0xbdd3cf60	-0.10342288
55	0xbcca9136	-0.024727445
56	0xbd113b89	-0.035457168
57	0xbc7cbc96	-0.015425822
58	0xbd238f01	-0.0399313
59	0xbd98bfa8	-0.074584305
60	0xbd189e3f	-0.03726029
61	0x3e28b641	0.16475774
62	0xbd04b23f	-0.03239655
63	0xbcd7b195	-0.026329795
64	0xbde830ba	-0.11337419
65	0xbda69ba7	-0.08135157
66	0xbc732fc5	-0.014842932
67	0x3d33e95a	0.043923713
68	0xbdd9a32c	-0.10626826
69	0xbd71aadf	-0.059000846
70	0xbd857f63	-0.06518438
71	0x3ce9a62b	0.028521618
72	0xbc3fdb88	-0.011710055
73	0x3d48d109	0.049027476
74	0xbd9d2b30	-0.07674253
75	0x3c206c88	0.009791501
76	0x3d4e3b6f	0.05034965
77	0xbc9b9b05	-0.018994818
78	0xbc049525	-0.008092199
79	0x3d9d9f5b	0.0769641
80	0xbe0dbc5e	-0.13841388
81	0x3e06b233	0.13153915
82	0x3b900dfd	0.004396199
83	0x3e3feb22	0.1874204
84	0xbd0af8ff	-0.033928867
85	0xbca5c425	-0.02023513
86	0xbd844b93	-0.06459727
87	0xbd9281fd	-0.071536995
88	0xbc8b3722	-0.016994063
89	0xbe398229	-0.18116058
90	0x3d9483de	0.07251714
91	0x3cad1d79	0.021132218
92	0x3e0cbcb1	0.13743855
93	0x3d79d79c	0.060996637
94	0x3d2a0a7e	0.041513912
95	0xbe053b9f	-0.13011025
96	0xbc661dd4	-0.0140451975
97	0x3d93dcc2	0.072198406
98	0x3b90401b	0.004402173
99	0x3dff2a6d	0.12459264
100	0xbe01ebe4	-0.12687641
101	0xbd9a3138	-0.07528919
102	0xbcf11321	-0.029428067
103	0x3cb9089d	0.022587115
104	0xbe4dee3a	-0.20110407
105	0xbd427721	-0.04747689
106	0x3d1b492f	0.03791159
107	0x3e57ab4e	0.21061441
108	0xbdaf0261	-0.085453756
109	0xbe294ce1	-0.16533233
110	0xbadaee03	-0.0016703013
111	0x3bbb3393	0.0057129352
112	0xbc3f5c10	-0.011679664
113	0xbda82df7	-0.08211892
114	0xbd861256	-0.06546466
115	0x3cc08455	0.0235006
116	0x3c82f6e3	0.015986865
117	0xbc4b7c41	-0.012419761
118	0x3d1d84a9	0.038456593
119	0x3d63d26e	0.055620603
120	0x3cb85c69	0.022505002
121	0x3b88b3d8	0.0041718297
122	0xbdf86422	-0.12128474
123	0x3e4f118d	0.20221539
124	0x3d691d9f	0.056913015
125	0x3e8680ab	0.2627004
126	0x3ce22a83	0.027608162
127	0x3dfd8c1e	0.12380241
128	0x3cca4ca4	0.024694748
129	0xbdac7dd2	-0.08422436
130	0xbe421544	-0.18953425
131	0xbcd1ba33	-0.025601482
132	0x3e2a7f47	0.16650115
133	0x3dca9552	0.09891762
134	0xbdae5136	-0.085115835
135	0x3d828ed7	0.06374901
136	0x3d609ead	0.054838825
137	0xbb991608	-0.004671816
138	0xbd5f096d	-0.05445235
139	0xbd5995de	-0.05312144
140	0xbda447cf	-0.08021509
141	0xbd85b55e	-0.06528734
142	0x3d917e92	0.071042195
143	0xbcf50f38	-0.029914483
144	0xbd90c679	-0.07069106
145	0x3c118bd5	0.008883436
146	0x3d25e200	0.040498734
147	0xbddaf854	-0.10691896
148	0xbe045d17	-0.12926136
149	0xbdfdd99a	-0.1239502
150	0xbd91a413	-0.07111373
151	0xbe2ce58f	-0.16884445
152	0xbe1c84c8	-0.15285027
153	0xbd88adea	-0.066737965
154	0xbd9b3cea	-0.07579978
155	0x3de73086	0.11288552
156	0x3d9fa926	0.077959344
157	0xbda03d30	-0.078241706
158	0xbd8262cb	-0.063664995
159	0x3c39b2df	0.01133415
160	0xbd8d04ca	-0.06885679
161	0xbe3b6a47	-0.1830226
162	0xbe4511ea	-0.19245115
163	0xbdb6aa51	-0.08919204
164	0x3d9833f5	0.07431785
165	0x3e83b722	0.25725657
166	0xbd59034e	-0.052981667
167	0xbc46ed31	-0.012141512
168	0x3daf928c	0.085728735
169	0xbdeda291	-0.11603273
170	0x3dd2f882	0.10301305
171	0xbe2ce15a	-0.1688284
172	0x3deba66b	0.11506351
173	0x3ce4cb45	0.027928958
174	0xbd647dbf	-0.055783983
175	0x3c6c5516	0.014424583
176	0xbcb309e6	-0.021855306
177	0xbdd1867c	-0.10230729
178	0x3dd09fcd	0.101867296
179	0xbd30d78f	-0.043174323
180	0x3d85d0be	0.06533955
181	0x3c9a21cb	0.018814942
182	0x3d51d1fb	0.051225644
183	0xbda7aed5	-0.081876434
184	0xbc80313a	-0.015648473
185	0x3d54d122	0.051957257
186	0xbe20e31f	-0.1571164
187	0xbe6746eb	-0.22585647
188	0xbd4228c9	-0.047402177
189	0x3d271f25	0.040801186
190	0xbd82f7f3	-0.06394949
191	0x3d3fe42a	0.046848454
192	0x3cab9c3f	0.020948527
193	0x3dbf5103	0.09341624
194	0x3c644406	0.013932234
195	0xbd45417d	-0.048158158
196	0x3cf504b4	0.02990947
197	0xbe31c9d7	-0.17362152
198	0xbddd24f1	-0.10798062
199	0xbda1fcc9	-0.07909543
200	0xbd6ed5d1	-0.05830938
201	0x3d0352bd	0.032061327
202	0x3d1be10d	0.038056422
203	0x3dd3eadb	0.103475295
204	0xbdbf168c	-0.09330472
205	0x3d5499ac	0.051904365
206	0x3d90bc68	0.07067186
207	0xbc90f3fd	-0.017694468
208	0x3de71c6c	0.11284718
209	0xbe0273fb	-0.12739556
210	0x3e805add	0.25069323
211	0xbdcb1ee0	-0.09917998
212	0xbde3b25d	-0.111180045
213	0xbd9c6af3	-0.076375864
214	0xbe0087e2	-0.12551835
215	0xbdbe7624	-0.09299877
216	0x3d52dfba	0.051482894
217	0x3d59254e	0.053014092
218	0xbda30eb2	-0.07961787
219	0x3d7c1006	0.06153872
220	0x3d8e5099	0.069489665
221	0x3d4586e1	0.048224334
222	0x3c806910	0.015675098
223	0x3e18a175	0.14905341
224	0x3da1a596	0.07892911
225	0x3c9f20f8	0.0194249
226	0xbe08fb16	-0.13377032
227	0xbd297353	-0.041369747
228	0xbdf2c15f	-0.11853289
229	0xbd3625d2	-0.044469662
230	0xbe3f1126	-0.18658885
231	0xbd8689d3	-0.06569257
232	0xbd9d7a27	-0.07689314
233	0xbe0ab709	-0.13546385
234	0x3c4c418e	0.012466801
235	0x3ddf270b	0.10896119
236	0xbd7830a4	-0.060593262
237	0x3d13138c	0.035907313
238	0x3d97f43a	0.074196294
239	0x3c7cba64	0.015425298
240	0xbda1583f	-0.0787816
241	0x393e0c05	0.0001812429
242	0x3cbea7d6	0.02327339
243	0x3da606aa	0.0810674
244	0x3d531ee1	0.05154312
245	0x3e6aaed2	0.22918251
246	0xbb155471	-0.0022785927
247	0x3d89432e	0.06702267
248	0xbdf6ee35	-0.12057153
249	0xbbd0baee	-0.00636994
250	0x3e3e453b	0.18581097
251	0x3cf20b20	0.02954632
252	0x3da21751	0.079146035
253	0x3db49d66	0.08819084
254	0xbda958c7	-0.08268886
255	0x3e1d4ef3	0.15362148

network_body._body_endoder.seq_layers.2.bias f4 [128]
0	0xbce51337	-0.027963264
1	0x3c88b4f4	0.016687848
2	0x3cd64c89	0.026159542
3	0x3d3ce3aa	0.046115555
4	0x3ca9ecb8	0.02074276
5	0x3c344db8	0.011004858
6	0xbc608434	-0.013703395
7	0xb86e9769	-5.6884634e-05
8	0x3c6ca91c	0.014444616
9	0x3cc2f6a6	0.023799252
10	0xbc1ea074	-0.00968181
11	0x3ca61a15	0.020276109
12	0x3cc9e7cb	0.02464666
13	0xbc697850	-0.014249876
14	0x3d7965f7	0.060888257
15	0xbc050b01	-0.008120299
16	0x3c46a15e	0.012123434
17	0xbc2e2baa	-0.0106305275
18	0x3c192697	0.009347579
19	0x3d2e3623	0.042532098
20	0x3b329207	0.0027247684
21	0x3bbf0dd2	0.005830505
22	0x3cf83a58	0.030301258
23	0x3bcb273d	0.006199746
24	0x3c8ece12	0.017432246
25	0x3c753a6a	0.01496754
26	0x3b90d3ef	0.0044197957
27	0x3a458027	0.000753405
28	0x3d13c0a8	0.036072403
29	0xbbb64caa	-0.0055633383
30	0x3c1ed4be	0.009694276
31	0x3c430873	0.01190387
32	0x3d59b176	0.053147756
33	0x3ad791af	0.0016446615
34	0x3b948190	0.0045320466
35	0x3c590196	0.013245007
36	0x3d01968d	0.031637717
37	0x3cf1a239	0.0294963
38	0x3d4b31ee	0.049608164
39	0xbc2ef86e	-0.010679347
40	0xbb89ac8d	-0.004201478
41	0xbc840729	-0.016116695
42	0x3cf153ce	0.029458907
43	0xbc280440	-0.0102549195
44	0x3cb43d66	0.022001933
45	0x3c857a07	0.016293539
46	0x3d289676	0.041159116
47	0xbc3bd4df	-0.011464327
48	0x3d050086	0.032471202
49	0xbd002295	-0.03128298
50	0x3d252f73	0.040328454
51	0x3cf533a6	0.029931854
52	0x3b3c323f	0.0028716472
53	0x3cd52d65	0.026022622
54	0x3d0ff8b3	0.035149287
55	0xbcc37aca	-0.023862261
56	0xbc0fe3b7	-0.008782319
57	0xbc5096ab	-0.012731235
58	0x3cfbd66b	0.03074189
59	0x3bde2347	0.0067791077
60	0x3b64069b	0.0034793976
61	0x3cc1f39c	0.023675732
62	0x3d15515c	0.036454543
63	0x3d2e7554	0.04259236
64	0xb9869b28	-0.00025674072
65	0x3d1d124a	0.03834752
66	0xbc2a1259	-0.010380351
67	0xbcb6bc23	-0.022306507
68	0x3c03d66e	0.0080467295
69	0x3c1b00f2	0.009460675
70	0x3d58a1db	0.052888732
71	0xbca663b1	-0.020311208
72	0xbcd6975c	-0.02619522
73	0x3ce1bed6	0.027556818
74	0x3cf265e5	0.029589603
75	0x3d2aa365	0.04165973
76	0x3bd93f28	0.0066298433
77	0x3cae3515	0.021265546
78	0x3c660014	0.014038105
79	0xbd0c035a	-0.034182884
80	0x3c23bc3f	0.009993612
81	0x3c486d09	0.012233027
82	0x3cca6ccc	0.024710082
83	0xba7e0337	-0.000968981
84	0xbce3fe86	-0.027831327
85	0x3d09fbfe	0.033687584
86	0x3cc3ea50	0.02391544
87	0x3c982398	0.01857166
88	0xbb8381d7	-0.004013281
89	0x3d4a451b	0.04938231
90	0x3c55206b	0.013008217
91	0x3ccf9d7e	0.025343653
92	0x3c065b67	0.008200503
93	0x3d4ad66c	0.049520895
94	0x3abbab0d	0.0014317945
95	0x3ce7c083	0.028290039
96	0x3b0a3aa5	0.0021092084
97	0x3be86929	0.007092614
98	0x3c58d8b7	0.013235263
99	0x3c0c3dc3	0.008559647
100	0x3d278a8c	0.040903613
101	0xbb8a2302	-0.004215599
102	0x3d177514	0.03697689
103	0x3c60b94e	0.013716055
104	0x3b71228b	0.003679427
105	0x3c2755d4	0.010213334
106	0x3c5f8aa3	0.013643893
107	0xbb9e35b8	-0.004828181
108	0x3ba998e4	0.0051756967
109	0x3ca51dac	0.02015575
110	0x3d64c832	0.055854984
111	0x3d5d8b44	0.054087892
112	0x3cc10473	0.023561692
113	0x3c5460d9	0.012962543
114	0x3ca3a73d	0.019977206
115	0x3d1542d4	0.036440685
116	0x3c63ac3e	0.013896046
117	0xbb9f9086	-0.0048695235
118	0xbb35c4ad	-0.0027735636
119	0x3d31e3f5	0.043430287
120	0xba885d5f	-0.0010403803
121	0x3ca712ed	0.020394767
122	0x3cd30b23	0.025762146
123	0x3d14653f	0.03622937
124	0x3d66d1fe	0.056352608
125	0x3bd1047b	0.006378708
126	0x3c867491	0.016413005
127	0x3ce9ff55	0.028564135

action_model._continuous_distribution.log_sigma f4 [1, 2]
0	0xbdb83647	-0.089947276
1	0xbd8df536	-0.06931536

action_model._continuous_distribution.mu.weight f4 [2, 128]
0	0x3a9e6f84	0.0012087678
1	0x3ccbf34c	0.024896286
2	0x3dd41102	0.103548065
3	0xbd2c7da4	-0.042112008
4	0xbc993e66	-0.018706512
5	0x3da76320	0.081732035
6	0x3d25fe77	0.04052588
7	0x3c238243	0.009979787
8	0x3da0f1c6	0.078586146
9	0x3ce685e5	0.028140018
10	0xbc52a92e	-0.012857718
11	0x3bb4fe6d	0.005523494
12	0xbd4ae8d6	-0.049538456
13	0x3ce7770f	0.028255014
14	0xbd510552	-0.051030464
15	0x3c884696	0.01663522
16	0x3d903464	0.07041243
17	0xb88b6a25	-6.6478075e-05
18	0x3adc723a	0.001681871
19	0xbd856507	-0.0651341
20	0x3d2c8635	0.042120177
21	0x3d80312c	0.06259379
22	0x3d5d90a0	0.054093003
23	0x3d4603a5	0.04834332
24	0xbc83b274	-0.016076304
25	0x3cd5a6bf	0.026080487
26	0x3d99b549	0.075052805
27	0x3d02025c	0.03174053
28	0xbd781fda	-0.06057725
29	0x3ca30040	0.01989758
30	0x3b999122	0.0046864906
31	0xbc82b174	-0.015953757
32	0xbdba78ca	-0.0910507
33	0x3cb8a101	0.02253771
34	0xbcb6e31c	-0.022325091
35	0x3daf4948	0.08558899
36	0xbc9403a8	-0.01806815
37	0xbd7c1520	-0.061543584
38	0xbd8e2f0b	-0.069425665
39	0x3ccc3cd1	0.024931343
40	0x3cddfdfe	0.027098652
41	0x3cf6b99c	0.030117802
42	0xbd10ec2f	-0.035381492
43	0xbc00935f	-0.007847636
44	0x3ce46807	0.027881635
45	0xbcbd1dd2	-0.023085508
46	0xbda53043	-0.08065846
47	0x3d000729	0.03125683
48	0xbd82956c	-0.06376156
49	0x3b1c25a5	0.0023826149
50	0xbd1e1122	-0.038590558
51	0xbd4687f2	-0.04846949
52	0x3c85c736	0.016330343
53	0x3a9ce278	0.0011969348
54	0xbd827670	-0.063702464
55	0x3c8d1a5b	0.017224481
56	0x3c53068c	0.012879979
57	0x3dae3b38	0.08507389
58	0xbd8a021c	-0.067386836
59	0x3d461937	0.04836389
60	0x3cac9e99	0.021071719
61	0x3def262b	0.11677202
62	0xbd36ee2a	-0.044660725
63	0xbd468eef	-0.048476156
64	0xbc069398	-0.0082139
65	0xbd1c65f3	-0.038183164
66	0xbc0634b3	-0.008191275
67	0x3bd50762	0.0065011242
68	0x3da30218	0.07959384
69	0x3d39ae80	0.04533243
70	0x3c5de2d8	0.013542853
71	0x3c606103	0.013695004
72	0x3d123a64	0.035700217
73	0xbd0955ec	-0.033529207
74	0xbd0c5f3b	-0.034270506
75	0xbde18590	-0.11011803
76	0x3da1c1ec	0.07898316
77	0x3b5fac1a	0.003412968
78	0x3d761fbf	0.06008887
79	0xbbb13d90	-0.00540895
80	0x3d9e95f1	0.07743443
81	0x3d4353c7	0.04768732
82	0x3c0250dc	0.007953849
83	0x3d902847	0.07038932
84	0x3c56138d	0.013066185
85	0xbda399e8	-0.0798834
86	0xbd08d796	-0.033408724
87	0xbd4f6c39	-0.05064032
88	0x3d5855c9	0.052816186
89	0xbdbb63ab	-0.091498695
90	0xbc8a08b8	-0.01684986
91	0x3d8fcafd	0.07021139
92	0x3d81db5c	0.063406676
93	0xbd584641	-0.052801374
94	0xbbffaf58	-0.007802885
95	0x3c4068fe	0.011743782
96	0xbcae0262	-0.02124137
97	0x3c7ad6d2	0.015310006
98	0x3d360441	0.04443765
99	0x3d761196	0.060075365
100	0xbda06795	-0.07832257
101	0x3d29c235	0.041444976
102	0xbc8ba484	-0.01704622
103	0x3bb796e6	0.0056027053
104	0x3d359c04	0.04433824
105	0xbc30fbdb	-0.0108022345
106	0x3dcc2ec7	0.099698596
107	0x3d06e5fb	0.03293417
108	0xbc65d640	-0.014028132
109	0x3d203531	0.039113227
110	0xbd33124c	-0.04371862
111	0xbd9b5fe9	-0.07586653
112	0xbd224fc0	-0.039626837
113	0x3d4f4c94	0.05061014
114	0xbca6646c	-0.020311557
115	0xbd5be813	-0.05368812
116	0x3d93e8f2	0.07222165
117	0x3d901c3d	0.07036636
118	0x3d457bfe	0.04821395
119	0xbd2ce53c	-0.042210802
120	0x3d47cad2	0.04877741
121	0xbdb0971e	-0.08622573
122	0xbd3a1694	-0.04543169
123	0xbd6cbedd	-0.05779921
124	0xbce41232	-0.027840707
125	0x3c52eebe	0.012874303
126	0xbc871803	-0.016490942
127	0x3daecdcb	0.08535346
128	0x3a66d65f	0.00088057475
129	0xbd726c9c	-0.05918561
130	0x3c6efd35	0.014586736
131	0xbd16afd2	-0.03678877
132	0xbccbdd8a	-0.024885911
133	0xbc5ddf88	-0.0135420635
134	0x3ce9de66	0.02854843
135	0x3ce941ff	0.028473852
136	0x3cf9bb01	0.030484678
137	0xbd4ea198	-0.050447077
138	0x3d1462d9	0.03622708
139	0xbda80b62	-0.08205296
140	0x3d71d019	0.059036348
141	0x3d1b3f8f	0.03790241
142	0x3d5e8caf	0.054333385
143	0x3c2ce996	0.010553738
144	0xbc5d753a	-0.0135167185
145	0xbb0fdb86	-0.0021950915
146	0xbcfd6fff	-0.030937193
147	0x39a4239b	0.00031307046
148	0xbcb919e7	-0.022595359
149	0xbd510bb9	-0.05103657
150	0xbd928f9c	-0.071562976
151	0xbca06545	-0.01957954
152	0x3da1a5d3	0.078929566
153	0xbd86a6b2	-0.06574763
154	0x3c429457	0.011876187
155	0x3c4ecafa	0.012621636
156	0xbca626f1	-0.02028224
157	0xbc9006da	-0.017581392
158	0x3d94de4c	0.07268962
159	0x3d63176a	0.05544225
160	0x3d23c060	0.039978385
161	0x3d23c339	0.0399811
162	0x3a6fcfaf	0.0009148074
163	0x3c158595	0.009126087
164	0x3daff3bd	0.08591411
165	0xbc6a3d5f	-0.014296859
166	0x3c166568	0.009179451
167	0xbb14a49a	-0.0022681118
168	0xbcdca6c2	-0.026934985
169	0x3cb898a1	0.022533717
170	0xbcf771a1	-0.03020555
171	0xbcb8fcfc	-0.02258157
172	0x3d893a65	0.06700591
173	0x3d1d47b6	0.038398467
174	0x3cbe2a84	0.023213632
175	0x3d568a03	0.052377712
176	0xbcd97748	-0.026546136
177	0x3b62c694	0.0034603225
178	0xbd86af0d	-0.06576357
179	0x3ce9dee8	0.028548673
180	0x3c9d80fa	0.01922654
181	0xbd220bec	-0.03956215
182	0x3bf3893b	0.0074321306
183	0x3cdadc77	0.026716454
184	0xbb8ca4b5	-0.0042920955
185	0x3d04e667	0.03244629
186	0xbc8a732e	-0.016900625
187	0xbd083182	-0.03325034
188	0xbd12b55d	-0.035817493
189	0x3a33eb31	0.00068633544
190	0xbd55eb2f	-0.05222624
191	0xbd24c122	-0.04022325
192	0x3cacd814	0.021099128
193	0xbd739b09	-0.059474025
194	0x3ca86401	0.020555498
195	0xb8ab76d0	-8.176046e-05
196	0xbcdafe55	-0.026732603
197	0xbbe78c57	-0.0070662904
198	0x3de15e15	0.11004273
199	0xbbb3727b	-0.0054762936
200	0x3a2bd88b	0.00065554
201	0xbd22506a	-0.03962747
202	0x3c4dcf81	0.01256168
203	0xbc67fe41	-0.01415974
204	0x3ce450de	0.027870592
205	0xbd375418	-0.044757932
206	0x3d4d537c	0.050128445
207	0x3cf3f97a	0.029782046
208	0xbc448381	-0.011994244
209	0xbce1dcde	-0.027571138
210	0xbd46b2f5	-0.04851051
211	0x3d0d1b2e	0.03444975
212	0x3c4fbc1b	0.012679125
213	0xbd190cac	-0.0373656
214	0x3d1f7567	0.038930323
215	0x3c042d30	0.008067414
216	0x3ab1d94c	0.0013568788
217	0x3a8aeb0a	0.0010598612
218	0xbd15d18a	-0.036576785
219	0xbd7e8f88	-0.0621486
220	0x3c911cb9	0.017713891
221	0xbccea964	-0.025227256
222	0x3c4ea13f	0.012611686
223	0x3d71a5bf	0.05899596
224	0x3d1832f8	0.037157983
225	0x3d758d5a	0.059949256
226	0xbce38d01	-0.027777197
227	0xbc8ae0dd	-0.016952926
228	0x3c83ce93	0.016089713
229	0xbb9d21c6	-0.004795286
230	0xbd9053cc	-0.07047233
231	0xbd846be3	-0.0646589
232	0x3cf97f3d	0.03045618
233	0x3cdbc8f7	0.026829226
234	0x3cb8d7b0	0.022563785
235	0xbcdabd64	-0.026701637
236	0x3d14ac0f	0.0362969
237	0x3d482291	0.04886109
238	0x3dc24d3d	0.09487388
239	0x3c2d3ed5	0.010574062
240	0x3daa719e	0.08322452
241	0x3d5aa7bd	0.053382624
242	0x3daecb50	0.085348725
243	0xbd8f8db0	-0.070094466
244	0xbcafbccc	-0.02145233
245	0xbbe61ec1	-0.007022709
246	0xba94fc1c	-0.0011366638
247	0xbd87df12	-0.06634344
248	0xbb8f7662	-0.004378126
249	0x3d11a22b	0.035555046
250	0xbc711fdf	-0.014717071
251	0x3d744bef	0.05964273
252	0x3d70f1f9	0.058824513
253	0xbd007669	-0.031362925
254	0x3d874471	0.06604851
255	0xbcfc09f6	-0.030766468

action_model._continuous_distribution.mu.bias f4 [2]
0	0xbc91eee3	-0.017814105
1	0xbc30b883	-0.0107861785

onnx::Div_51 f4 [7]
0	0x3f3413cb	0.703427
1	0x3b928c1f	0.00447227
2	0x3f356b66	0.70867
3	0x3ff142ce	1.8848512
4	0x3feebc50	1.8651218
5	0x3b928c1f	0.00447227
6	0x400b7d6e	2.1795306
