Config/results/test_v2/SecurityGuard/checkpoint.pt (torch, 447458 bytes, 44 tensors)

network_body.observation_encoder.processors.0.normalizer.running_mean f4 [7]
-0.30932248 0.0 0.04174568 9.2978325 0.0045120623 0.0 -0.00023028455
00000000: 845f 9ebe 0000 0000 85fd 2a3d ecc3 1441
00000010: ecd9 933b 0000 0000 8a78 71b9

network_body.observation_encoder.processors.0.normalizer.running_variance f4 [7]
15910.724 1.0 3622.9482 166480.28 8005.776 1.0 9531.047
00000000: e59a 7846 0000 803f 2c6f 6245 1294 2248
00000010: 352e fa45 0000 803f 30ec 1446

network_body.processors.0.normalizer.running_mean f4 [7]
-0.30932248 0.0 0.04174568 9.2978325 0.0045120623 0.0 -0.00023028455
00000000: 845f 9ebe 0000 0000 85fd 2a3d ecc3 1441
00000010: ecd9 933b 0000 0000 8a78 71b9

network_body.processors.0.normalizer.running_variance f4 [7]
15910.724 1.0 3622.9482 166480.28 8005.776 1.0 9531.047
00000000: e59a 7846 0000 803f 2c6f 6245 1294 2248
00000010: 352e fa45 0000 803f 30ec 1446

network_body._body_endoder.seq_layers.0.weight f4 [128, 7]
0.40820307 -0.16535683 -0.50452965 0.29440472 0.27890518 0.0754501 0.25341892 0.11089907
-0.15225156 0.1436679 -0.1241311 0.069696225 0.34764802 -0.1751177 -0.24440406 0.12977175
-0.084809616 -0.3883039 0.2802864 -0.30605787 -0.33808237 -0.4120784 0.4676784 0.4165774
0.4882441 -0.26056114 -0.013099143 -0.049890507 -0.41596597 -0.13694884 -0.24931636 0.12978989
-0.17455003 -0.48475286 -0.2506745 -0.29935718 -0.43018404 0.33091745 -0.20887776 0.2630894
-0.9056665 -0.59354466 0.31781927 0.061780732 0.011452285 0.0048542214 -0.084467225 -0.03387724
-0.2978768 -0.011675153 0.119032495 -0.50271606 0.09158751 -0.4007982 -0.31960183 0.20104364
0.18768342 -0.08774639 -0.9791396 -0.09658785 0.030616034 -0.095307626 0.57035226 0.58016515
0.5888927 0.1286517 0.45087346 0.25344104 -0.70843005 0.10032808 0.419493 -0.19163421
-0.5232668 -0.019009482 -0.846282 -0.26633716 0.039906688 0.20907754 0.24189971 -0.22737102
-0.3140617 -0.4803686 -0.7373896 0.48058936 -0.14600629 0.15530297 0.36124325 -0.010811786
0.6222037 -0.4702418 0.098453246 0.02973853 -0.26115903 0.37703818 0.23640549 0.1286434
-0.5935426 -0.08480646 -0.09658481 0.25566456 0.14711569 0.7412274 0.34201983 -0.14188176
0.90269065 0.1430055 0.28107724 -0.11654391 -0.059040304 -0.024591073 0.20914167 0.2276376
-0.2328288 -0.48672256 -0.19300158 0.08457138 -0.5000402 -0.09972588 0.4809003 -0.074783884
0.24225798 0.14238437 -0.4945762 -0.20518751 0.062253766 0.50075185 0.44891766 -0.12534024
0.025123594 0.650011 -0.49643162 -0.14450416 0.14909217 0.4583662 0.4358522 0.33779055
0.06935027 -0.6425218 -0.06843066 -0.01412757 -0.047557067 0.89660966 -0.29156646 -0.41745704
-0.6731966 0.6250163 -0.08984108 0.17124641 -0.73161775 0.071146496 0.31454825 -0.19729763
-0.14042066 -0.26656735 -0.16031279 -0.37188324 -0.51675797 0.38155106 -0.21982022 -0.27864996
0.22882678 0.022875896 -0.16359165 -0.10250785 0.24710779 -0.7181446 -0.5319498 0.3748904
-0.6263712 -0.39940462 0.06689844 0.4207288 0.19158341 0.6214534 0.31809384 -0.21956116
0.022859253 0.009104545 -0.30003262 -0.36233392 0.15965605 -0.29193115 0.048106533 0.0199871
-0.06376672 -0.045036092 -0.04368528 0.21990803 -0.4901341 0.46444026 -0.7601216 -0.4559284
0.674877 0.10077143 -0.13644564 -0.17268696 -0.16473792 0.1747989 -0.03905369 -0.41522285
-0.3850601 0.63740396 0.22461602 -0.14500076 -0.35357305 -0.05381613 0.59844536 0.45199186
0.6680738 0.13584684 0.61857504 -0.112498425 -0.20076564 -0.4522158 0.091654934 0.57894033
-0.011191926 0.120113075 -0.09211068 0.27269304 -0.45899233 0.40104333 -0.39946404 0.4027106
-0.07692976 0.1310328 0.12942524 -0.3631813 -0.60970974 0.09438922 -0.030335512 0.7416987
0.55869025 0.5306086 -0.66358465 -0.381233 0.34653145 0.050157614 -0.44256508 0.60310525
0.23624386 -0.117851146 0.44753343 0.52360815 0.07692951 0.2807776 -0.1955173 0.24545678
0.6745766 -0.036076635 0.12662941 0.27285555 0.019073097 -0.09972491 -0.87791884 -0.34605685
00000000: feff d03e 4d53 29be db28 01bf 37bc 963e
00000010: a9cc 8e3e 9585 9a3d 20c0 813e 0d1f e33d
00000020: d5e7 1bbe ae1d 133e 7238 febd e5bc 8e3d
00000030: ecfe b13e 0e52 33be 0f45 7abe e3e2 043e
00000040: aab0 adbd c5cf c6be b381 8f3e 9eb3 9cbe
00000050: 2219 adbe f1fb d2be 8b73 ef3e a249 d53e
00000060: 21fb f93e 4568 85be ca9d 56bc fd59 4cbd
00000070: 7ef9 d4be 513c 0cbe ca4c 7fbe a4e7 043e
00000080: 3ebd 32be 8731 f8be 6858 80be 5845 99be
00000090: 1541 dcbe 036e a93e 0de4 55be a7b3 863e
000000a0: c2d9 67bf 8bf2 17bf 35b9 a23e cb0d 7d3d
000000b0: 5da2 3b3c 2910 9f3b 27fd acbd dcc2 0abd
000000c0: 4f83 98be 2449 3fbc 4fc7 f33d 00b2 00bf
000000d0: 3c92 bb3d 6c35 cdbe daa2 a3be 62de 4d3e
000000e0: 1530 403e 61b4 b3bd e5a8 7abf dacf c5bd
000000f0: 7ace fa3c a530 c3bd 9b02 123f b485 143f
00000100: acc1 163f 45bd 033e e3d8 e63e 06c3 813e
00000110: ac5b 35bf cf78 cd3d c9c7 d63e c23b 44be
00000120: d0f4 05bf c6b9 9bbc f0a5 58bf 585d 88be
00000130: 3275 233d 6c18 563e 8fb4 773e f3d3 68be
00000140: b2cc a0be e0f2 f5be 91c5 3cbf cf0f f63e
00000150: ac82 15be be07 1f3e e0f4 b83e eb23 31bc
00000160: be48 1f3f 89c3 f0be dba1 c93d 389e f33c
00000170: a3b6 85be 260b c13e 4814 723e 18bb 033e
00000180: 68f2 17bf 02af adbd 42ce c5bd 77e6 823e
00000190: 7fa5 163e 14c1 3d3f 391d af3e 7449 11be
000001a0: bc16 673f 0970 123e 5be9 8f3e 93ae eebd
000001b0: 3fd4 71bd 3873 c9bc 3c29 563e d519 693e
000001c0: ac6a 6ebe b333 f9be 35a2 45be c233 ad3d
000001d0: a202 00bf 153d ccbd 9038 f63e 4b28 99bd
000001e0: 7a12 783e 35cd 113e 1739 fdbe ad1c 52be
000001f0: cefd 7e3d 4631 003f 89d8 e53e 3159 00be
00000200: ffcf cd3c 1f67 263f 492c febe e6f8 13be
00000210: 9eab 183e f9ae ea3e 0528 df3e e2f2 ac3e
00000220: 8407 8e3d 4f7c 24bf 6025 8cbd 5377 67bc
00000230: 33cb 42bd 3688 653f 3348 95be eebc d5be
00000240: 9d56 2cbf 1101 203f 9afe b7bd 385b 2f3e
00000250: 4d4b 3bbf 41b5 913d 780c a13e 6408 4abe
00000260: 6fca 0fbe 847b 88be 0929 24be 7b67 bebe
00000270: 404a 04bf a95a c33e 8d18 61be 35ab 8ebe
00000280: 9151 6a3e 3b66 bb3c 9284 27be a3ef d1bd
00000290: d309 7d3e 53d8 37bf dd2d 08bf a2f1 bf3e
000002a0: dd59 20bf c37e ccbe 0d02 893d c469 d73e
000002b0: 712e 443e 9217 1f3f 32dd a23e a4d4 60be
000002c0: 5443 bb3c 3b2b 153c e09d 99be d583 b9be
000002d0: e07c 233e 0078 95be 5b0b 453d fdbb a33c
000002e0: 2098 82bd c477 38bd 56ef 32bd 922f 613e
000002f0: dbf2 fabe 1dcb ed3e 5497 42bf 726f e9be
00000300: bdc4 2c3f 4061 ce3d 68b8 0bbe dad4 30be
00000310: 0fb1 28be 7cfe 323e c3f6 1fbd 1798 d4be
00000320: 9926 c5be e82c 233f be01 663e 147b 14be
00000330: 8707 b5be 4d6e 5cbd b733 193f 7a6b e73e
00000340: e206 2b3f 6f1b 0b3e ef5a 1e3f 9365 e6bd
00000350: 8295 4dbe d488 e7be 95b5 bb3d 6f35 143f
00000360: 575e 37bc d8fd f53d 86a4 bcbd 6c9e 8b3e
00000370: 0b01 ebbe 8d55 cd3e 8d86 ccbe 1530 ce3e
00000380: 5a8d 9dbd 762d 063e 0d88 043e e6f2 b9be
00000390: f015 1cbf 234f c13d 2e82 f8bc f7df 3d3f
000003a0: 5306 0f3f f7d5 073f afe0 29bf f930 c3be
000003b0: 926c b13e 1272 4d3d e497 e2be 1b65 1a3f
000003c0: e9e9 713e f15b f1bd 1a23 e53e 2f0b 063f
000003d0: 388d 9d3d 15c2 8f3e b035 48be 0659 7b3e
000003e0: 0db1 2c3f 18c5 13bd 24ab 013e b9b3 8b3e
000003f0: 2f3f 9c3c 933c ccbd 4abf 60bf 5d2e b1be

network_body._body_endoder.seq_layers.0.bias f4 [128]
0.012702474 0.020130895 -0.005452645 0.058810595 0.030002862 0.0047754995 -0.03772229 -0.023876127
0.017596977 -0.008764948 -0.028852787 0.009152984 -0.027220372 -0.041574705 -0.034341365 -0.023599057
-0.010390721 0.013203659 -0.015601101 0.027545575 -0.028896792 0.024603117 -0.031521194 0.011334682
0.045114104 0.021673404 0.0077220076 0.0030125766 -0.042978145 0.030733604 -0.008012799 0.03856721
-0.007919988 0.005190549 -0.003961124 -0.025894515 0.021896083 0.018986458 0.025488945 -0.024817646
-0.002066207 0.026105657 0.05346794 -0.03830291 0.004456148 -0.029197427 0.018461592 -0.03875295
0.0029290977 -0.0058795847 0.044103052 -0.0063602105 -0.022277288 0.018727288 0.018503517 0.0042456677
0.010365157 0.011925126 -0.03803351 0.040998053 0.026529968 0.01947655 -0.025919754 -0.013377273
0.023385637 -0.00013943175 0.009512712 -0.016699083 -0.009166917 0.010878836 0.021958254 0.016141433
0.0482803 0.020718832 0.025173163 -0.0050549298 0.045602284 -0.037161406 0.0072733136 0.005043048
-0.019221708 0.04799487 0.00096760906 0.031131687 0.016312735 -0.0093828235 0.005428755 -0.024966907
0.031774953 0.021777919 -0.010910991 0.0033175824 -0.027819887 -0.018118719 0.02781412 -0.020598628
0.019749187 -0.002861385 -0.011338318 0.011827036 0.030170714 0.004333593 0.013105455 -0.0031703685
-0.019721042 0.017975504 -0.021247966 -0.0042550215 0.010435346 0.023334933 0.028263327 -0.032701205
0.030741297 0.0035365126 -0.028962415 0.0028860597 0.0047593154 -0.04110408 0.013120134 -0.020348223
0.025534054 -0.0083794445 0.042387743 0.0077204914 0.016401092 0.015852131 -0.02504534 0.0012024675
00000000: 0a1e 503c 8ce9 a43c 1aac b2bb 61e3 703d
00000010: 90c8 f53c cb7b 9c3b b082 1abd de97 c3bc
00000020: 8927 903c db9a 0fbc ae5c ecbc 66f6 153c
00000030: 42fd debc 3d4a 2abd 88a9 0cbd cf52 c1bc
00000040: d83d 2abc 2954 583c c39b 7fbc 42a7 e13c
00000050: f7b8 ecbc 7a8c c93c 5e1c 01bd 1ab5 393c
00000060: 91c9 383d 6c8c b13c e508 fd3b a66e 453b
00000070: da09 30bd 0ac5 fb3c 1d48 03bc a7f8 1d3d
00000080: d6c2 01bc 7b15 aa3b 51cc 81bb bc20 d4bc
00000090: 6a5f b33c 7d89 9b3c 31ce d03c 604e cbbc
000000a0: 3369 07bb 88db d53c 3301 5b3d 83e3 1cbd
000000b0: e104 923b 712f efbc c43c 973c 6abb 1ebd
000000c0: 1bf6 3f3b 88a9 c0bb 67a5 343d 5069 d0bb
000000d0: dc7e b6bc f869 993c b094 973c 3e1f 8b3b
000000e0: 9fd2 293c 9b61 433c 07c9 1bbd 93ed 273d
000000f0: 6055 d93c 498d 9f3c aa55 d4bc 5a2c 5bbc
00000100: 3c93 bf3c 6d34 12b9 35db 1b3c 84cc 88bc
00000110: d630 16bc 253d 323c cce1 b33c 0a3b 843c
00000120: 90c1 453d 8aba a93c f337 ce3c d3a3 a5bb
00000130: 76c9 3a3d 8f36 18bd fa54 ee3b 2740 a53b
00000140: d876 9dbc 4596 443d 25a7 7d3a e107 ff3c
00000150: 49a2 853c 6aba 19bc b3e3 b13b 6687 ccbc
00000160: 7426 023d 9b67 b23c 03c4 32bc cc6b 593b
00000170: 88e6 e3bc b56d 94bc 70da e33c 74be a8bc
00000180: 0cc9 a13c 1386 3bbb 5ac4 39bc 2fc6 413c
00000190: 9328 f73c d000 8e3b 43b8 563c f5c5 4fbb
000001a0: 068e a1bc 5d41 933c 3710 aebc b56d 8bbb
000001b0: 03f9 2a3c e728 bf3c 7e88 e73c b3f1 05bd
000001c0: 2cd5 fb3c d6c4 673b 9642 edbc 0c24 3d3b
000001d0: 08f4 9b3b c05c 28bd d5f5 563c 51b1 a6bc
000001e0: cb2c d13c f049 09bc c59e 2d3d 2dfc fc3b
000001f0: 955b 863c 54dc 813c e32b cdbc 1d9c 9d3a

network_body._body_endoder.seq_layers.2.weight f4 [128, 128]
0.16553594 0.04392394 -0.013987458 -0.015974065 -0.05915288 -0.19088848 -0.039970953 0.020672042
0.13841757 0.203096 -0.021065593 -0.14136568 0.15406995 -0.09888389 -0.002137559 0.120746955
-0.03983924 -0.07321295 -0.1131161 0.06638752 0.03139587 -0.0017018829 0.029288305 0.09141534
0.17564334 0.06523031 0.033384547 -0.01851352 -0.11475942 0.01523277 0.04915715 -0.12177565
0.027379313 0.051254094 0.06910733 -0.06619059 -0.15245344 -0.036775198 -0.1368185 0.1599328
-0.10968654 -0.011359077 -0.009392075 -0.057020146 0.044466726 0.002912571 0.033086944 0.016633308
0.2329898 0.1588939 0.029052807 -0.0442017 0.022637878 0.060920402 0.09233103 -0.020022085
-0.15580192 0.10959018 0.07892947 0.19866577 0.03507505 0.07662302 0.011462113 0.045837265
-0.0059204926 -0.101097316 0.090505324 -0.11732643 -0.058427446 0.07846375 0.015866295 -0.029641287
-0.15840293 0.17864603 0.04276372 0.12555796 -0.16426621 -0.097104296 -0.120118946 0.09927524
0.052103132 0.037304305 0.009950949 -0.1196456 0.005165497 0.08658622 0.11037808 -0.060096897
0.066152334 -0.046953425 0.14774175 0.035295658 0.076081835 -0.18854082 -0.06961575 0.12703243
-0.011085896 -0.018729195 0.044181116 0.06779058 -0.09193638 0.0018475301 0.15349093 -0.021229899
0.062148664 0.15806782 -0.054847345 0.011208655 -0.058709953 0.124389574 0.16799197 0.19771531
-0.097875744 -0.17947175 0.029269386 -0.0311368 0.014539162 -0.06977223 0.08607264 0.086455755
0.0134137 -0.014324794 0.033550147 0.027130522 -0.023015188 -0.011600936 0.06223298 0.12433648
0.0008477465 0.049378406 0.089669816 -0.014866649 -0.00015820388 -0.0029215557 -0.037329543 0.048845276
-0.0974138 -0.042667277 0.03202272 0.06740658 -0.047457505 -0.062011324 0.04090886 -0.027010547
0.017519243 -0.047926236 -0.1163174 0.092133135 -0.15762544 -0.11070857 0.034593478 -0.14067201
-0.040969357 -0.084273994 0.17273311 0.049615182 0.07693037 -0.045027662 -0.12077731 0.0064626085
0.09176865 0.12905899 -0.058179185 0.058618844 -0.15291853 -0.12909886 0.17448558 -0.13940245
0.05326725 0.19735797 0.030898359 0.006500718 0.09005929 0.008013703 0.070363626 0.066439256
-0.11654382 0.02049937 -0.0600023 0.14483395 0.13415472 0.029915564 0.0071651787 0.012026878
0.09117425 0.0052086283 -0.11377694 -0.11915555 0.03204812 0.033161703 0.032170262 0.029911123
0.036148325 0.013350015 -0.07443349 0.10278007 0.11978869 -0.006033422 0.030512473 -0.00901048
0.06475075 -0.057729483 -0.10211285 -0.10567884 0.11480782 0.1609081 -0.00041630853 0.019248676
-0.06428317 -0.056063626 0.07147339 0.04720681 -0.15612106 -0.025836045 0.055031836 0.031998158
0.0012535438 -0.18849832 0.059421822 0.14578097 0.15996225 -0.02621332 -0.08209217 0.10679157
-0.12567927 -0.047177806 -0.15992476 0.09275205 -0.041727558 0.08334566 -0.04664062 -0.024202887
0.022001369 0.15982807 -0.07667642 0.13698559 0.12932254 0.039015055 -0.11273134 -0.08393729
-0.09279427 0.089219555 -0.045360513 -0.12911922 -0.111552685 0.09379679 0.15847372 0.045921177
0.015732827 -0.120691635 -0.14579973 -0.010412147 -0.0017595597 0.03269877 -0.24646367 0.034284472
00000000: 4182 293e 97e9 333d a72b 65bc 0bdc 82bc
00000010: 4a4a 72bd 4578 43be 95b8 23bd 6a58 a93c
00000020: 56bd 0d3e 66f8 4f3e c091 acbc 2ac2 10be
00000030: 83c4 1d3e a383 cabd 4a16 0cbb 2e4a f73d
00000040: 792e 23bd acf0 95bd 6aa9 e7bd 2ef6 873d
00000050: f598 003d b711 dfba 07ee ef3c f737 bb3d
00000060: d9db 333e 7897 853d 3cbe 083d aaa9 97bc
00000070: fd06 ebbd de92 793c 0259 493d 8365 f9bd
00000080: 954a e03c d0ef 513d 2588 8d3d ef8e 87bd
00000090: c11c 1cbe 97a1 16bd 261a 0cbe 6dc5 233e
000000a0: 56a3 e0bd 6c1b 3abc 38e1 19bc f58d 69bd
000000b0: be22 363d d5e0 3e3b 2d86 073d 9342 883c
000000c0: e194 6e3e 15b5 223e 2700 ee3c d70c 35bd
000000d0: 1273 b93c ac87 793d 0d18 bd3d 5b05 a4bc
000000e0: 8a8a 1fbe d170 e03d c6a5 a13d 0a6f 4b3e
000000f0: dbaa 0f3d 88ec 9c3d 96cb 3b3c dbbf 3b3d
00000100: b100 c2bb 1c0c cfbd db5a b93d d748 f0bd
00000110: 9e51 6fbd 9ab1 a03d 08fa 813c 49d2 f2bc
00000120: 6134 22be fcee 363e 0329 2f3d 4492 003e
00000130: 6735 28be 9ede c6bd ec00 f6bd d150 cb3d
00000140: 186a 553d 66cc 183d 4e09 233c c108 f5bd
00000150: 5443 a93b 1e54 b13d e70d e23d 2a28 76bd
00000160: e07a 873d 3c52 40bd 9d49 173e 2e92 103d
00000170: cbd0 9b3d d810 41be b492 8ebd ca14 023e
00000180: 9ea1 35bc f86d 99bc 42f7 343d cad5 8a3d
00000190: 2449 bcbd d328 f23a ba2c 1d3e 53ea adbc
000001a0: 998f 7e3d 88dc 213e 9ca7 60bd 82a4 373c
000001b0: d979 70bd f6bf fe3d 1606 2c3e e275 4a3e
000001c0: 1473 c8bd 71c7 37be 5ac6 ef3c 9a12 ffbc
000001d0: aa35 6e3c bee4 8ebd da46 b03d b70f b13d
000001e0: 23c5 5b3c 8ab2 6abc e16b 093d d440 de3c
000001f0: 598a bcbc da11 3ebc 02e8 7e3d 20a4 fe3d
00000200: 4e3b 5e3a 0341 4a3d cfa4 b73d 3f93 73bc
00000210: 88e3 25b9 9277 3fbb dde6 18bd fc11 483d
00000220: e380 c7bd e2c3 2ebd 412a 033d 760c 8a3d
00000230: cd62 42bd 96ff 7dbd 0c90 273d 3945 ddbc
00000240: 8484 8f3c 4d4e 44bd d137 eebd 4cb0 bc3d
00000250: 9068 21be 2dbb e2bd e4b1 0d3d 530c 10be
00000260: 7ccf 27bd d897 acbd f3e0 303e 4a39 4b3d
00000270: ab8d 9d3d ed6e 38bd 185a f7bd 4ac4 d33b
00000280: 34f1 bb3d 0a28 043e 4c4d 6ebd 501a 703d
00000290: ad96 1cbe 7e32 04be 59ac 323e 84bf 0ebe
000002a0: c32e 5a3d 3518 4a3e 8e1e fd3c fa03 d53b
000002b0: 0171 b83d e84b 033c ce1a 903d 4e11 883d
000002c0: 87ae eebd 4bee a73c f9c4 75bd 5a4f 143e
000002d0: db5f 093e 7c11 f53c e0c9 ea3b 620c 453c
000002e0: 91b9 ba3d 24ad aa3b e203 e9bd d307 f4bd
000002f0: e444 033d 91d4 073d f7c4 033d 2c08 f53c
00000300: 4410 143d 05ba 5a3c 9670 98bd 5b7e d23d
00000310: c653 f53d 03b4 c5bb 4bf5 f93c b1a0 13bc
00000320: 0b9c 843d c075 6cbd 8b20 d1bd 266e d8bd
00000330: 5d20 eb3d 18c5 243e fc43 dab9 66af 9d3c
00000340: e5a6 83bd f9a2 65bd a460 923d ee5b 413d
00000350: 33de 1fbe 1da6 d3bc 1069 613d 8010 033d
00000360: f34d a43a b405 41be 4c64 733d 9b47 153e
00000370: 25cd 233e 51bd d6bc f11f a8bd 8ab5 da3d
00000380: 11b2 00be 843d 41bd 51c3 23be c9f4 bd3d
00000390: 84ea 2abd 21b1 aa3d 3c0a 3fbd 2245 c6bc
000003a0: 373c b43c f8a9 233e 8708 9dbd f345 0c3e
000003b0: 216d 043e 40ce 1f3d b0df e6bd 50e7 abbd
000003c0: ec0a bebd beb8 b63d f2cb 39bd d437 04be
000003d0: bc75 e4bd 8818 c03d ef46 223e d817 3c3d
000003e0: 21e2 803c 2d2d f7bd 864c 15be b697 2abc
000003f0: 07a1 e6ba 25ef 053d f960 7cbe e06d 0c3d

network_body._body_endoder.seq_layers.2.bias f4 [128]
0.003307693 -0.02811707 -0.009233268 0.05422033 -0.03435795 0.042147294 -0.031194631 -0.018479226
0.027193455 0.0017538022 -0.037188053 0.024850287 0.015284263 0.019884279 -0.0049919626 0.018233405
-0.00012598844 0.010333274 0.0070473645 0.021219626 -0.01671337 0.025359096 -0.021349208 -0.015711209
-0.010652238 0.026201798 -0.057854116 0.02941664 0.027788354 -0.034857307 0.031021025 0.02367859
0.0050503793 -0.035845324 -0.022253318 0.00033357905 0.01965885 0.0295623 0.005948629 -0.018285934
0.033803586 0.019626407 0.001972927 -0.007112197 -0.011707122 0.018863853 0.03718958 -0.007072035
0.024895543 -0.022203188 -0.009150739 -0.030754758 0.035333958 -0.008050369 0.010740295 -0.029548585
-0.030430663 0.0417254 -0.030058645 0.022687808 -0.007662301 0.040867716 0.033885293 0.03262437
-0.005227748 -0.026878327 -0.039394703 0.017047867 -0.038074788 -0.005420086 -0.01851684 -0.0062772282
-0.017489595 0.05067953 -0.03141176 0.014998942 -0.02686713 -0.038609482 -0.029982071 -0.015639527
0.0021013117 0.043020003 0.041605525 -0.0077472697 0.03173532 0.028642707 0.037666082 -0.040678177
-0.009413261 -0.03348653 -0.044095166 0.026387982 -0.009429328 -0.011127915 -0.03794092 0.015164503
-0.027747741 0.021898415 -0.004793493 -0.029380348 0.0059467284 0.015862117 -0.013590559 -0.039591186
-0.03865081 -0.007961199 -0.009033646 -0.012100343 0.012963115 0.001766068 -0.0077232732 -0.009987021
-0.007762532 0.01054674 0.013906603 0.017221455 -0.03410098 -0.010088352 0.021802796 -0.028530288
0.036342792 0.03588015 0.00010857056 0.003491317 -0.012006994 0.042143695 -0.0059510972 -0.03276687
00000000: e1c5 583b c555 e6bc 2247 17bc 2316 5e3d
00000010: ecba 0cbd a4a2 2c3d e28b ffbc bf61 97bc
00000020: cfc4 de3c d6df e53a 8052 18bd d492 cb3c
00000030: d86a 7a3c 5be4 a23c 9e93 a3bb 395e 953c
00000040: c41b 04b9 e44c 293c 94ed e63b c8d4 ad3c
00000050: 7aea 88bc e1bd cf3c 89e4 aebc cbb4 80bc
00000060: b986 2ebc 27a5 d63c 70f8 6cbd 2afb f03c
00000070: 67a4 e33c 89c6 0ebd ce1f fe3c 9af9 c13c
00000080: a77d a53b 8cd2 12bd 974c b6bc 39e4 ae39
00000090: 990b a13c a32c f23c b8ec c23b 62cc 95bc
000000a0: a175 0a3d 8fc7 a03c 394c 013b 6f0d e9bb
000000b0: 3bcf 3fbc 5e88 9a3c 1a54 183d 88bc e7bb
000000c0: bdf1 cb3c 76e3 b5bc fbec 15bc 67f1 fbbc
000000d0: 57ba 103d b2e5 03bc 10f8 2f3c e00f f2bc
000000e0: ba49 f9bc 41e8 2a3d 8c3d f6bc c8db b93c
000000f0: 0a14 fbbb e864 273d 4ecb 0a3d 22a1 053d
00000100: 874d abbb f02f dcbc 575c 21bd f8a7 8b3c
00000110: 4ff4 1bbd fa9a b1bb a1b0 97bc 35b1 cdbb
00000120: 5746 8fbc 5795 4f3d 9ea9 00bd 1fbe 753c
00000130: 7518 dcbc fa24 1ebd f69c f5bc 771e 80bc
00000140: 29b6 093b be35 303d 8e6a 2a3d cfdc fdbb
00000150: e5fc 013d 1ca4 ea3c c047 1a3d 299e 26bd
00000160: 143a 1abc 2c29 09bd 229d 34bd 9c2b d83c
00000170: 787d 1abc dc51 36bc f067 1bbd 8974 783c
00000180: 3b4f e3bc 4e64 b33c bc12 9dbb 0eaf f0bc
00000190: c6dc c23b 45f1 813c f0aa 5ebc 5e2a 22bd
000001a0: 5050 1ebd b06f 02bc dc01 14bc 8440 46bc
000001b0: 3f63 543c 697b e73a 8313 fdbb 9aa0 23bc
000001c0: d75c febb 3ccc 2c3c 85d8 633c 0214 8d3c
000001d0: 78ad 0bbd 9d49 25bc c79b b23c 5ab8 e9bc
000001e0: 2edc 143d 10f7 123d 60b0 e338 94ce 643b
000001f0: fcb8 44bc de9e 2c3d 6c01 c3bb 8e36 06bd

action_model._continuous_distribution.log_sigma f4 [1, 2]
-0.037801094 -0.016947813
00000000: 52d5 1abd 24d6 8abc

action_model._continuous_distribution.mu.weight f4 [2, 128]
-0.040280018 -0.010200423 -0.039148852 0.06402063 -0.004748675 0.032646272 0.008553233 -0.027565371
-0.023136768 -0.040610705 -0.018017976 0.0030958797 -0.01571211 0.032364618 0.028841509 -0.025504222
-0.01058848 -0.030626103 -0.026265368 0.0058876057 0.015886271 -0.014585582 -0.0069708535 -0.048089895
0.013224854 0.0116295265 -0.008451523 0.042032186 -0.030684976 -0.009303803 -0.023022894 -0.015884833
-0.030345988 -0.047658164 0.009349086 -0.0274414 0.016698811 -0.0030893532 -0.022673497 -0.046811737
0.0127781825 0.008275968 0.005778193 0.007958734 0.019446747 0.018289521 -0.0077482034 0.0146158915
-0.0024167176 -0.0006712695 0.019178748 0.015270863 0.018463897 0.033859387 -0.055540048 0.018597232
-0.005782506 0.056510106 -0.01896521 -0.007839524 0.015075701 0.020337863 -0.0018088425 0.004849405
0.0013876823 -0.02346489 -0.017102301 -0.0028635224 -0.023142777 0.02823031 0.035596296 0.034165274
0.015465638 0.04574153 -0.0035316423 0.046973936 0.0006068319 -0.011393681 -0.016992962 -0.043204132
-0.013384974 0.055175792 0.036599375 0.012786253 0.03559698 0.0065719006 0.023235261 -0.015652584
-0.010455563 -0.00576821 -0.02566642 0.0052757496 0.028977213 0.01568615 0.006077811 0.04343995
-0.01533771 0.03764793 0.0010903261 -4.9975188e-05 0.032387625 0.045184504 -0.040288955 -0.008640473
0.015901968 -0.02844453 -0.029505707 -0.016901398 -0.014828112 0.03343499 0.020675408 0.02142596
0.023069134 0.019738084 0.008142852 0.067223646 -0.011406184 -0.05598844 -0.02436556 0.034343492
-0.0028111383 -0.010474625 -0.007529875 -0.024214162 0.03254418 0.04103424 -0.033772275 -0.0061000893
-0.020614618 0.011154217 -0.005896417 -0.025788158 0.02554819 -0.0045355647 0.02595473 0.005150722
-0.020316614 -0.016574139 0.016006632 -0.01314189 -0.005509882 -0.023219071 0.013036095 -0.029784963
-0.0036443628 -0.0072153592 -0.013472346 0.000953816 0.008068192 -0.034855276 0.0038605279 0.016268171
0.010952901 -0.015369689 0.017950246 -0.008345997 -0.027460817 0.010202288 -0.033720028 -0.008525001
-0.009133588 0.026957665 0.0015139381 -0.012430348 -0.015282731 -0.042857297 -0.006377369 0.0103121605
-0.015984563 0.001134858 -0.0055846386 0.00040712478 0.022995891 -0.016398901 -0.021544922 0.017561058
-0.021079851 0.00050138804 0.009118998 0.028765492 -0.04957579 0.028419258 -0.034105536 0.03027398
0.0038020178 -0.010194709 0.02493085 -0.009799869 0.0039333804 -0.056487758 -0.032273352 -0.02268351
0.0020694025 0.02001545 0.021130867 -0.01508636 0.013419196 0.013829638 0.03539988 0.028858472
0.0055615148 -0.01600103 0.012493391 0.010770434 0.003823405 0.011432408 0.024894195 0.005961559
-0.008283409 -0.01301039 -0.05345685 0.0056759245 -0.024277177 -0.024483332 -0.022021338 0.009186448
-0.0049960706 0.023448855 0.032231256 -0.016048064 0.009735116 0.0044542975 0.04269025 0.008866072
0.006092716 -0.018279128 -0.008282145 0.0059086643 0.0037173904 0.009669419 0.003676253 0.04175628
0.05833256 -0.0011518431 -0.0018283007 0.0051780497 -0.019000296 -0.0020630017 0.004419205 0.01126313
0.0008924356 -0.010389471 -0.010193195 0.010824057 0.0067054015 0.014303764 -0.017613135 0.02101686
-0.048414163 -0.03916971 -0.0038809248 -0.012469686 0.028416455 -0.008340236 -0.006046891 0.015353738
00000000: a9fc 24bd ad1f 27bc 8c5a 20bd 401d 833d
00000010: c69a 9bbb 19b8 053d dc22 0c3c c6d0 e1bc
00000020: 5289 bdbc 6957 26bd 6f9a 93bc 3ee4 4a3b
00000030: afb6 80bc c390 043d 0745 ec3c 3bee d0bc
00000040: 4e7b 2dbc 98e3 fabc 782a d7bc d1ec c03b
00000050: ed23 823c 5df8 6ebc c26b e4bb e9f9 44bd
00000060: 0fad 583c c589 3e3c 4278 0abc f129 2c3d
00000070: 0f5f fbbc fa6e 18bc 829a bcbc e920 82bc
00000080: 2698 f8bc 3535 43bd e92c 193c c9cc e0bc
00000090: f2cb 883c bf76 4abb c5bd b9bc aabd 3fbd
000000a0: 955b 513c ed97 073c ff56 bd3b 5a65 023c
000000b0: c94e 9f3c e8d3 953c a4e4 fdbb 7e77 6f3c
000000c0: cb61 1ebb 22f8 2fba c01c 9d3c a432 7a3c
000000d0: 9941 973c 24b0 0a3d f67d 63bd 3959 983c
000000e0: 2d7b bdbb 2477 673d ee5c 9bbc 5971 00bc
000000f0: 1300 773c 979b a63c af16 edba c2e7 9e3b
00000100: e4e2 b53a 7139 c0bc 201a 8cbc efa9 3bbb
00000110: ec95 bdbc 4043 e73c 6ccd 113d e3f0 0b3d
00000120: 9663 7d3c 785b 3b3d 2073 67bb be67 403d
00000130: cd13 1f3a 90ac 3abc d334 8bbc d1f6 30bd
00000140: a64c 5bbc 0300 623d 3ae9 153d 6f7d 513c
00000150: 24ce 113d 1959 d73b e057 be3c d939 80bc
00000160: cf4d 2bbc 4103 bdbb 6242 d2bc 32e0 ac3b
00000170: 9f61 ed3c 3e80 803c 6028 c73b 17ee 313d
00000180: 054b 7bbc b734 1a3d 46e9 8e3a 739c 51b8
00000190: e3a8 043d 6313 393d 0806 25bd c590 0dbc
000001a0: d844 823c 8104 e9bc f4b5 f1bc cd74 8abc
000001b0: 9cf1 72bc 21f3 083d 795f a93c 7f85 af3c
000001c0: 7bfb bc3c c3b1 a13c 9969 053c 8dac 893d
000001d0: 01e1 3abc 2254 65bd 489a c7bc c3ab 0c3d
000001e0: 133b 38bb c39d 2bbc 2bbd f6bb c75c c6bc
000001f0: 0c4d 053d 8513 283d cc54 0abd 42e3 c7bb
00000200: fddf a8bc 2dc0 363c bb36 c1bb b041 d3bc
00000210: 704a d13c 139f 94bb 049f d43c 63c7 a83b
00000220: 076f a6bc 7dc6 87bc 5720 833c 1551 57bc
00000230: 3d8c b4bb ec35 bebc 5895 553c 98ff f3bc
00000240: 43d6 6ebb d26e ecbb 1dbb 5cbc 8209 7a3a
00000250: 7330 043c 68c4 0ebd e900 7d3b d444 853c
00000260: cc73 333c 26d1 7bbc 650c 933c a6bd 08bc
00000270: 82f5 e0bc 7f27 273c 031e 0abd 72ac 0bbc
00000280: 0ba5 15bc 52d6 dc3c 556f c63a a9a8 4bbc
00000290: 6b64 7abc 228b 2fbd 40f9 d0bb 56f4 283c
000002a0: 0ff2 82bc 84bf 943a 58ff b6bb 5d73 d539
000002b0: e161 bc3c fd56 86bc fa7e b0bc 35dc 8f3c
000002c0: a7af acbc 956f 033a da67 153c 9ca5 eb3c
000002d0: fc0f 4bbd 81cf e83c 3fb2 0bbd 2301 f83c
000002e0: 462b 793b b507 27bc c83b cc3c a18f 20bc
000002f0: 96e3 803b b55f 67bd 1031 04bd c5d2 b9bc
00000300: d09e 073b 71f7 a33c a41a ad3c c82c 77bc
00000310: 30dc 5b3c b595 623c 77ff 103d 9a68 ec3c
00000320: 5e3d b63b 9814 83bc 14b1 4c3c 7976 303c
00000330: 1792 7a3b ff4e 3b3c e9ee cb3c 2e59 c33b
00000340: 23b7 07bc 8829 55bc 92f5 5abd 1bfd b93b
00000350: eee0 c6bc 4591 c8bc 1866 b4bc c182 163c
00000360: 14b6 a3bb d017 c03c ec04 043d 3b77 83bc
00000370: 0980 1f3c 5bf5 913b f9db 2e3d 0043 113c
00000380: 68a5 c73b 1cbe 95bc d5b1 07bc 789d c13b
00000390: 769f 733b 7c6c 1e3c 4aed 703b a208 2b3d
000003a0: 1fee 6e3d 71f9 96ba 97a3 efba a1ac a93b
000003b0: 82a6 9bbc 6d33 07bb face 903b fe88 383c
000003c0: 57f2 693a 9a38 2abc 5c01 27bc 6357 313c
000003d0: fcb8 db3b 565a 6a3c 6c49 90bc 8d2b ac3c
000003e0: ee4d 46bd 6b70 20bd 1d57 7ebb a74d 4cbc
000003f0: a0c9 e83c 7ca5 08bc 0025 c6bb 3f8e 7b3c

action_model._continuous_distribution.mu.bias f4 [2]
0.010601954 -0.035583574
00000000: d1b3 2d3c 15c0 11bd

exp_avg f4 [128, 7]
3.2640164e-06 0.0 -3.551355e-06 -2.6201953e-05 6.662145e-05 0.0 -1.6301716e-05 1.7870116e-06
0.0 -5.709368e-07 4.7964386e-07 -1.1675347e-05 0.0 -4.518759e-06 4.634896e-06 0.0
-2.6765229e-06 -6.801549e-06 2.7342227e-05 0.0 5.390333e-06 -7.042341e-06 0.0 1.7490587e-05
0.00013006132 -0.0005762925 0.0 -0.00013168948 9.607234e-05 0.0 -4.76415e-05 -7.220578e-05
9.6198506e-05 0.0 8.425991e-07 2.2347213e-06 0.0 -1.4304392e-06 -5.4214242e-06 3.0127767e-05
0.0 3.0051804e-06 -1.788224e-05 0.0 8.009803e-06 1.2719174e-06 2.8036251e-05 0.0
5.584765e-06 4.7707657e-05 0.0 -2.4143237e-05 -4.178512e-05 7.309652e-05 0.0 1.43385305e-05
-3.1406744e-06 0.0 -2.2356871e-06 -3.0250107e-05 7.715552e-05 0.0 2.0739682e-05 -3.9904466e-05
0.0 1.3699362e-05 -4.0622836e-05 0.0002361648 0.0 7.346356e-06 9.081341e-06 0.0
-6.984369e-06 -1.4065292e-05 1.0674921e-05 0.0 2.000197e-05 6.282923e-05 0.0 -3.0441464e-05
-4.8258888e-05 6.3569554e-05 0.0 5.822013e-06 -5.5464214e-05 0.0 2.7684018e-05 3.8026472e-05
-1.5909758e-05 0.0 2.8254191e-05 -2.1046588e-05 0.0 9.040241e-06 1.8348383e-06 3.0292442e-05
0.0 4.864496e-07 -4.826382e-05 0.0 2.2259286e-05 2.7548751e-05 1.6158896e-05 0.0
2.5479107e-05 -1.8514536e-05 0.0 6.570668e-06 -7.1199065e-06 7.613668e-05 0.0 2.4569985e-05
-0.00011857366 0.0 6.308683e-05 0.0001262219 -0.00024591226 0.0 -6.966025e-05 5.641447e-05
0.0 -2.7600016e-05 -4.592822e-05 4.1893596e-05 0.0 -1.4444668e-06 2.1079972e-05 0.0
-1.0738078e-05 -1.8234825e-05 3.3787896e-05 0.0 1.3469658e-05 4.8139533e-05 0.0 -2.2120643e-05
-2.8117684e-05 3.817942e-05 0.0 8.95501e-06 5.801444e-05 0.0 -2.9203691e-05 -4.5883175e-05
8.84541e-05 0.0 2.9838306e-05 -3.617332e-05 0.0 1.9645777e-05 4.0515046e-05 -0.00010992446
0.0 -2.4125624e-05 -3.1547832e-05 0.0 1.4887092e-05 2.1321743e-05 -1.0991066e-05 0.0
4.939025e-06 -4.241272e-05 0.0 2.4251993e-05 5.1097923e-05 -0.00011594734 0.0 -5.37492e-05
4.873055e-05 0.0 -1.6757309e-05 3.7120742e-05 -0.00026536023 0.0 -7.431329e-05 6.815042e-05
0.0 -3.4250334e-05 -5.6131612e-05 0.00011685447 0.0 2.2208304e-05 -6.896429e-06 0.0
5.777747e-06 2.6375e-05 -0.00013500085 0.0 -1.0976753e-05 1.8963627e-05 0.0 -1.1758875e-05
-3.990397e-05 0.000119600714 0.0 -4.5547004e-06 1.5204174e-05 0.0 -8.55306e-06 -1.7942892e-05
3.465355e-05 0.0 1.0087973e-05 7.6778786e-05 0.0 -3.786655e-05 -5.3501437e-05 1.6284113e-05
0.0 -4.6706995e-05 -1.2154361e-05 0.0 4.9846653e-06 -1.8685878e-06 3.752843e-05 0.0
4.5003867e-06 6.172279e-05 0.0 -2.853284e-05 -3.0505058e-05 -5.0268773e-05 0.0 -3.072396e-05
3.2021955e-05 0.0 -1.5032823e-05 -1.9363566e-05 2.7074013e-05 0.0 8.624508e-06 6.9314074e-06
0.0 -3.256261e-06 -4.268938e-06 5.373855e-07 0.0 -9.378323e-07 1.82566e-05 0.0
-4.0657906e-06 4.7318616e-05 -0.00020336214 0.0 1.6734677e-05 2.463909e-05 0.0 -1.2765451e-05
-2.4356046e-05 3.4509387e-05 0.0 -6.2652057e-06 3.3133547e-06 0.0 -4.7022622e-06 -3.1445947e-05
00000000: 600b 5b36 0000 0000 d053 6eb6 44cc dbb7
00000010: 1eb7 8b38 0000 0000 abbf 88b7 40d9 ef35
00000020: 0000 0000 7a42 19b5 e0c0 0035 3ce1 43b7
00000030: 0000 0000 d89f 97b6 7485 9b36 0000 0000
00000040: 509e 33b6 dc38 e4b6 fc5c e537 0000 0000
00000050: 9cde b436 404d ecb6 0000 0000 c0b8 9237
00000060: 1261 0839 5612 17ba 0000 0000 2016 0ab9
00000070: 727a c938 0000 0000 acd2 47b8 2f6d 97b8
00000080: 2ebe c938 0000 0000 f82e 6235 38f8 1536
00000090: 0000 0000 84fd bfb5 aee9 b5b6 e3ba fc37
000000a0: 0000 0000 9bac 4936 d101 96b7 0000 0000
000000b0: d861 0637 c0b6 aa35 642f eb37 0000 0000
000000c0: c464 bb36 b519 4838 0000 0000 3587 cab7
000000d0: 6e42 2fb8 654b 9938 0000 0000 858f 7037
000000e0: 60c4 52b6 0000 0000 d008 16b6 9cc1 fdb7
000000f0: 8ece a138 0000 0000 21fa ad37 185f 27b8
00000100: 0000 0000 50d6 6537 7062 2ab8 01a3 7739
00000110: 0000 0000 b880 f636 105c 1837 0000 0000
00000120: 465b eab6 f8f9 6bb7 7018 3337 0000 0000
00000130: e7c9 a737 30c3 8338 0000 0000 8c5c ffb7
00000140: 9669 4ab8 a550 8538 0000 0000 b65a c336
00000150: 3fa2 68b8 0000 0000 fa3a e837 9d7e 1f38
00000160: f275 85b7 0000 0000 6a03 ed37 348d b0b7
00000170: 0000 0000 8aab 1737 9044 f635 861c fe37
00000180: 0000 0000 9094 0235 e26e 4ab8 0000 0000
00000190: 74b9 ba37 7e18 e737 f78c 8737 0000 0000
000001a0: f7bb d537 aa4f 9bb7 0000 0000 9c79 dc36
000001b0: 88e7 eeb6 92ab 9f38 0000 0000 a41b ce37
000001c0: c0aa f8b8 0000 0000 7c4d 8438 6f5a 0439
000001d0: c9ed 80b9 0000 0000 9016 92b8 939e 6c38
000001e0: 0000 0000 9586 e7b7 0da3 40b8 e8b6 2f38
000001f0: 0000 0000 80df c1b5 e5d4 b037 0000 0000
00000200: b227 34b7 fdf6 98b7 7ab7 0d38 0000 0000
00000210: befb 6137 6ee9 4938 0000 0000 b88f b9b7
00000220: 44de ebb7 d722 2038 0000 0000 7a3d 1637
00000230: 8854 7338 0000 0000 73fa f4b7 af72 40b8
00000240: 6f80 b938 0000 0000 464d fa37 ceb8 17b8
00000250: 0000 0000 fccc a437 b3ee 2938 3f87 e6b8
00000260: 0000 0000 6261 cab7 3a52 04b8 0000 0000
00000270: 93c3 7937 18dc b237 4566 38b7 0000 0000
00000280: e7b9 a536 50e4 31b8 0000 0000 c270 cb37
00000290: fa51 5638 c128 f3b8 0000 0000 c470 61b8
000002a0: 0864 4c38 0000 0000 0c92 8cb7 18b2 1b38
000002b0: 0c20 8bb9 0000 0000 a5d8 9bb8 faeb 8e38
000002c0: 0000 0000 04a8 0fb8 dc6e 6bb8 c40f f538
000002d0: 0000 0000 f84b ba37 e067 e7b6 0000 0000
000002e0: 78de c136 e23f dd37 048f 0db9 0000 0000
000002f0: cc28 38b7 1414 9f37 0000 0000 fc47 45b7
00000300: 905e 27b8 25d2 fa38 0000 0000 94d4 98b6
00000310: 6e15 7f37 0000 0000 1d7f 0fb7 1184 96b7
00000320: f758 1138 0000 0000 843f 2937 4c04 a138
00000330: 0000 0000 e6d2 1eb8 bb66 60b8 de99 8837
00000340: 0000 0000 41e7 43b8 95ea 4bb7 0000 0000
00000350: f341 a736 30cc fab5 d867 1d38 0000 0000
00000360: 0702 9736 2c71 8138 0000 0000 cf59 efb7
00000370: 1de5 ffb7 afd7 52b8 0000 0000 9add 00b8
00000380: 504f 0638 0000 0000 7c35 7cb7 f16e a2b7
00000390: 001d e337 0000 0000 fbb1 1037 5694 e836
000003a0: 0000 0000 2386 5ab6 e63d 8fb6 da40 1035
000003b0: 0000 0000 58bf 7bb5 c025 9937 0000 0000
000003c0: e06c 88b6 fa77 4638 9c3d 55b9 0000 0000
000003d0: 7261 8c37 0bb0 ce37 0000 0000 322b 56b7
000003e0: 3650 ccb7 2cbe 1038 0000 0000 b539 d2b6
000003f0: 005b 5e36 0000 0000 20c8 9db6 d4e4 03b8

exp_avg_sq f4 [128, 7]
1.756355e-07 0.0 9.10526e-08 4.162109e-07 2.0158375e-07 0.0 2.1259542e-07 4.812559e-08
0.0 9.3722605e-08 2.0858164e-07 1.1920532e-07 0.0 1.2581101e-07 6.77785e-08 0.0
1.2861294e-07 3.098977e-07 1.5373004e-07 0.0 1.8644297e-07 5.502226e-06 0.0 1.0200783e-06
2.5162476e-06 2.64014e-06 0.0 2.6431437e-06 5.0682496e-07 0.0 2.6908697e-07 3.9933198e-07
6.9636826e-07 0.0 6.082322e-07 2.1185636e-08 0.0 2.2546516e-08 5.4666913e-08 2.3116787e-08
0.0 2.474453e-08 1.5813987e-07 0.0 9.788488e-08 2.3819642e-07 1.6945229e-07 0.0
2.706063e-07 8.8135494e-08 0.0 7.4417294e-08 1.07934945e-07 1.7490709e-07 0.0 1.4320389e-07
6.542447e-07 0.0 8.812825e-07 1.6831032e-06 8.7000086e-07 0.0 8.5578944e-07 1.0595875e-06
0.0 4.827057e-07 1.4749704e-06 1.0300537e-06 0.0 9.418721e-07 3.3212308e-07 0.0
2.677637e-07 4.0775413e-07 7.329468e-07 0.0 6.4865424e-07 1.8147331e-07 0.0 2.5043317e-07
5.225579e-07 3.0270417e-07 0.0 2.6188667e-07 2.521573e-07 0.0 2.6579806e-07 6.660821e-07
3.268935e-07 0.0 2.6897553e-07 7.5707895e-08 0.0 6.053181e-08 1.08712314e-07 1.2124474e-07
0.0 1.3855862e-07 2.132524e-07 0.0 1.4070665e-07 3.415251e-07 2.0537477e-07 0.0
2.9675454e-07 2.0934067e-07 0.0 2.3514424e-07 4.2584472e-07 2.6769982e-07 0.0 2.3961894e-07
6.2235176e-07 0.0 2.2945532e-07 4.6697943e-07 3.6786972e-07 0.0 3.085747e-07 1.66233e-07
0.0 2.9325457e-07 5.7970414e-07 3.0995463e-07 0.0 2.567436e-07 1.9551791e-08 0.0
1.1743551e-08 1.791202e-08 2.7821802e-08 0.0 1.3383274e-08 2.2249795e-07 0.0 2.0800466e-07
5.0294983e-07 6.6800885e-07 0.0 5.833736e-07 9.3342514e-08 0.0 8.633793e-08 1.2501391e-07
1.4555998e-07 0.0 1.7202665e-07 1.2096743e-07 0.0 3.7141874e-08 8.288008e-08 9.231335e-08
0.0 8.04777e-08 4.962068e-08 0.0 3.7424616e-08 7.5827316e-08 6.2165995e-08 0.0
5.913425e-08 1.995374e-07 0.0 5.0780102e-08 1.0423762e-07 1.00523536e-07 0.0 7.7688796e-08
1.1190747e-06 0.0 2.2567738e-07 5.069146e-07 3.8786325e-07 0.0 3.222034e-07 1.4627416e-07
0.0 1.2217305e-07 1.9453364e-07 2.699709e-07 0.0 2.365728e-07 4.8446094e-07 0.0
3.094718e-07 7.804826e-07 7.3804085e-07 0.0 8.727421e-07 2.212167e-07 0.0 8.2527094e-08
3.262239e-07 2.604382e-07 0.0 2.6136973e-07 4.2245816e-08 0.0 3.913277e-08 8.8123436e-08
6.413594e-08 0.0 4.6738762e-08 3.832844e-07 0.0 9.349405e-08 2.2911972e-07 2.7725827e-07
0.0 1.9267598e-07 2.5675117e-08 0.0 2.6705608e-08 8.106247e-08 3.733245e-08 0.0
4.311234e-08 1.2667934e-07 0.0 1.0003348e-07 1.5105998e-07 1.5107528e-07 0.0 1.3408875e-07
6.208848e-08 0.0 8.7489504e-08 1.3602038e-07 2.1271423e-07 0.0 2.2635923e-07 7.382714e-08
0.0 1.328266e-07 3.788451e-07 2.006431e-07 0.0 2.1995314e-07 4.949542e-07 0.0
2.2978621e-07 4.2211573e-07 4.5853992e-07 0.0 2.2957747e-07 5.2457388e-08 0.0 2.474512e-08
8.127069e-08 7.21165e-08 0.0 5.2469012e-08 4.268523e-07 0.0 5.143203e-07 1.0455356e-06
00000000: 5296 3c34 0000 0000 b288 c333 9773 df34
00000010: eb72 5834 0000 0000 c945 6434 a5b2 4e33
00000020: 0000 0000 8c44 c933 7cf6 5f34 d1fd ff33
00000030: 0000 0000 ab16 0734 a08d 9133 0000 0000
00000040: db18 0a34 0460 a634 fe10 2534 0000 0000
00000050: 0e31 4834 c39f b836 0000 0000 a0e9 8835
00000060: cedc 2836 432d 3136 0000 0000 dd60 3136
00000070: bf0c 0835 0000 0000 0877 9034 c563 d634
00000080: 10ee 3a35 0000 0000 6645 2335 b5fb b532
00000090: 0000 0000 50ac c132 e8ca 6a33 5a92 c632
000000a0: 0000 0000 cc8d d432 28cd 2934 0000 0000
000000b0: c834 d233 efc2 7f34 b1f2 3534 0000 0000
000000c0: d947 9134 0045 bd33 0000 0000 57cf 9f33
000000d0: ddc9 e733 18ce 3b34 0000 0000 96c3 1934
000000e0: 5a9f 2f35 0000 0000 4691 6c35 fce6 e135
000000f0: 018a 6935 0000 0000 67b9 6535 2637 8e35
00000100: 0000 0000 4893 0135 99f7 c535 6040 8a35
00000110: 0000 0000 f5d4 7c35 a64e b234 0000 0000
00000120: 2ac1 8f34 4de9 da34 b8bf 4435 0000 0000
00000130: 2e1f 2e35 01db 4234 0000 0000 4673 8634
00000140: e845 0c35 5883 a234 0000 0000 6e99 8c34
00000150: 3c60 8734 0000 0000 02b3 8e34 d0cc 3235
00000160: e77f af34 0000 0000 b767 9034 db94 a233
00000170: 0000 0000 b7fd 8133 3a75 e933 802f 0234
00000180: 0000 0000 b4c6 1434 60fa 6434 0000 0000
00000190: 2615 1734 da5a b734 fd84 5c34 0000 0000
000001a0: a251 9f34 20c7 6034 0000 0000 f57b 7c34
000001b0: a79f e434 62b8 8f34 0000 0000 faa4 8034
000001c0: b00f 2735 0000 0000 3360 7634 2ab5 fa34
000001d0: a17f c534 0000 0000 2faa a534 c77d 3234
000001e0: 0000 0000 9a70 9d34 f79c 1b35 d767 a634
000001f0: 0000 0000 92d6 8934 d8f2 a732 0000 0000
00000200: afc0 4932 f3dc 9932 cafc ee32 0000 0000
00000210: 43ec 6532 c5e7 6e34 0000 0000 e357 5f34
00000220: 7302 0735 3851 3335 0000 0000 2199 1c35
00000230: 9773 c833 0000 0000 c768 b933 903b 0634
00000240: 394b 1c34 0000 0000 53b6 3834 46e3 0134
00000250: 0000 0000 ec85 1f33 cefb b133 cd3d c633
00000260: 0000 0000 15d3 ac33 841e 5533 0000 0000
00000270: cdbc 2033 82d6 a233 1e80 8533 0000 0000
00000280: ccfa 7d33 6c40 5634 0000 0000 5019 5a33
00000290: 3dd9 df33 66df d733 0000 0000 ded5 a633
000002a0: 1d33 9635 0000 0000 ba51 7234 e812 0835
000002b0: 853b d034 0000 0000 4cfb ac34 890f 1d34
000002c0: 0000 0000 ac2e 0334 00e1 5034 85f0 9034
000002d0: 0000 0000 a304 7e34 e70b 0235 0000 0000
000002e0: 7b25 a634 5b82 5135 c81d 4635 0000 0000
000002f0: 6146 6a35 9587 6d34 0000 0000 c039 b133
00000300: df23 af34 5bd2 8b34 0000 0000 6252 8c34
00000310: c471 3533 0000 0000 f012 2833 5f3e bd33
00000320: 1bbb 8933 0000 0000 d0bd 4833 35c6 cd34
00000330: 0000 0000 e6c6 c833 f303 7634 16da 9434
00000340: 0000 0000 5fe2 4e34 2e8c dc32 0000 0000
00000350: 4166 e532 9014 ae33 7657 2033 0000 0000
00000360: 852a 3933 5a05 0834 0000 0000 fdd1 d633
00000370: 0d33 2234 4237 2234 0000 0000 09fa 0f34
00000380: 8155 8533 0000 0000 dde1 bb33 ff0c 1234
00000390: 7166 6434 0000 0000 270d 7334 e68a 9e33
000003a0: 0000 0000 199f 0e34 1364 cb34 5b70 5734
000003b0: 0000 0000 422c 6c34 fedc 0435 0000 0000
000003c0: 27bb 7634 259f e234 3f2d f634 0000 0000
000003d0: c681 7634 824d 6133 0000 0000 188f d432
000003e0: 0987 ae33 77de 9a33 0000 0000 4a5a 6133
000003f0: 222a e534 0000 0000 d20f 0a35 5454 8c35

exp_avg f4 [128]
-4.2434476e-06 -2.1930032e-06 -5.811964e-06 1.0253803e-05 -0.000119578974 -2.8181748e-06 2.2160424e-05 -5.9444486e-05
3.5365883e-06 4.9074588e-05 -1.1578308e-05 -7.814053e-05 6.905012e-05 2.6058688e-05 5.9906863e-05 2.2779943e-05
0.0001480594 -7.018555e-05 -2.6275477e-05 -5.9747646e-05 -7.227973e-05 4.521339e-05 3.9193976e-05 5.3150827e-05
-5.9895363e-05 -8.489065e-05 8.835472e-06 -2.3842229e-05 -1.903066e-05 -9.552959e-05 1.5027857e-05 -7.662426e-05
-3.9781393e-05 -8.608503e-06 -2.2256165e-05 -3.072083e-05 -4.413334e-06 -6.860345e-05 -3.2622283e-05 -3.2028045e-05
-2.717282e-05 -3.364295e-05 -0.00026642124 2.3089742e-05 1.3674042e-05 0.00010379602 -0.00013744763 5.959904e-05
2.980749e-05 5.246341e-05 -7.130238e-05 5.604401e-05 4.1091793e-05 -4.7733993e-06 -1.0142097e-05 -5.638585e-05
-9.180579e-05 1.7422208e-05 -1.2075019e-05 -0.00013527481 -5.142548e-05 -5.86711e-05 4.0977357e-05 7.41666e-05
-3.418483e-05 -3.645356e-05 -5.9838243e-05 3.78553e-05 -3.6578072e-05 -2.9700679e-05 7.485841e-05 -9.648529e-06
-5.2876305e-05 -3.606044e-05 3.1190284e-05 6.0825667e-05 -0.000120017816 6.741785e-05 -1.716087e-05 0.00015305816
7.982032e-06 -0.00010402679 -9.018608e-06 -1.9310668e-05 -3.3723118e-06 7.138564e-05 -5.1571686e-05 4.609389e-05
-0.00012484106 -0.00010405484 -8.00204e-06 8.076893e-05 5.153469e-05 3.9593255e-05 -1.9099216e-05 6.379634e-05
-2.9226076e-05 2.2886768e-05 -4.3701126e-05 -4.078575e-05 -0.00010060561 5.4982956e-05 6.1400395e-05 -2.5793612e-05
4.5463632e-05 -6.35336e-05 0.00018187099 7.3620613e-06 2.0992302e-06 -0.00010923384 -0.00021373594 2.638192e-05
3.2233016e-05 -1.6734559e-05 -3.8024813e-05 -3.95705e-05 -5.0390386e-06 -1.567422e-05 -5.6611774e-05 2.3308094e-06
2.8337861e-05 3.8657294e-05 -6.116912e-05 1.0787247e-05 2.5595262e-05 1.0402182e-05 3.44049e-05 8.019224e-06
00000000: f062 8eb6 822b 13b6 6404 c3b6 c007 2c37
00000010: 79c6 fab8 e01f 3db6 26e5 b937 0854 79b8
00000020: 2056 6d36 70d5 4d38 7440 42b7 61df a3b8
00000030: 00cf 9038 9b98 da37 8144 7b38 8e17 bf37
00000040: 6440 1b39 9530 93b8 286a dcb7 8c99 7ab8
00000050: e294 97b8 82a3 3d38 3664 2438 44ee 5e38
00000060: 2838 7bb8 5207 b2b8 103c 1437 cc00 c8b7
00000070: 08a4 9fb7 0f57 c8b8 2820 7c37 56b1 a0b8
00000080: f2da 26b8 3d6d 10b7 c0b2 bab7 3dda 00b8
00000090: 4016 94b6 32df 8fb8 e9d3 08b8 da55 06b8
000000a0: 30f1 e3b7 d81b 0db8 74ae 8bb9 d8b0 c137
000000b0: 9069 6537 10ad d938 d11f 10b9 fbf9 7938
000000c0: 190b fa37 280c 5c38 2c88 95b8 cc10 6b38
000000d0: fa59 2c38 302b a0b6 fa27 2ab7 d87f 6cb8
000000e0: dc87 c0b8 e825 9237 d095 4ab7 8ed8 0db9
000000f0: b0b1 57b8 9d15 76b8 1adf 2b38 e489 9b38
00000100: af61 0fb8 b6e5 18b8 d3fa 7ab8 d2c6 1e38
00000110: 686b 19b8 b925 f9b7 4efd 9c38 1ee0 21b7
00000120: 80c7 5db8 9a3f 17b8 50d2 0238 101f 7f38
00000130: 13b2 fbb8 af62 8d38 b0f4 8fb7 3d7e 2039
00000140: 91ea 0537 f528 dab8 a04e 17b7 58fd a1b7
00000150: e04f 62b6 e0b4 9538 ad4e 58b8 f054 4138
00000160: c4e7 02b9 0438 dab8 8040 06b7 7d62 a938
00000170: f426 5838 ef10 2638 4137 a0b7 66ca 8538
00000180: 852a f5b7 f6fc bf37 ba4b 37b8 5e11 2bb8
00000190: 3afc d2b8 809d 6638 16c4 8038 5c5f d8b7
000001a0: 34b0 3e38 573d 85b8 9fb4 3e39 a007 f736
000001b0: 80e0 0c36 7914 e5b8 4e1e 60b9 be4e dd37
000001c0: f031 0738 3161 8cb7 d57c 1fb8 80f8 25b8
000001d0: 0315 a9b6 227c 83b7 6e72 6db8 006b 1c36
000001e0: 18b7 ed37 f423 2238 ec47 80b8 e0fa 3437
000001f0: 68b5 d637 0885 2e37 fb4d 1038 4e8a 0637

exp_avg_sq f4 [128]
2.605958e-07 7.12054e-08 1.0811819e-07 6.769253e-06 5.431183e-07 2.644218e-08 2.0197565e-07 9.5656624e-08
9.726593e-07 1.4540427e-06 3.5980767e-07 2.4582624e-07 3.2173932e-07 9.255572e-08 2.565424e-07 2.8131126e-07
7.977043e-07 2.236528e-07 1.9881128e-08 2.457143e-07 1.06812145e-07 1.5172675e-07 5.999143e-08 2.632365e-07
1.4403089e-06 1.7028343e-07 5.427039e-07 3.0323443e-07 5.2123763e-08 4.5521668e-07 3.7782588e-08 1.5583994e-07
6.610739e-08 1.14107785e-07 6.0648625e-07 7.030373e-08 5.766891e-07 2.0799726e-07 1.0538506e-07 3.447821e-07
4.973617e-08 3.4008073e-07 4.9445025e-06 2.605538e-07 1.9439634e-07 6.563893e-07 5.408308e-07 3.2440497e-07
2.8741545e-07 5.0659423e-07 8.810452e-07 7.340251e-07 9.2118995e-08 1.7167132e-07 5.497316e-08 5.0786003e-08
5.301211e-07 4.867777e-07 2.4040963e-07 2.1516403e-06 6.643372e-07 1.2094286e-07 7.514391e-08 3.8938853e-07
1.9771588e-07 7.090992e-08 1.4327827e-07 1.07164944e-07 1.6134204e-07 2.6961615e-07 5.212788e-07 9.8052524e-08
1.6258552e-06 1.2226808e-07 1.1068647e-06 6.420857e-07 1.115303e-06 2.059116e-07 9.190145e-07 5.427109e-07
6.854589e-08 9.98397e-07 1.3060216e-07 6.297626e-07 1.8034959e-07 8.482283e-07 1.36577e-07 1.4138277e-07
9.602946e-07 6.357387e-07 1.5115349e-07 3.8816353e-07 1.15533915e-07 3.531165e-07 2.6192694e-07 7.519107e-07
7.0064864e-08 1.2464184e-07 2.5099945e-07 2.1827516e-07 4.3113957e-07 2.0241401e-07 3.643329e-07 1.327476e-07
3.9740502e-07 6.561914e-07 5.5544666e-07 7.9039717e-07 1.6328198e-07 5.651078e-07 2.2817726e-06 8.488168e-08
4.2668084e-06 3.5858378e-08 2.587554e-07 1.2426874e-07 2.9721374e-08 4.57895e-08 8.162362e-08 1.2534619e-07
4.9057616e-07 3.716632e-07 3.4733264e-07 5.8957635e-08 1.2040223e-07 2.1701378e-07 1.6501164e-07 1.7091662e-07
00000000: 04e8 8b34 95e9 9833 9b2e e833 7123 e336
00000010: ceca 1135 f822 e332 a5de 5834 c96b cd33
00000020: 528c 8235 8728 c335 972b c134 1afa 8334
00000030: 84bb ac34 0cc3 c633 ebba 8934 2007 9734
00000040: d221 5635 3725 7034 10c7 aa32 b7ea 8334
00000050: 9960 e533 55ea 2234 a3d4 8033 f352 8d34
00000060: a350 c135 27d7 3634 54ae 1135 39cc a234
00000070: afde 5f33 8164 f434 6546 2233 f554 2734
00000080: ecf6 8d33 6b0b f533 6bcd 2235 e2f9 9633
00000090: c6cd 1a35 da55 5f34 0d50 e233 7e1a b934
000000a0: 7f9d 5533 5794 b634 f4e8 a536 3ee2 8b34
000000b0: 42bb 5034 bb32 3035 9c2d 1135 e129 ae34
000000c0: 144e 9a34 e4fc 0735 f780 6c35 d209 4535
000000d0: f4d2 c533 a754 3834 a11b 6c33 cd1f 5a33
000000e0: a54d 0e35 1cab 0235 a611 8134 e664 1036
000000f0: e854 3235 85dc 0134 cd5e a133 270d d134
00000100: ba4b 5434 2447 9833 08d8 1934 8d22 e633
00000110: 5d3d 2d34 c3bf 9034 02ee 0b35 f290 d233
00000120: f637 da35 cb48 0334 958f 9435 cb5b 2c35
00000130: 85b1 9535 8d18 5d34 32b2 7635 cfae 1135
00000140: 8033 9333 a900 8635 a63b 0c34 f50c 2935
00000150: 1ea6 4134 ceb1 6335 00a6 1234 00cf 1734
00000160: 79e3 8035 a1a7 2a35 c14c 2234 ca64 d034
00000170: 711b f833 f693 bd34 f79e 8c34 e9d6 4935
00000180: 9176 9633 4ad5 0534 1ac1 8634 055f 6a34
00000190: 5f77 e734 2457 5934 8899 c334 6289 0e34
000001a0: ee5a d534 2125 3035 011a 1535 ae2b 5435
000001b0: 9c52 2f34 eab1 1735 8e20 1936 3248 b633
000001c0: 9b2b 8f36 b402 1a33 12eb 8a34 bb6e 0534
000001d0: fe4d ff32 16aa 4433 0f49 af33 e696 0634
000001e0: 23b0 0335 0089 c734 0979 ba34 9b38 7d33
000001f0: ea47 0134 4b04 6934 0e2e 3134 3485 3734
