Config/results/test_v1/SecurityGuard.onnx (onnx, 76496 bytes, 9 tensors)

network_body.observation_encoder.processors.0.normalizer.running_mean f4 [7]
000000 82 53 20 3f 00 00 00 00 e3 97 cc 3e b0 85 2e 41
       0.6262742 0.0 0.3995963 10.907639
000010 95 16 82 3b 00 00 00 00 c8 07 84 3b
       0.003969977 0.0 0.004029248

network_body._body_endoder.seq_layers.0.weight f4 [128, 7]
000000 12 bd b2 3e 47 d5 1f 3d 69 b5 55 bf 7e 90 3d bd
       0.34909874 0.039021757 -0.83479935 -0.046280377
000010 2d 20 38 be 84 a4 e5 3e 44 d6 fb 3b c6 6e 32 be
       -0.17981024 0.44852078 0.0076854546 -0.17425069
000020 b6 fc 72 be 1e 0b 38 bd db ac a5 3e 31 a7 d8 3e
       -0.23729214 -0.044932477 0.3235844 0.42315057
000030 c3 af 07 be 93 16 69 3d 77 f3 8a bc 87 e2 84 3f
       -0.13250642 0.056906294 -0.016961796 1.0381631
000040 8e e5 32 3d a8 ee 21 3e 54 56 3d be 3b 4c 9f 3e
       0.04367595 0.15813696 -0.18489963 0.31112847
000050 b0 dc 1e 3e 64 9f 43 3d 25 2a ba be 81 8b 93 3e
       0.15513873 0.04775943 -0.3636028 0.2881737
000060 7c 4e f1 be 27 0d 89 3d e8 f1 2f 3e 83 a4 4e bf
       -0.4713019 0.06691962 0.17182124 -0.80719775
000070 15 40 2b bc fb 65 1a 3f b4 cc b4 3d 20 bb 50 3e
       -0.01045229 0.6031186 0.088281065 0.20383883
000080 5f bb 7c bd 18 d5 4c 3d e3 93 a2 3d 4b 8c aa 3d
       -0.06170213 0.05000791 0.079383634 0.0832754
000090 9d 93 86 be 1b 09 25 bf 8a 25 e0 be 3c db 21 be
       -0.26284495 -0.6446702 -0.4377864 -0.15806288
0000a0 47 9b c7 3d 64 25 7a 3e e1 37 43 3f 4f 17 c8 bd
       0.09746414 0.24428326 0.7625714 -0.09770071
0000b0 c1 bc aa be 36 23 86 3e a0 76 d0 3e a0 e2 bb bc
       -0.33347133 0.2619874 0.40715504 -0.022935212
0000c0 c3 fe a8 3d 74 0c 1d be 3e 06 bd be d0 25 13 bf
       0.08251717 -0.15336782 -0.36918825 -0.5747957
0000d0 45 b3 23 3f a4 2f aa 3d 80 50 bd be ce 62 b3 3e
       0.6394542 0.08309868 -0.3697548 0.3503632
0000e0 28 e8 8e be 46 6a 8f be 81 ab 94 be 1b fb 0e be
       -0.27911496 -0.28010768 -0.29037097 -0.13962977
0000f0 5e 47 fc bd 91 75 1a bf 47 1d 1f bf 3e 6d bb 3e
       -0.123183 -0.6033564 -0.6215405 0.36606783
000100 4c c9 56 3e f1 72 a8 3e f4 6e 51 3e 54 3e b5 3e
       0.20975226 0.32900193 0.20452482 0.35399115
000110 64 47 df 3e ef 98 18 3e 9c af d2 3c 1c 25 35 3e
       0.43609154 0.1490209 0.025718503 0.17689937
000120 bb 56 6a bd bb 9a dc bb 30 d1 6c be 98 95 fe bc
       -0.05721162 -0.0067323125 -0.23126674 -0.031077191
000130 21 6c 99 be 74 7d c7 3e f7 c8 5f be 51 8e 05 bf
       -0.29965308 0.389629 -0.21854006 -0.5217028
000140 a5 0b 26 be aa 30 54 bd d2 ab 87 be 30 44 41 be
       -0.1621538 -0.051804222 -0.26498276 -0.18873668
000150 b3 46 6e 3f cc 65 c8 bd e6 7b 6c 3c f4 f0 35 3f
       0.9307663 -0.09785041 0.014433837 0.7107079
000160 04 ec 73 3e 46 fb 14 be 6b 39 e2 be 26 0c 69 3d
       0.23820502 -0.14548978 -0.4418443 0.05689635
000170 36 cc 3e be 87 2e 12 bd b5 cf 36 3f db 0d 04 3e
       -0.18632588 -0.035688903 0.71410686 0.1289591
000180 0a 8d cc 3d 87 1d 43 3e 37 23 04 bf c9 91 05 be
       0.099878386 0.19054233 -0.51616234 -0.13043894
000190 67 06 03 bf c7 c2 f0 be 5d 89 4b 3e 8b 53 94 3d
       -0.51181644 -0.47023603 0.19876619 0.07242497
0001a0 fc 06 0e 3f 10 7e 39 3e 82 11 ef be 5b 32 14 3f
       0.5547941 0.18114495 -0.46693045 0.57889336
0001b0 37 2f b4 3e d1 0b d4 be 4c f7 4d bd 27 0c 4a bf
       0.35192272 -0.41415265 -0.05028467 -0.78924793
0001c0 c7 d1 40 3e a3 fd b9 be 34 5b 63 bf 4f 8b aa be
       0.18830024 -0.36326322 -0.8881104 -0.3330941
0001d0 0c 84 d5 be c9 f4 68 3d 92 ee f3 3e fc ab 4f bf
       -0.41702306 0.05687407 0.47642952 -0.811218
0001e0 5c 8f 99 3d 0a 3f 09 bf 39 bd e4 3e ed 79 bb 3e
       0.07498047 -0.53611815 0.44675615 0.3661646
0001f0 16 ef e4 bc 60 72 d5 3e fa 46 16 be 03 a0 e4 be
       -0.027946036 0.41688824 -0.14675513 -0.4465333
000200 25 e0 3d 3d 3e f6 0e 3d ab 5b 87 3d 64 f4 1a 3e
       0.04635634 0.034902804 0.06609281 0.1513229
000210 d3 25 08 3f 3e d9 2f be 26 28 d6 be 85 48 e2 3e
       0.53182715 -0.17172715 -0.41827506 0.44195953
000220 79 62 d8 3d b9 b2 cd 3e e8 97 de 3d ab a6 13 3b
       0.10565657 0.40175417 0.108688176 0.0022529762
000230 09 b0 06 be 91 5f 8a 3e ce 47 97 3e 3c 90 c0 bd
       -0.1315309 0.27026036 0.2954697 -0.094025105
000240 ca 65 62 be e7 30 ec bd f9 10 0d 3e 3d 87 0e bf
       -0.22109142 -0.11532765 0.13776006 -0.5567511
000250 ac 6c fa 3c 48 71 1a 3e 3b 99 88 3e 70 6b 8c bd
       0.030569397 0.15082276 0.26679406 -0.068564296
000260 ad aa 01 be bc ab 28 3f 31 cd 01 bd 6a 50 f4 3d
       -0.12662764 0.65887046 -0.031689826 0.119294
000270 ab 22 54 3d 44 40 f8 bd d9 c4 96 3e 50 b1 cb 3e
       0.051790874 -0.12121633 0.29447058 0.39783716
000280 38 95 26 bf e7 43 7d 3e 28 ec da 3e 56 34 cd 3d
       -0.6507144 0.24732934 0.42758298 0.10019748
000290 40 74 d0 bd 72 b8 fe be f3 10 04 3f 67 cc 7d be
       -0.10178423 -0.49750096 0.5158836 -0.24785005
0002a0 55 1e 28 be 60 27 f6 3e 93 f5 ba 3e 24 1c 72 bf
       -0.16417821 0.48076916 0.36515483 -0.9457419
0002b0 cc 1f c4 3e 5b e7 59 3e f5 21 fa 3d f1 c4 86 be
       0.3830551 0.21279661 0.12213508 -0.2632213
0002c0 26 33 58 3f 33 d3 08 be 3e af d3 bd 74 35 4a be
       0.84453046 -0.13361816 -0.10336159 -0.19746953
0002d0 bf 6d 36 be 8e a6 0e 3d 60 a6 f6 3e 25 d0 91 3e
       -0.17815302 0.034826808 0.4817381 0.28479114
0002e0 3e cd 9e be 52 c7 bc 3e 4d 61 c2 3d 0d 4d 0f be
       -0.31015962 0.3687082 0.09491215 -0.13994236
0002f0 8d c9 be be c6 f6 21 bf dd ba 34 3f 22 bc bf be
       -0.37263146 -0.6326717 0.7059763 -0.3744822
000300 e8 97 8c 3e 3a ad a2 bd c1 e8 2d be 85 56 b9 3e
       0.27459645 -0.079431966 -0.1698332 0.36198822
000310 fe d0 c7 3e f6 e9 48 3d e0 a7 8c be 27 03 25 bf
       0.39026636 0.049051248 -0.27471828 -0.64457935
000320 18 c2 c5 3e 73 bf c5 bd 13 35 03 3f 43 92 a7 3e
       0.38624644 -0.09655657 0.5125286 0.32728776
000330 df 5b d8 bd 37 35 dd 3e 7c c6 e9 be 5c a3 52 3f
       -0.10564398 0.43204662 -0.45659244 0.82280517
000340 f4 d4 81 be 4e 4b 02 3f 7a 48 b8 bc 83 08 04 3f
       -0.25357783 0.50896156 -0.022495497 0.5157549
000350 38 e1 cf bc 41 f6 4e bf 3d c4 e8 bd b8 07 44 be
       -0.025375947 -0.80844504 -0.113655545 -0.1914357
000360 78 92 5f bd bd 04 b4 3e bd 9e 57 3e fd 3b 2c ba
       -0.054583043 0.35159865 0.21056648 -0.0006570218
000370 b7 52 ed 3e ec a8 40 bd 1a b4 b6 be 72 fa c8 3e
       0.4635217 -0.047036096 -0.35684282 0.39253575
000380 3a 07 82 be b5 ef c6 be 87 5d bc 3e 85 aa f3 3d
       -0.25396138 -0.38854757 0.36790106 0.118977584
000390 ab ef 66 3e 32 1c 17 be 9f 71 68 3f 10 6c c3 be
       0.22552364 -0.1475685 0.9079837 -0.38168383
0003a0 f7 e5 09 bf 0a a9 08 bd 14 f1 c9 bd 96 d4 52 be
       -0.53866524 -0.033364333 -0.09860435 -0.20588908
0003b0 c9 5a 2b be 38 c7 6a be 64 b4 df 3d b4 88 f9 3e
       -0.1673385 -0.22927558 0.10923079 0.4873711
0003c0 2e 8a de 3e 1c 03 cd 3e 98 11 14 3d ec 0f 16 bf
       0.43464798 0.40041435 0.03614959 -0.58618045
0003d0 24 78 e5 3e 08 e5 ab be fd 64 86 be e5 7b 4a bd
       0.44818223 -0.33573174 -0.26248923 -0.04943456
0003e0 11 3d 63 3d 75 b7 0a bf 79 fb ab bd 47 01 91 3e
       0.05547816 -0.54186183 -0.08397574 0.28321287
0003f0 6c bb 17 bf 48 dd d5 be 30 2a ab be 6b a5 84 bf
       -0.5927036 -0.41770387 -0.33430624 -1.0362982

network_body._body_endoder.seq_layers.0.bias f4 [128]
000000 cf ab 0a 3d e1 d4 21 3d 22 2d c8 bc ac 3b 01 bd
       0.033855256 0.039509658 -0.024435584 -0.03155105
000010 32 58 02 bd a0 9f c3 bc fb 29 55 3d e6 4f b8 3c
       -0.03182239 -0.023879826 0.05204199 0.022499036
000020 be 89 2d ba 6a 68 09 3d e0 fc 38 bd 5a a7 82 3c
       -0.00066199515 0.033546843 -0.045163035 0.01594894
000030 2f 6d 66 3d 0a 4a 82 3d 30 6a 5b 3c ad c5 41 3c
       0.05625647 0.06361778 0.013392016 0.011826915
000040 46 db d1 3b 08 ce ba bc 33 7a c6 3c fd a8 21 3d
       0.0064043133 -0.022803321 0.024228191 0.0394678
000050 28 3f 14 bc 92 71 22 bc 23 2a 28 bd bf 2c 86 bb
       -0.009048261 -0.009914773 -0.04105581 -0.0040946896
000060 7f f1 8f bc f8 df 0a bd 1f fe 01 3d 14 1f ca bc
       -0.017571209 -0.033905 0.03173649 -0.024673022
000070 15 85 22 3d 75 70 dd 3c a9 1a e7 bb a7 70 6d 3d
       0.0396777 0.027031163 -0.0070527387 0.05796876
000080 a0 88 1d 3d 3a 06 01 bd 3b dd 9c 3c 9c d1 10 bd
       0.038460374 -0.03150008 0.01914846 -0.03535615
000090 13 f0 18 ba 6d cc 6d bc 01 27 d4 3c 4a 42 e4 bc
       -0.00058341137 -0.014514071 0.025897505 -0.02786364
0000a0 b7 f2 ef 3c 1b 47 db bc 01 59 59 3c 8f cd e5 bc
       0.02929054 -0.026767304 0.013265849 -0.02805212
0000b0 13 2f 14 bd 83 26 12 3c 05 12 ed bc db 78 f2 3c
       -0.036177706 0.008920315 -0.028939256 0.029598644
0000c0 e9 bf a9 3c 2b f8 28 bd 49 f0 78 3a 57 e0 06 3c
       0.020721393 -0.041252296 0.00094962545 0.008232198
0000d0 00 76 fe bc 78 bc 7a 3a 4c a1 00 3d ca 81 1d bd
       -0.031062126 0.0009564827 0.031403825 -0.038453855
0000e0 a2 5f cd bc 5a 9c 23 3d 4e 57 e8 ba ac 0a 22 3c
       -0.025070015 0.03994403 -0.0017726214 0.00989024
0000f0 40 92 86 3c 81 f4 fb 3c 22 d3 4c 3d 6d 89 a6 3c
       0.01642716 0.030756237 0.05000604 0.020329202
000100 bf c3 05 3d d1 0f 2d 3c 55 54 e2 bc 95 87 24 bc
       0.03265738 0.010562853 -0.027628103 -0.010042091
000110 f4 cd ed bc 9b bd 69 bc 09 34 62 3d e5 f0 2e 3d
       -0.02902887 -0.014266397 0.055225406 0.042710204
000120 bf b5 c8 3c 45 29 3e bd b4 37 8b 3c af e6 78 3d
       0.024500726 -0.046426076 0.016994335 0.060766872
000130 4a f4 b0 bb 6a 2f 04 bc 4f 1d e1 bc 7a e1 19 bd
       -0.0054002153 -0.008067945 -0.027479796 -0.037568547
000140 ad 61 4d bd f8 a0 26 bc 07 82 c2 3b 31 f0 21 bc
       -0.05014198 -0.010170214 0.0059359106 -0.009883926
000150 af 0f 66 bb 24 55 1f 3d 8f b1 aa bc ea 0b 68 bc
       -0.0035104563 0.038899556 -0.02083662 -0.014162997
000160 08 c3 42 3d 75 e8 d7 bb da bb 69 bb 32 dd 70 3c
       0.047549278 -0.0065889903 -0.0035664947 0.014701175
000170 d9 15 2d bc 97 5d 43 3c c8 f1 e7 bc 46 8f 14 bc
       -0.010564291 0.011924169 -0.028313532 -0.009067362
000180 4e 73 b0 bb cc fe 9e bc ee 44 8e bb dc f5 94 bc
       -0.005384839 -0.019408606 -0.004341713 -0.018183641
000190 32 01 88 3c fd 02 f1 bc a0 37 14 3d 92 f4 1d 3c
       0.016602132 -0.02942037 0.03618586 0.00964083
0001a0 d3 91 c5 bc b0 cb bd 3c 0b 99 7d bc a4 12 50 bc
       -0.024117386 0.023168415 -0.015478383 -0.012699757
0001b0 d0 85 f7 bb 50 a4 41 3d 72 54 55 bd 26 0e 0f bd
       -0.0075537935 0.04727584 -0.052082486 -0.034925602
0001c0 0d 2f ec 3c 8f 07 33 3d f2 d1 c9 3c 3a ff 3b 3d
       0.02883103 0.04370838 0.024636243 0.0458977
0001d0 77 e1 2e bc 06 61 18 bd 68 81 2b 3b f0 d5 38 3d
       -0.010673872 -0.037201904 0.0026169661 0.0451259
0001e0 1a 01 4f 3d c8 9d c5 3c 56 35 7d bb d1 2d 3e bc
       0.05053816 0.024123088 -0.0038636527 -0.011607603
0001f0 15 26 ce 3b 58 8c 25 3c 59 a7 8d 3d 13 b5 e7 bb
       0.006291161 0.010104261 0.06916685 -0.0070711463

network_body._body_endoder.seq_layers.2.weight f4 [128, 128]
000000 cb 65 e6 bb 9a 72 2a 3d bd 3c ae bd d2 00 4d 3d
       -0.0070311776 0.0416132 -0.08507679 0.05004961
000010 05 7a f7 3c b2 d2 ab 3d dd 13 75 bd ad 99 6f bd
       0.03020955 0.08389796 -0.059833396 -0.058496166
000020 eb b6 66 3d d9 8c dd 39 49 92 25 3e 40 18 82 bd
       0.056326788 0.00042257344 0.16169085 -0.063522816
000030 19 a3 d7 3c dc 8f 2a 3c bd ff d8 bd 5f ef b7 3d
       0.026322888 0.010410275 -0.10595653 0.08981203
000040 27 a9 1b bc 00 a1 2c 3d 5d 3a fd 3d d4 59 3e 3d
       -0.009500778 0.04214573 0.123646475 0.046472386
000050 70 b2 a9 3d 00 05 01 3e 06 5e 7d 3d db 5e e4 bd
       0.082859874 0.12599564 0.061857246 -0.11150905
000060 2e 79 04 3e 38 bf 38 bd ef 20 33 3e 58 3b 9c 3d
       0.12936851 -0.045104235 0.17493032 0.076285064
000070 99 d4 14 3c e7 87 94 3d fd 93 90 bd b6 98 c2 bd
       0.00908389 0.07252484 -0.070594765 -0.095017835
000080 1b 50 dc 3c 8b 70 15 be 0b 99 68 bd b2 c5 b9 3d
       0.026893666 -0.14593713 -0.05678658 0.090709105
000090 2f cd 94 3d 3a ed 6d 3e 2b 32 43 bd b5 15 41 bd
       0.07265698 0.23235026 -0.047655266 -0.047139842
0000a0 db 1b 25 be 9f 8a 0b be 71 d2 68 bd 8e fe d9 3d
       -0.16123907 -0.13627099 -0.056841318 0.106442556
0000b0 9b e3 d4 3d 7f 29 94 3d 19 9e 0d bd 73 de 04 3d
       0.10394975 0.07234477 -0.0345746 0.032438707
0000c0 b9 e8 8c 3d 2d dd 6d 3e 8d 7d 12 3d a6 d6 bb bd
       0.06880326 0.23228903 0.035764266 -0.091718
0000d0 9b 3c e0 bd b3 67 df bd c3 5e bc bb 09 05 c1 3d
       -0.109490596 -0.10908451 -0.005748601 0.094247885
0000e0 0e 38 fb 3d 55 79 3e 3e d9 03 b5 bd 78 b4 0d 3e
       0.12266551 0.18600972 -0.088386245 0.13838375
0000f0 5b cd 92 3d 14 62 69 3d 44 ad 65 bd ef d4 53 3a
       0.07168075 0.0569783 -0.056073442 0.0008080741
000100 0b 68 23 bd 9d a9 3d be 57 0d 08 bb a3 71 b3 3c
       -0.039894145 -0.18521734 -0.0020759904 0.021904772
000110 ea b1 2c be a7 a5 8f bd 90 c3 bf bd d0 92 5a be
       -0.16864744 -0.070140176 -0.093634725 -0.21345067
000120 f8 ed bd 3d 1d 1e 91 bd f4 50 98 bb bd e7 e8 bd
       0.092739046 -0.07085822 -0.0046483222 -0.113723256
000130 3d 4d bc bd 57 ac 95 bb a9 9b 9c 3d bb 33 71 3c
       -0.091944195 -0.0045676637 0.07646877 0.014721806
000140 e2 53 b4 3c fd ca c6 bd 87 7a 29 3e 98 09 2d be
       0.022012655 -0.09706686 0.16550647 -0.16898191
000150 99 5e 96 3c ea e3 bb bd fd 58 d4 3b 94 31 0f 3e
       0.018355655 -0.091743305 0.006480335 0.13983756
000160 76 1b 00 3e d7 ff 12 3d 49 60 d0 3c 91 54 a5 bc
       0.12510476 0.03588852 0.025436537 -0.020181926
000170 30 d5 3d bd 60 1b 8f bd 8e dd 8a bc 16 24 d9 3c
       -0.04634589 -0.06987643 -0.016951349 0.026506465
000180 e7 5f 60 3d 61 20 9a bc a6 7a 28 be a9 22 b6 bd
       0.05477896 -0.018814268 -0.16453037 -0.0889333
000190 0e cd 24 3d 68 ec 91 3d a7 41 0a be 1f 73 38 3c
       0.040234618 0.07125169 -0.13501607 0.011257916
0001a0 e8 66 89 3d a8 8d d3 bd 7c 3e d8 bb aa 40 27 be
       0.06709081 -0.10329753 -0.0065992456 -0.16333261
0001b0 c9 36 ba 3d a5 cb 49 3c 7e 5c af bb 9a fe fa bd
       0.09092481 0.012316619 -0.005351602 -0.12255593
0001c0 b4 b8 68 bd 82 cc 8a bd 12 94 31 3d aa 2f fd bc
       -0.05681677 -0.06777288 0.0433541 -0.030906517
0001d0 18 b2 99 bc 4c a5 33 bd d2 f7 38 3e 76 92 ba bd
       -0.01876168 -0.04385881 0.18063286 -0.091099665
0001e0 fa 01 8b bc 8c fd eb 3b 7a 37 2e be 88 1b 49 3e
       -0.016968716 0.007201856 -0.1701335 0.19639409
0001f0 d4 39 3d 3c d4 40 ac 3c 1c 40 cb 3d 91 03 0c be
       0.011549432 0.021027006 0.09924337 -0.13673235
000200 a7 fd 80 3d 84 21 1c bb db f6 a4 3c 1f 95 af bd
       0.0629838 -0.0023823688 0.020137241 -0.085733645
000210 19 28 c0 3d 76 b4 f4 bd ee 99 a3 bd 75 e1 94 bd
       0.09382648 -0.11948483 -0.07988344 -0.07269565
000220 03 53 52 be 70 b0 df bd 3c 50 23 3d b8 d3 eb bc
       -0.20539479 -0.10922325 0.03987144 -0.028787479
000230 c3 33 bc 3d 5d 2c 9f bb 24 4e 1d bd 19 df b2 3d
       0.0918956 -0.0048575834 -0.0384046 0.08733959
000240 11 1c 65 bd 4b 52 bc 3a 6e 16 3d 3d cc a6 1f be
       -0.05593497 0.0014367787 0.04616397 -0.15590972
000250 a8 d9 f6 3c ac d0 b6 bd 1c d9 89 bc 57 64 9c 3d
       0.030133083 -0.0892652 -0.016827159 0.07636326
000260 ec 7e 76 3d df 98 c5 bd e0 dc 36 3e 9f 33 5e bd
       0.060179636 -0.096482985 0.17857695 -0.05424845
000270 03 63 3a bd 20 dd 48 3e b7 73 9e bd 4b a6 ad bd
       -0.04550458 0.19615602 -0.077369146 -0.084789835
000280 c7 2d 67 3e f0 28 0d be a2 0d 39 3e 16 4e b9 bd
       0.22576056 -0.13785148 0.18071607 -0.09048097
000290 be 91 c4 3c a0 76 2f bd 76 9f 36 bc c5 48 1f 3b
       0.023995277 -0.04283774 -0.011146417 0.0024304849
0002a0 52 94 05 be 43 ad 87 bd 99 15 d2 bd 7b 76 39 bd
       -0.13044861 -0.06624844 -0.10258026 -0.045279007
0002b0 ac 04 b1 bd 20 fb 91 3d 35 e9 c1 3d 7d 95 71 bd
       -0.08643469 0.071279764 0.09468309 -0.058980454
0002c0 f6 98 b5 3c e4 0d 4c 3d b4 1c 57 3d 0b c0 79 3d
       0.022167664 0.049817935 0.052517608 0.060974162
0002d0 4e 6b e1 bd 73 7c 74 3d 38 42 68 3d 17 ed 7b 3b
       -0.11006795 0.059688997 0.056703776 0.0038440877
0002e0 79 ff 46 3d 0a c7 f5 3d d3 60 85 3d bb 0d 91 3c
       0.04858348 0.12000854 0.065126084 0.017706743
0002f0 14 34 12 bb 9d cb 94 3d 85 80 14 3e 9e 3d 21 3e
       -0.0022308873 0.07265399 0.14502151 0.15746161
000300 53 83 88 3d a0 5a 30 3d 17 54 46 3e 87 8d 3b bd
       0.06665673 0.043055177 0.19368015 -0.045789268
000310 05 5f 78 3d 7f 9c 8c 3b a6 0a 62 bd b8 ae 83 3b
       0.060637493 0.0042911167 -0.055185936 0.004018631
000320 3b 15 a0 3d 62 d1 90 bd 15 71 24 bd 54 b9 f4 bd
       0.078165494 -0.070711866 -0.040146906 -0.11949411
000330 bd 88 0a 3e cd 50 08 3e 20 50 43 bc 08 6d 4e 3e
       0.13528724 0.13312073 -0.011920959 0.2015878
000340 23 d9 91 bc fc af a9 bd f8 af cb 3c 92 89 8a 3c
       -0.017803734 -0.082855195 0.024864182 0.016911302
000350 2d 01 82 3c fd df bb bc bf 13 d0 3c 42 95 6a bd
       0.015869701 -0.022933954 0.02540004 -0.05727125
000360 31 a8 ad 3d 61 4c c0 3d 6c ef dc bc 59 8c bd 3d
       0.084793456 0.09389568 -0.026969634 0.09255285
000370 bc 57 dc bd e6 dc 0a 3e c1 a4 13 3c e0 67 b9 bd
       -0.107589215 0.13560829 0.009011448 -0.09053016
000380 1f 4b 3e 3d 87 ec 88 bb 61 a9 bb bd 4d 07 74 be
       0.04645836 -0.004178587 -0.09163166 -0.2383091
000390 13 10 22 bd 0c e2 e2 bc f3 b8 b8 3d 9c 07 99 3d
       -0.03956611 -0.027695678 0.09019651 0.074721545
0003a0 c3 93 a3 bd d0 26 23 bc c8 66 bc bd 7f 1c 4b 3c
       -0.07987168 -0.009957984 -0.091992915 0.012396931
0003b0 3e 56 7f 3d b0 22 a1 bd 1c 81 88 bd 93 87 82 3d
       0.062338106 -0.07867944 -0.06665251 0.06373515
0003c0 5b ec 79 3c cc e3 48 bd bc 73 66 3d e3 43 0f 3d
       0.015254105 -0.04904537 0.056262717 0.03497685
0003d0 f1 5e 11 be 18 cf 0c 3e a9 a7 06 3e f6 8a 05 3e
       -0.14196374 0.13750875 0.13149895 0.1304129
0003e0 51 6e 9b bb a1 93 e0 bd 2c 2d 21 be ef b2 12 3e
       -0.0047433753 -0.10965658 -0.15739888 0.1432607
0003f0 e2 7e 07 bd 4b 0c e8 bc 39 ab e5 3d f1 d0 0f 3e
       -0.03307999 -0.028326174 0.11214299 0.14044549

network_body._body_endoder.seq_layers.2.bias f4 [128]
000000 16 25 79 bc 70 b2 98 3c 05 b1 00 bd 72 5b 86 3c
       -0.015206596 0.018639773 -0.03141882 0.016401026
000010 be 52 3b 3d c9 cf 2b bd ee 75 ed 3c 8a 57 ed bc
       0.045733206 -0.041946206 0.028986897 -0.028972406
000020 97 a9 cb bc 50 71 2d bd 3f 3a 32 3d e3 7b 33 3d
       -0.02486114 -0.04234439 0.04351258 0.04381932
000030 f6 05 44 bd b8 50 40 3d 8a 26 55 3d 21 f7 0f 3d
       -0.047857247 0.04695198 0.052038707 0.03514779
000040 58 51 04 bd a4 32 81 bc 44 6f cb 3c 2a 21 3a 3d
       -0.032304138 -0.015771218 0.024833329 0.045441784
000050 3c e5 31 bd 68 86 0d 3d 29 88 2e bd ec d6 5e bd
       -0.043431506 0.034552008 -0.04261032 -0.054404184
000060 f5 b6 18 bd f2 85 a8 3c 46 cf 40 bc cc ce 01 3d
       -0.037283856 0.020571683 -0.011768168 0.031691357
000070 28 6e 81 3c 16 68 4a 3c 6a 15 0c bc 7e 34 df bc
       0.015799597 0.012353918 -0.008550027 -0.02724671
000080 8c 5b a0 bc f3 84 1f bd 03 86 ac bc fa 23 e2 3a
       -0.019574903 -0.03894515 -0.021059996 0.0017253153
000090 84 c7 8c 3c 6a f2 8f bc 24 87 b2 bc 38 a8 ee bc
       0.01718498 -0.017571647 -0.021792956 -0.029132947
0000a0 0a 62 1c 3d 21 77 eb ba 13 54 2c 3d 06 c1 25 bd
       0.038179435 -0.001796458 0.042072367 -0.040467285
0000b0 f1 cb c7 bc 70 c2 14 3d f4 c3 11 bc d0 d9 90 3d
       -0.024389239 0.036318243 -0.0088968165 0.070727944
0000c0 7b f0 5f 3d 2b 4a 0d bd e0 96 1c 3d 85 91 40 3d
       0.0546727 -0.03449456 0.038229823 0.04701378
0000d0 0b 35 57 3d 0b c4 b6 3c 0b d1 00 3d 87 54 21 bd
       0.05254082 0.022310277 0.03144936 -0.039387252
0000e0 a0 fb 07 bd 85 c2 f7 3c 85 7e 89 3c 3c 1e 90 bc
       -0.033198953 0.030244121 0.016783962 -0.017592542
0000f0 32 1a 69 bd 7c d3 91 bb a3 f9 97 3c 18 fb 13 bd
       -0.056909747 -0.0044502597 0.018551653 -0.036128134
000100 f0 c4 aa 3a 61 5c bf bc 88 68 f4 bc 27 5a 21 bd
       0.0013028663 -0.02335948 -0.029835 -0.039392617
000110 dc a8 f3 3c 29 1e d0 ba 80 be 9c 39 38 23 2a bd
       0.029743604 -0.0015878129 0.00029896572 -0.041537493
000120 46 47 d4 bc 14 b3 cb 3c 30 82 4d bd fa 9a 8e bc
       -0.025912892 0.024865665 -0.050172985 -0.017407883
000130 13 70 4d 3a ca f4 8a 3d f0 47 fb bc a9 ec 43 bd
       0.000783683 0.06784971 -0.03067395 -0.04783312
000140 ae 36 35 bd 14 38 b5 3c 5d d7 97 3c 3d 98 9b 3c
       -0.0442416 0.022121467 0.01853531 0.018993491
000150 94 87 49 3d 02 04 21 3d 51 04 d9 bb 1a 7d 38 bc
       0.049201563 0.039310463 -0.006622829 -0.011260295
000160 f9 8b 34 3d fd 8e 8d 3c 72 77 f3 bc 52 61 ec bc
       0.0440788 0.017280096 -0.029720042 -0.028855
000170 0f 10 11 3d 48 da df bc 8a 18 54 3d 93 2b 10 3d
       0.035415705 -0.027325764 0.051781215 0.035197806
000180 0b 7a 51 bd 1b b4 88 bc d8 32 17 3d ca 53 8d 3c
       -0.05114178 -0.016687443 0.036913723 0.017251868
000190 8a 52 f9 bc c1 4d 1a bc dc c7 0b 3d bb 4a 04 bd
       -0.030434866 -0.009417952 0.034126148 -0.03229783
0001a0 f9 d6 71 bc 41 1f 7c 3d 81 6d cd bc 36 7f ec 3c
       -0.014760726 0.061553244 -0.02507663 0.028869253
0001b0 fb 99 e2 bc 06 c5 46 bd c1 f9 ad 3c 86 9f 56 3d
       -0.027661314 -0.04852774 0.021237256 0.052398227
0001c0 7a 5c 5c 3d 0d 06 7c 3c e5 bd e5 bb 54 16 29 3d
       0.05379913 0.015382302 -0.0070111626 0.04128106
0001d0 f5 d1 96 3c 40 3d 2b bd 76 32 14 bd 18 01 c1 3c
       0.018410662 -0.04180646 -0.036180936 0.023560092
0001e0 af 25 75 3c 9d 28 86 bc c4 f4 80 3a 2a 11 88 3d
       0.014962598 -0.016376788 0.0009838571 0.06643899
0001f0 6a 69 07 bd 1f 91 22 3b 40 db 1e bd eb 2f 12 3d
       -0.033059515 0.0024805737 -0.03878331 0.03569023

action_model._continuous_distribution.log_sigma f4 [1, 2]
000000 98 f2 46 bc 81 e8 0c bd
       -0.0121428 -0.03440142

action_model._continuous_distribution.mu.weight f4 [2, 128]
000000 4a e3 87 3c 84 f4 07 3c 11 69 40 3b 6e e2 b5 3b
       0.016587872 0.008298043 0.00293595 0.005550674
000010 9d 8c f1 bc c2 60 9f 3c 30 2b f3 bc 59 86 d3 3c
       -0.029485995 0.019455317 -0.02968368 0.025820898
000020 1c 76 b1 3c a4 4e f0 3b 3d 1c 97 bc a1 b7 98 bc
       0.021662764 0.0073335934 -0.018446082 -0.018642249
000030 a6 06 c1 3c b6 fd ba bc a4 26 a0 bc cf 23 bb bb
       0.02356274 -0.022826057 -0.019549675 -0.005711056
000040 eb af 90 3c 82 be 13 3d 98 43 8a 3a 76 33 e3 bc
       0.01766201 0.036070354 0.0010548709 -0.0277345
000050 a8 ea e3 3c a5 18 ee bc 10 5f 25 3c 57 96 ba 3c
       0.027821854 -0.029064486 0.010093465 0.022776766
000060 0a 1b 29 3d 39 6e b1 bc 8b a2 08 bc 99 13 1e bc
       0.041285552 -0.021659004 -0.0083395345 -0.009648227
000070 ee ad bf bc 3c 32 e5 bc 86 21 78 bc 3a 57 2c 3b
       -0.023398366 -0.027978055 -0.015144711 0.0026297108
000080 66 ba c3 3c 55 e1 4e 3d 0a 8f a3 3c 53 0f fd bc
       0.023892593 0.050507862 0.019965667 -0.030891096
000090 36 4e bd bc 75 80 08 3d a9 30 ca 3a 8f 8c 13 bb
       -0.023108583 0.03332563 0.0015425879 -0.00225142
0000a0 a0 e6 57 bc f7 12 2d bc e2 3d 29 bd fa 5f ac 3c
       -0.013177544 -0.010563604 -0.04131878 0.021041859
0000b0 b0 c2 62 3c 30 29 77 bc d7 d1 19 3d f1 cc fd bc
       0.013840362 -0.015085503 0.037553634 -0.030981513
0000c0 f7 18 8a bc 65 13 6b 3d e7 bb 39 bd e1 11 4c bc
       -0.016857607 0.057391543 -0.045345213 -0.012455435
0000d0 4e 4d 86 bc 8e 64 2b 3c d5 87 be bd 82 a4 03 3c
       -0.016394284 0.010460986 -0.09303252 0.008034827
0000e0 7b f3 20 3d f3 b0 13 bd 3b f3 10 3c 6d e4 de ba
       0.0392947 -0.036057424 0.008847053 -0.0017005332
0000f0 c9 e4 a1 3c 11 a4 a2 3c 77 82 a3 bc c9 a1 63 3d
       0.019762414 0.019853624 -0.019959671 0.055574212
000100 25 ef 0c 3d e6 82 d3 3c ad 13 94 3c 23 5e 6f 3d
       0.034407753 0.025819253 0.018075788 0.058439385
000110 71 00 95 3b f3 d0 13 3b 8c e4 1c 3c b4 37 1b 3d
       0.0045471718 0.0022554963 0.009575974 0.03789492
000120 2d 3e b9 3b 6d be 42 bb 23 ca 2e 3c 7b 06 2b bb
       0.005653164 -0.0029715553 0.01066831 -0.0026096392
000130 73 fb 68 bc 00 c3 c4 bc 40 b2 db 3b 01 a3 f2 3c
       -0.014220106 -0.024018764 0.0067045987 0.029618742
000140 8d 2f 21 3d b6 20 b4 bc a3 3d 26 bc 10 3b 9d 3c
       0.03935199 -0.021988254 -0.010146531 0.019193202
000150 eb 11 07 bd 70 56 c9 bc 4a 53 8c bc 0d ee 65 bc
       -0.032976072 -0.02457735 -0.01712956 -0.0140338065
000160 2c 01 8d bc 5b 70 51 bd a3 cc 0f 3d aa 23 e7 3c
       -0.017212473 -0.05113254 0.035107266 0.028215248
000170 10 93 e3 bc b4 8b e9 3b f6 31 bd bc b4 33 bf bc
       -0.027780086 0.0071272496 -0.023095112 -0.023340084
000180 c7 1b c1 3c a6 62 5d 3d d2 63 0f bd 14 fc 81 3c
       0.023572816 0.054049157 -0.035007305 0.01586727
000190 67 32 fc 3b 5c 20 4b 3d bd e3 9a ba a4 37 9c 3c
       0.007696438 0.049591407 -0.0011817139 0.0190695
0001a0 6f f5 9f 3c 89 67 ee bc 6b ce 97 3c 0c 97 f6 bb
       0.019526212 -0.029102104 0.018531045 -0.0075253304
0001b0 66 39 89 3c b4 7a 76 3c d6 48 2c bb ef d3 a6 bc
       0.016751003 0.015043903 -0.002628853 -0.02036473
0001c0 db 98 d8 bc 1a 1b aa 3c 34 55 81 3c f4 4a 34 bd
       -0.026440075 0.020764876 0.015787698 -0.044016793
0001d0 2b 82 a4 bc 4f 33 46 3d 1f 93 a6 3c 01 cf ed bb
       -0.0200816 0.048388775 0.020333825 -0.007257343
0001e0 d2 9f a6 3a e2 97 0f bc 9b 5e 83 bc 38 df fc bc
       0.0012712425 -0.008764239 -0.016036322 -0.030868158
0001f0 cf ae a9 3b 34 0b da bc 8b fe 15 3d 30 63 93 bc
       0.0051783095 -0.02661667 0.036619704 -0.017991632
000200 47 96 e5 bb c5 49 22 bd bd eb bc 3c 95 19 11 bd
       -0.00700644 -0.039621133 0.023061628 -0.035424788
000210 34 b9 84 bc 2e 28 1a 3c 24 d1 d8 bb ca 54 35 3c
       -0.016201593 0.009408994 -0.0066167284 0.011067579
000220 84 d2 1b 3c d8 f3 e2 3b 54 3e 13 bd 08 6d 7f bc
       0.00951064 0.006926041 -0.035948113 -0.01558996
000230 d3 65 3c 3c 2d a0 b0 bc 7c 43 ae bc 57 ed 82 bc
       0.011498886 -0.021560753 -0.021272413 -0.015982313
000240 f8 8e 11 3d 91 0c 24 bc 00 33 f3 bb c3 58 da bc
       0.035536736 -0.010012762 -0.007421851 -0.026653653
000250 3b 58 af 3c d2 f5 0e bc b1 70 97 3b 16 a6 cd 3c
       0.021404376 -0.0087256 0.004621588 0.02510361
000260 82 ef 93 3c b6 d8 ac 3b 54 f5 d7 3c a8 b3 1e bc
       0.018058542 0.0052748574 0.026362099 -0.009686388
000270 1e 0e ad 3b c4 4d ad 3b 5d 58 d9 3c e9 65 5a 3c
       0.005281224 0.0052888114 0.026531393 0.013329961
000280 eb d0 3c ba ee b8 80 3c 07 36 22 3b 67 37 d6 3c
       -0.0007202762 0.015713181 0.002475144 0.026149465
000290 8d 89 25 3b 3e 55 91 37 ff 85 ca 3c cd 51 bc 3c
       0.0025258989 1.7325041e-05 0.024722097 0.022988224
0002a0 b0 0f 85 bc 03 01 20 3c e9 6f 0d bc a0 f9 d4 3c
       -0.016242832 0.009765866 -0.0086326385 0.025997937
0002b0 9a a2 4d 3b 23 97 44 bc 5a d4 8c bc 00 6a c8 bc
       0.0031377436 -0.011998924 -0.0171911 -0.024464607
0002c0 34 7d 41 bc 32 ce ea 3c aa e1 3b bc 1a af c1 bc
       -0.011809636 0.028662775 -0.011467377 -0.023643065
0002d0 8d 62 5e bc 70 6b ed bc 8c 4f e7 3b 7c 61 c6 3c
       -0.013573301 -0.028981894 0.0070590433 0.024216406
0002e0 dd 42 0e 3d f7 ed 43 bc 6f 34 d1 bc 49 0e 6f 3b
       0.034731735 -0.011958591 -0.025537698 0.003647702
0002f0 06 86 8d 3c 8a 39 08 bc 91 a9 2e 3a 78 ba 67 3c
       0.017275821 -0.0083145 0.00066628406 0.014143579
000300 ed e6 0d bd de 4b 86 3c 48 0d ae 3c 2a 0b fb 3c
       -0.034644056 0.016393598 0.021246567 0.030644972
000310 0a ef 57 bc cc e0 87 bc 8f ba 19 3c 2b 11 a8 3c
       -0.01317955 -0.016586684 0.009382858 0.020515999
000320 6c 45 a4 3b cc aa 1f bc a3 1b cc 3c fa b4 fb 3c
       0.0050131585 -0.009745311 0.024915522 0.030725945
000330 46 5f 75 3c 06 c2 b2 bc 12 36 ed 3c 31 ca a3 3c
       0.014976328 -0.021821033 0.028956447 0.019993873
000340 c5 ea 7d 3c 22 fe 1b 3b 40 14 83 bb 07 ef e6 bc
       0.015497868 0.0023802598 -0.0040002167 -0.028190149
000350 75 79 79 bc a4 b6 82 bc 15 0a 94 3b 3d a0 10 3c
       -0.0152267115 -0.01595623 0.0045178034 0.008827266
000360 e0 62 70 bd 32 1d 1d 3c 8a 6f e1 3c 3c b5 83 3c
       -0.058688045 0.00958948 0.027519006 0.01607763
000370 88 cf 10 bd d1 2a a3 3b 79 1c bb bc d9 6b bf bc
       -0.035354167 0.0049794693 -0.022840725 -0.023366855
000380 fe e7 54 3c 56 08 e0 bb bd 9c 02 bc a2 34 94 bc
       0.012994764 -0.006836931 -0.00797194 -0.018091504
000390 5f aa ca 3c d7 bd 6a bc 9f 1e 27 bc 8c 52 27 3d
       0.024739442 -0.014327488 -0.010200172 0.040850207
0003a0 14 7a b7 bb 22 56 25 bd e1 0a 05 3d e9 77 d3 ba
       -0.0055992696 -0.040365346 0.032481078 -0.0016133758
0003b0 cc 09 93 3c d6 8f e6 3c be 02 22 bd 26 79 70 bc
       0.017949007 0.028144758 -0.039553396 -0.014677322
0003c0 5e 0c 02 bd cc 2c ec bc 67 e3 e9 ba 5e 11 76 bc
       -0.031750076 -0.028829955 -0.001784426 -0.015018789
0003d0 8a 94 49 bb 23 e4 ea 3c bd ee ab 3c f1 cc e5 bc
       -0.0030758702 0.028673237 0.020987863 -0.028051825
0003e0 58 6a 82 bc 29 36 27 3c b9 17 61 3c 84 f7 38 bd
       -0.01591985 0.010205784 0.013738566 -0.045157924
0003f0 cc 28 ea 3b 10 20 45 3c a8 2a 87 3c 83 e9 26 bd
       0.0071459766 0.01203157 0.016499832 -0.040750038

action_model._continuous_distribution.mu.bias f4 [2]
000000 cc ea eb bc 17 cc 01 bd
       -0.028798483 -0.031688776

onnx::Div_51 f4 [7]
000000 77 a4 15 3f 6a 5f 0e 3c a3 14 a7 3e e2 1c 47 40
       0.5845408 0.008689741 0.32632932 3.1111379
000010 c3 fa 21 3f 6a 5f 0e 3c 96 2c 18 3f
       0.63273257 0.008689741 0.5944303
