Config/results/test_v3/SecurityGuard/SecurityGuard-26147.onnx (onnx, 76496 bytes, 9 tensors)

network_body.observation_encoder.processors.0.normalizer.running_mean f4 [7]
-0.96065825 0.0 -0.14383884 9.656834 0.0050168256 0.0 0.0009951034
00000000: b3ed 75bf 0000 0000 7d4a 13be 6482 1a41
00000010: 2f64 a43b 0000 0000 216e 823a

network_body._body_endoder.seq_layers.0.weight f4 [128, 7]
0.19613239 0.6947713 0.19581135 0.27804235 -0.055131555 -0.61416113 -0.19262049 0.6745919
0.71647555 -0.059993476 -0.41743168 -0.33616754 0.25941426 0.11886454 0.22389369 0.428843
0.40457493 0.69671905 0.17316505 -0.45525616 0.3399911 0.088914 -0.39701462 -0.5813539
0.553447 -0.11246456 -0.111333266 0.17125562 0.17252561 0.36949998 -0.1878052 0.49065483
-0.26845935 0.30002335 -0.34257978 -0.5233238 0.17138007 -0.2673746 0.5767644 -0.37031713
0.66296977 0.12729324 -0.0548115 -0.042181265 -0.14805017 -0.08622907 -0.25409487 -0.5872215
-0.15437701 -0.6033092 -0.44613326 0.31697434 -0.11074987 0.2594049 -0.5937683 0.15776275
-0.54204535 0.32098317 0.1306344 0.11851602 0.0056707487 0.49288037 -0.38133287 -0.42272863
-0.41138238 0.003867499 0.42243958 -0.19932231 0.2583488 0.11914701 -0.4659041 -0.6918831
0.09876271 0.23041034 0.5300055 -0.3298829 -0.22055614 -0.4449368 0.63436425 -0.11829909
-0.51600593 -0.5344865 1.1057159 0.029599965 -0.39944223 0.5231962 0.07378426 0.1303506
0.3467358 -0.19599995 0.20793566 -0.31314403 0.58271015 0.38354006 -0.45516923 -0.3010176
-0.24707158 -0.09046367 -0.33480424 0.23494795 -0.50369143 -0.30357197 0.059594322 -0.1888912
-0.300953 -1.0614005 0.33899704 -0.54308516 0.43447903 -0.6498864 -0.533011 -0.12112114
0.31773818 0.6203109 -0.25802606 0.014166769 0.033228833 0.02457549 -0.55536366 0.3665682
-0.33503044 0.9712494 -0.21994375 0.09987343 0.12498678 0.42910683 0.043708816 -0.3139705
0.28191867 0.024381459 0.010601211 0.78160197 -0.3949275 -0.101851024 0.13994934 -0.07280409
0.3425738 0.42772946 -0.266984 0.10607396 -0.8674122 0.5494176 -0.33282816 0.72761095
-0.04122657 -0.08409775 -0.10640661 -0.13090715 0.962251 -0.32038942 0.6478285 -0.7615096
0.141444 0.02458493 -0.3079372 -0.4178529 0.28617126 0.0772615 0.031834073 -0.07750686
-0.29496 0.3338136 0.49500132 0.41532114 0.34203961 -0.040626112 0.34922764 -0.3901487
0.22397843 0.50915277 0.13691658 -0.12411298 -0.07544023 -0.0012409937 -0.27613148 0.28145176
-0.23279575 -0.4740741 0.06692967 -0.0131006595 0.54540306 -1.0208987 -0.25762576 0.3181308
0.28360665 -0.32169145 -0.55685127 0.11874643 0.03130224 -0.25529426 0.058664806 0.18141447
0.31625012 0.07633456 0.19252467 -0.41715902 -0.43597656 -0.19337171 -0.25556594 0.9027937
-0.38018224 0.023051038 0.65955985 0.007979688 0.15312116 -0.38611776 -0.25186196 0.13432713
0.15453324 -0.49063566 -0.7242574 0.020906856 -0.36215547 0.1333415 -0.06538419 0.7518275
-0.4470528 0.26690343 0.010275984 -0.3911827 -0.39280847 -0.6659219 0.047652207 -0.3868919
0.085472435 0.06766354 -0.38409874 0.10507627 -0.13229065 0.59127057 -0.1412579 -0.031569198
-0.4419628 -0.11066485 -0.08755579 -0.056546006 -0.39264536 0.16856347 -0.5974901 -0.07604434
-0.01033506 -0.15791762 0.108516656 -0.3918139 0.07766398 -0.8819245 -0.5278729 0.08620151
0.103556134 -0.16950533 -0.38132724 1.0922047 0.419057 0.59464777 -0.21043658 -0.5954307
00000000: eed6 483e 88dc 313f c582 483e 915b 8e3e
00000010: a0d1 61bd aa39 1dbf 4e3e 45be 0eb2 2c3f
00000020: f16a 373f b8bb 75bd 9bb9 d5be 271e acbe
00000030: f2d1 843e 406f f33d 6344 653e 4f91 db3e
00000040: 7224 cf3e 2e5c 323f 2e52 313e 5617 e9be
00000050: 5013 ae3e 8b18 b63d 8045 cbbe 9cd3 14bf
00000060: b4ae 0d3f d253 e6bd b202 e4bd a25d 2f3e
00000070: 8eaa 303e 1a2f bd3e 0250 40be 1c37 fb3e
00000080: 8173 89be a99c 993e 9e66 afbe 8cf8 05bf
00000090: 427e 2f3e 53e5 88be d5a6 133f 359a bdbe
000000a0: 63b8 293f 2959 023e 0682 60bd 43c6 2cbd
000000b0: 779a 17be de98 b0bd b918 82be 2654 16bf
000000c0: 0215 1ebe 7972 1abf 946b e4be 764a a23e
000000d0: d4d0 e2bd b8d0 843e 3301 18bf 8f8c 213e
000000e0: 7cc3 0abf e857 a43e 06c5 053e 87b8 f23d
000000f0: b0d1 b93b d15a fc3e 103e c3be e36f d8be
00000100: b6a0 d2be de75 7d3b 004a d83e 261b 4cbe
00000110: 4b46 843e 5903 f43d fb8a eebe 401f 31bf
00000120: 1b44 ca3d b0f0 6b3e 71ae 073f 69e6 a8be
00000130: 78d9 61be c2ce e3be b265 223f cb46 f2bd
00000140: f718 04bf 1bd4 08bf 1988 8d3f a07b f23c
00000150: b183 ccbe 30f0 053f 341c 973d a17a 053e
00000160: 5b87 b13e 36b4 48be 16ed 543e 6a54 a0be
00000170: 7e2c 153f 5d5f c43e f10b e9be fb1e 9abe
00000180: 5500 7dbe 0445 b9bd 766b abbe 3296 703e
00000190: ecf1 00bf c96d 9bbe 2d19 743d b26c 41be
000001a0: 8316 9abe f9db 87bf 0591 ad3e a107 0bbf
000001b0: 0974 de3e f55e 26bf 6973 08bf 5c0e f8bd
000001c0: 94ae a23e b2cc 1e3f fe1b 84be bc1b 683c
000001d0: f51a 083d 8a52 c93c 502c 0ebf d4ae bb3e
000001e0: 1c89 abbe cda3 783f ef38 61be 718a cc3d
000001f0: 12f9 ff3d e4b3 db3e 0408 333d bec0 a0be
00000200: a557 903e a0bb c73c b4b0 2d3c 1117 483f
00000210: f033 cabe 4597 d0bd e14e 0f3e 501a 95bd
00000220: d565 af3e 5bff da3e 20b2 88be 4e3d d93d
00000230: ba0e 5ebf a2a6 0c3f 7468 aabe b644 3a3f
00000240: 31dd 28bd 713b acbd b5eb d9bd 860c 06be
00000250: 1556 763f 150a a4be 17d8 253f 4bf2 42bf
00000260: b2d6 103e 5666 c93c f2a9 9dbe d1f0 d5be
00000270: 0a85 923e 473b 9e3d 7264 023d ebbb 9ebd
00000280: ff04 97be 9ee9 aa3e d070 fd3e f9a4 d43e
00000290: d11f af3e 9167 26bd f7cd b23e 92c1 c7be
000002a0: 9a5a 653e d657 023f dc33 0c3e f22e febd
000002b0: 6880 9abd d7a8 a2ba 1b61 8dbe 721a 903e
000002c0: 0262 6ebe d7b9 f2be 6c12 893d 26a4 56bc
000002d0: 899f 0b3f cfac 82bf 86e7 83be 0ae2 a23e
000002e0: e434 913e beb4 a4be ce8d 0ebf 5431 f33d
000002f0: c736 003d eeb5 82be 824a 703d b7c4 393e
00000300: 89eb a13e 4b55 9c3d 3025 453e de95 d5be
00000310: 5238 dfbe 3c03 46be 8ad9 82be 7d1d 673f
00000320: 3fa7 c2be 88d5 bc3c ead8 283f 3dbd 023c
00000330: cbcb 1c3e 3ab1 c5be 0df4 80be 0d8d 093e
00000340: f63d 1e3e 9934 fbbe ef68 39bf db44 ab3c
00000350: 716c b9be ad8a 083e 25e8 85bd c477 403f
00000360: 1be4 e4be 91a7 883e 9a5c 283c 1949 c8be
00000370: 311e c9be dc79 2abf f62e 433d b216 c6be
00000380: 2c0c af3d 2f93 8a3d 97a8 c4be 3a32 d73d
00000390: 3377 07be 825d 173f e9a5 10be b44e 01bd
000003a0: f348 e2be 41a4 e2bd 7350 b3bd c99c 67bd
000003b0: d008 c9be e79b 2c3e 1cf5 18bf 23bd 9bbd
000003c0: 6254 29bc 28b5 21be fb3d de3d d59b c8be
000003d0: 4b0e 9f3d cec5 61bf ae22 07bf 6b8a b03d
000003e0: 3d15 d43d ce92 2dbe 533d c3be 5dcd 8b3f
000003f0: a48e d63e d63a 183f b07c 57be 256e 18bf

network_body._body_endoder.seq_layers.0.bias f4 [128]
0.014187845 -0.012969956 0.0028006507 0.012421537 0.016395079 0.021185296 0.01345302 0.007450625
-0.0077086966 0.04504331 0.019706555 -0.019971991 0.044384837 -0.0031650064 0.026331361 0.042736225
-0.028788345 0.02941952 0.02687878 -0.0016244219 0.049040966 0.012468143 0.022729691 0.039388917
-0.011371197 0.028536228 -0.007941051 0.016184768 0.023669858 0.016347827 0.017653959 0.021640375
-0.0084382985 0.004321113 -0.013505482 0.027240051 -0.02089927 0.02937923 0.014990795 0.011259825
-0.0037611416 -0.025534643 -0.00922872 0.010264609 0.018566297 0.031014588 0.022462724 0.0039042453
-0.0169153 0.021379348 -0.021621615 0.027250074 -0.020296885 -0.0014073687 0.024060125 0.017559381
-0.010943016 0.015378932 0.01253924 -0.022821086 0.032503586 0.03272611 0.009325825 -0.018810304
-0.04166244 0.04263863 0.027823726 0.015856214 0.030261362 0.00078859396 0.023672111 0.015747443
-0.00027102674 0.031869985 0.00082573906 0.030959982 0.01299095 0.015572706 0.0042771352 -0.011766698
0.035631545 -0.06372282 0.037828162 -0.008087763 0.017760174 -0.01597516 0.006180731 0.013684216
0.03577545 -0.001897554 0.04290593 0.011610143 0.001262466 -0.032831386 -0.0022309958 0.034147177
0.048630495 0.037303038 0.037065107 0.021053487 0.018581698 0.024292622 0.037745755 0.009479861
-0.0012880599 -0.026289755 0.014021656 0.0035465793 0.035922673 -0.013750128 -0.028682342 -0.04812681
-0.0069695427 0.0357703 -0.02523675 -0.015293694 0.031215716 0.014147292 0.02374864 -0.014812839
-0.010459682 -0.008405053 0.032910265 0.021035928 -0.02312494 0.00020039322 0.033230152 -0.0088187745
00000000: 2374 683c f07f 54bc 1f8b 373b b483 4b3c
00000010: f94e 863c c98c ad3c 0e6a 5c3c 5f24 f43b
00000020: 3c99 fcbb 557f 383d a46f a13c 4d9c a3bc
00000030: e0cc 353d ff6b 4fbb deb4 d73c 2e0c 2f3d
00000040: 89d5 ebbc 3501 f13c e330 dc3c 8eea d4ba
00000050: 2edf 483d 2f47 4c3c 9e33 ba3c 4656 213d
00000060: 424e 3abc cfc4 e93c 2f1b 02bc eb95 843c
00000070: 4ae7 c13c e1eb 853c 099f 903c 2847 b13c
00000080: ca40 0abc 2098 8d3b 1946 5dbc 8726 df3c
00000090: f234 abbc b6ac f03c f49b 753c 217b 383c
000000a0: 7c7d 76bb 072e d1bc 0f34 17bc e42c 283c
000000b0: 5918 983c 4e12 fe3c bf03 b83c 5ede 7f3b
000000c0: f591 8abc be23 af3c d01f b1bc 8c3b df3c
000000d0: a745 a6bc 7577 b8ba bd19 c53c b1d8 8f3c
000000e0: 564a 33bc eaf7 7b3c 6271 4d3c 49f3 babc
000000f0: 7b22 053d d00b 063d 58cb 183c 1118 9abc
00000100: 3ca6 2abd d8a5 2e3d 95ee e33c e4e4 813c
00000110: ade6 f73c a5b9 4e3a 04ec c13c c800 813c
00000120: 9818 8eb9 1a8a 023d 6976 583a ca9f fd3c
00000130: fed7 543c aa24 7f3c 3627 8c3b 1cc9 40bc
00000140: 62f2 113d 1c81 82bd b4f1 1a3d 8982 04bc
00000150: c97d 913c 57de 82bc bb87 ca3b c333 603c
00000160: 4789 123d 59b7 f8ba 21be 2f3d 7838 3e3c
00000170: 5479 a53a 347a 06bd e635 12bb e9dd 0b3d
00000180: c530 473d 12cb 183d 95d1 173d 5d78 ac3c
00000190: a538 983c 5201 c73c 4b9b 1a3d 6b51 1b3c
000001a0: 1ed4 a8ba 9d5d d7bc 16bb 653c ba6d 683b
000001b0: a723 133d 3848 61bc 3bf7 eabc 9e20 45bd
000001c0: c360 e4bb e183 123d 4dbd cebc 6792 7abc
000001d0: 1ab8 ff3c 0bca 673c 828c c23c 8db1 72bc
000001e0: 165f 2bbc 59b5 09bc eacc 063d 8a53 ac3c
000001f0: 8470 bdbc a520 5239 571c 083d 9f7c 10bc

network_body._body_endoder.seq_layers.2.weight f4 [128, 128]
-0.15501796 -0.04373312 0.027844612 0.038907938 0.23847589 -0.036858473 -0.018554868 0.06522757
-0.07826785 -0.057256 0.08582489 0.08024172 -0.032096025 -0.06213819 0.13132048 -0.1199995
0.035621453 0.035825033 -0.12350761 -0.002835954 -0.18504879 -0.06417989 -0.012373279 0.123676285
-0.10139592 -0.0017010041 0.097146615 -0.089116745 0.10709015 -0.037142113 -0.0054823346 0.032843653
0.0011158531 0.0031894692 -0.15557101 0.096717276 -0.056638155 -0.021240938 0.08545782 0.004436506
0.061451282 -0.059578724 0.05492814 0.06596217 -0.0029525186 0.02126193 -0.12553592 -0.15885888
-0.11051559 0.04543095 -0.044762485 0.035127398 -0.04979645 -0.030458514 -0.025197072 -0.085453324
-0.10982563 -0.13717799 0.089198194 0.09375738 -0.019053496 -0.062068805 -0.002433185 0.058223203
0.008240121 0.0055116275 -0.13598062 0.0033405204 0.06727728 -0.13035882 -0.050650697 -0.016577866
0.079659745 0.027195903 0.028315747 0.0748862 -0.14996219 -0.06479401 0.110461585 -0.0064978525
-0.09523992 0.20395438 -0.09596156 -0.20035113 -0.05225593 0.16392405 -0.050252378 -0.073111005
-0.08435035 0.044501968 -0.08064095 0.26360422 -0.096644215 0.092547946 0.14544664 0.118128054
-0.103439644 0.079867415 -0.12010898 0.10170306 -0.032161236 -0.056613848 0.009529067 0.18296993
0.08275007 -0.0857807 -0.09211491 0.008633912 -0.08552135 0.10868405 0.044966716 -0.06480595
-0.034041833 0.16369554 0.05696155 -0.008981083 -0.022752902 0.15225218 0.12044667 0.02879932
-0.09073918 -0.1601345 -0.14698076 -0.064581014 -0.044023935 -0.022406824 -0.011193932 -0.056077626
-0.10309092 0.0013014772 -0.030882746 0.0010541365 0.13107528 -0.17167124 -0.049177736 0.06753104
-0.09950458 0.05203749 -0.12850171 -0.030635443 0.05120809 -0.03027731 0.109508045 -0.08536945
-0.016874379 0.10895492 0.07814022 0.051217444 -0.04441779 0.02782486 -0.048310183 -0.1007561
0.036456246 0.12627137 0.015105321 0.03756902 -0.23351243 0.05750877 0.012277447 0.08162107
0.03478511 0.08190759 -0.09408532 0.14618963 -0.06979814 -0.059067134 0.054579593 -0.011583027
-0.11102094 0.049176916 -0.03811497 -0.08079607 -0.04610713 0.022016762 -0.08155111 -0.00824178
0.075640604 0.08119966 0.17601581 0.0890005 -0.11595039 0.03247533 -0.22433569 0.13031793
-0.045011643 0.16763517 0.12575728 0.08422922 -0.114134915 -0.031196158 -0.027639193 0.016834512
-0.031353936 0.030048136 -0.18106405 0.08720259 -0.24197118 -0.14382549 0.06949827 -0.09947058
0.08574156 -0.08981136 0.15408283 0.055433694 0.03184461 -0.03182359 0.005001078 0.098370455
0.07141756 -0.13376588 0.009244896 -0.04718372 -0.041347366 -0.013519142 -0.04531746 -0.03218008
-0.044750456 0.016355766 0.16466664 0.031325147 -0.14926223 -0.11265237 0.09697911 -0.12045746
0.12702282 -0.059719574 0.11339323 -0.16101627 0.11166847 -0.1460475 0.11603165 -0.13843516
0.092774756 0.019800961 0.04153449 -0.04084627 0.008011823 0.059733104 8.327275e-06 -0.05411092
0.030118166 0.082947664 0.06964457 -0.016406542 -0.07505927 0.046651836 -0.14275278 0.10103013
0.019589638 -0.052588876 -0.0061557754 0.015292486 0.009411071 0.12892047 0.062006976 0.0066664265
00000000: 07bd 1ebe 8021 33bd 621a e43c ee5d 1f3d
00000010: 0633 743e e9f8 16bd 6100 98bc 0896 853d
00000020: e54a a0bd 4485 6abd f6c4 af3d c555 a43d
00000030: 1f77 03bd 9d84 7ebd e078 063e 4cc2 f5bd
00000040: cde7 113d 45bd 123d 8ff1 fcbd 6adb 39bb
00000050: 6e7d 3dbe bf70 83bd 4bb9 4abc fe49 fd3d
00000060: aaa8 cfbd 3af4 deba cef4 c63d d782 b6bd
00000070: 1552 db3d 5422 18bd 28a5 b3bb 1187 063d
00000080: d141 923a 6a06 513b 024e 1fbe b513 c63d
00000090: 69fd 67bd 7a01 aebc 8204 af3d 1c60 913b
000000a0: 57b4 7b3d d208 74bd 54fc 603d 2d17 873d
000000b0: 0b7f 41bb 802d ae3c 7d8c 00be e7ab 22be
000000c0: ff55 e2bd ce15 3a3d de58 37bd bfe1 0f3d
000000d0: 5df7 4bbd 2284 f9bc 176a cebc 2702 afbd
000000e0: 43ec e0bd 6378 0cbe 8bad b63d df03 c03d
000000f0: 1416 9cbc dc3b 7ebd 1276 1fbb 747b 6e3d
00000100: 9301 073c e29a b43b 813e 0bbe a2ec 5a3b
00000110: acc8 893d c87c 05be 1b77 4fbd 4ece 87bc
00000120: a624 a33d f1c9 de3c 6df6 e73c f05d 993d
00000130: b08f 19be b9b2 84bd af39 e23d f0eb d4bb
00000140: 260d c3bd 6bd9 503e 7f87 c4bd d928 4dbe
00000150: 500a 56bd b5db 273e 70d5 4dbd 39bb 95bd
00000160: e0bf acbd b247 363d 1527 a5bd 22f7 863e
00000170: 67ed c5bd c789 bd3d f7ef 143e 1fed f13d
00000180: 2ad8 d3bd 8791 a33d b2fb f5bd b249 d03d
00000190: 80bb 03bd ece3 67bd ce1f 1c3c 785c 3b3e
000001a0: de78 a93d cbad afbd bea6 bcbd 4075 0d3c
000001b0: d125 afbd be95 de3d 052f 383d fbb8 84bd
000001c0: 736f 0bbd ce9f 273e 8450 693d 6425 13bc
000001d0: 4b64 babc ffe7 1b3e beac f63d 8dec eb3c
000001e0: 77d5 b9bd 4cfa 23be 2082 16be 0d43 84bd
000001f0: 7152 34bd 848e b7bc c166 37bc a7b1 65bd
00000200: 5521 d3bd 5496 aa3a d0fd fcbc f42a 8a3a
00000210: 9938 063e 96ca 2fbe 986e 49bd b74d 8a3d
00000220: 0fc9 cbbd 4325 553d f495 03be 2ef7 fabc
00000230: 93bf 513d 1f08 f8bc c145 e03d 2ed6 aebd
00000240: 233c 8abc c223 df3d fb07 a03d 62c9 513d
00000250: 6eef 35bd f6f0 e33c e6e0 45bd 3759 cebd
00000260: 2553 153d 484d 013e 4f7c 773c f9e1 193d
00000270: e21d 6fbe 518e 6b3d 5827 493c f328 a73d
00000280: d57a 0e3d 2bbf a73d ceaf c0bd bcb2 153e
00000290: 54f2 8ebd 61f0 71bd da8e 5f3d bdc6 3dbc
000002a0: f25e e3bd bc6d 493d 711e 1cbd 6978 a5bd
000002b0: d4da 3cbd 7f5c b43c 4504 a7bd 8808 07bc
000002c0: 76e9 9a3d 024c a63d 7d3d 343e e545 b63d
000002d0: 6677 edbd da04 053d 41b8 65be 1072 053e
000002e0: 215e 38bd 8ea8 2b3e 84c6 003e 5f80 ac3d
000002f0: 91bf e9bd 168f ffbc 976b e2bc 88e8 893c
00000300: fc6c 00bd 8227 f63c db68 39be 4697 b23d
00000310: 4bc7 77be fd46 13be 1c55 8e3d 3bb7 cbbd
00000320: 4599 af3d 05ef b7bd e4c7 1d3e 710e 633d
00000330: 7e6f 023d 7459 02bd 15e0 a33b 7376 c93d
00000340: 5f43 923d ecf9 08be e777 173c b743 41bd
00000350: db5b 29bd 647f 5dbc cd9e 39bd 42cf 03bd
00000360: 414c 37bd 87fc 853c 5f9e 283e cc4e 003d
00000370: 33d8 18be 49b6 e6bd fc9c c63d 67b2 f6bd
00000380: 4512 023e 839c 74bd b63a e83d 73e1 24be
00000390: 70b2 e43d 7a8d 15be 00a2 ed3d f2c1 0dbe
000003a0: b100 be3d a035 a23c 1220 2a3d 6b4e 27bd
000003b0: 0544 033c b3aa 743d 60b5 0b37 69a3 5dbd
000003c0: 5fba f63c 77e0 a93d d0a1 8e3d 0367 86bc
000003d0: adb8 99bd ff15 3f3d c92d 12be e3e8 ce3d
000003e0: 737a a03c 6f67 57bd 63b6 c9bb 568d 7a3c
000003f0: e530 1a3c ba03 043e 07fb 7d3d 0a72 da3b

network_body._body_endoder.seq_layers.2.bias f4 [128]
-0.018636324 -0.020676736 -0.029426767 0.017144237 -0.032749325 -0.016913963 -0.014146366 -0.004667568
-0.03498679 -0.0058135493 0.027633699 -0.023632957 -0.037904996 -0.0094724605 -0.021064926 -0.010224433
-0.028664198 0.020212479 0.03062224 -0.019137997 -0.0068553113 -0.01770861 0.017082587 0.028958775
0.040046096 -0.0013436306 0.020012071 -0.024570253 0.029495182 -0.0061380174 -0.03259634 -0.012505261
-0.025180342 0.007740263 -0.02721609 0.0334707 0.0012812713 0.046379797 -0.029361466 0.027372213
0.0196672 -0.026409756 -0.021239527 0.0034914878 -0.0066931183 0.031742297 0.010537156 0.031114869
-0.01740537 -0.033253927 0.028997324 0.028006757 0.008547532 0.021832205 -0.03849137 -0.0065783244
0.046275795 -0.017583735 -0.009942568 0.015396132 -0.015506204 -0.004896215 0.034265738 0.022655116
0.033681814 -0.023173852 0.015535406 -0.0067584463 -0.012385438 0.00094882364 -0.0224741 -0.003295255
-0.016420709 0.031289548 -0.01784939 0.011161195 0.03554014 0.030818755 0.04160945 -0.038704827
-0.012177836 0.037559718 -0.027024584 -0.007900143 -0.03144872 -0.03455197 0.03824106 0.020655027
-0.02664995 -0.011254825 -0.030978795 0.012377666 0.034855034 -0.042279884 -0.007576496 -0.027458813
-0.020541903 0.039348513 0.028111795 -0.00084348774 -0.017738836 -0.018467862 -0.009803376 0.009899242
0.0092469435 -0.026868697 -0.022358917 0.033598352 -0.00020246279 0.030468725 0.008114941 0.0013966839
-0.015979448 0.045553114 0.036374025 -0.010903017 0.0056308997 0.033917733 0.01253951 0.017909369
0.0033312791 -0.024196872 0.031314004 0.022429291 0.02316477 0.028640823 0.02141128 -0.024999147
00000000: 34ab 98bc 4262 a9bc 6710 f1bc 1272 8c3c
00000010: 2824 06bd 278f 8abc 29c6 67bc 66f2 98bb
00000020: 4f4e 0fbd 967f bebb 1160 e23c e799 c1bc
00000030: 4542 1bbd 6132 1bbc 5a90 acbc 6184 27bc
00000040: 2ed1 eabc a494 a53c 7edb fa3c 4ac7 9cbc
00000050: 85a2 e0bb a611 91bc c8f0 8b3c f43a ed3c
00000060: 6007 243d c31c b0ba 5bf0 a33c 8e47 c9bc
00000070: e19f f13c 6c21 c9bb bd83 05bd dee2 4cbc
00000080: 0147 cebc 08a2 fd3b 47f4 debc 9318 093d
00000090: 55f0 a73a bef8 3d3d 7587 f0bc b13b e03c
000000a0: 1c1d a13c 4659 d8bc 84fe adbc 72d1 643b
000000b0: f251 dbbb 3604 023d 09a4 2c3c 9ce4 fe3c
000000c0: b595 8ebc 4535 08bd cc8b ed3c 6d6e e53c
000000d0: f30a 0c3c 74d9 b23c 20a9 1dbd fc8e d7bb
000000e0: b08b 3d3d c40b 90bc 27e6 22bc 0f40 7c3c
000000f0: bc0d 7ebc 6e70 a0bb 3b5a 0c3d 3997 b93c
00000100: f1f5 093d 17d7 bdbc 3788 7e3c f575 ddbb
00000110: 4bec 4abc 7aba 783a 9b1b b8bc 34f5 57bb
00000120: b984 86bc 7829 003d e238 92bc 72dd 363c
00000130: 8a92 113d 9d77 fc3c ac6e 2a3d f488 1ebd
00000140: 8c85 47bc 38d8 193d a962 ddbc 9a6f 01bc
00000150: 5fd0 00bd 5e86 0dbd a8a2 1c3d bb34 a93c
00000160: ff50 dabc 2866 38bc 3ec7 fdbc b2cb 4a3c
00000170: 27c4 0e3d ac2d 2dbd 4144 f8bb 4ef1 e0bc
00000180: 7e47 a8bc e82b 213d b54a e63c 811d 5dba
00000190: 0951 91bc ea49 97bc 579e 20bc 6e30 223c
000001a0: 7e80 173c be1b dcbc 0c2a b7bc 6d9e 093d
000001b0: 314c 54b9 8c99 f93c 88f4 043c ef10 b73a
000001c0: 55e7 82bc e795 3a3d eefc 143d 91a2 32bc
000001d0: 6983 b83b 52ed 0a3d 8472 4d3c abb6 923c
000001e0: 9751 5a3b 8538 c6bc 1d43 003d a2bd b73c
000001f0: 0bc4 bd3c 29a0 ea3c b566 af3c 03cb ccbc

action_model._continuous_distribution.log_sigma f4 [1, 2]
-0.043775473 -0.011968023
00000000: e94d 33bd 8715 44bc

action_model._continuous_distribution.mu.weight f4 [2, 128]
0.0056854133 0.0013258542 0.02218122 0.033366527 0.0013660219 -0.04272575 -0.031215278 0.047640823
0.0025214774 -0.030328082 0.0013936142 0.035591826 0.014613173 0.04234818 -0.03947402 -0.0022044012
0.0035463667 0.015022 -0.0130914515 -0.0076329005 -0.0032135826 -0.0047661383 0.010989199 -0.01489179
0.033736568 -0.024480214 -0.033412665 0.031373918 -0.010408996 -0.0068676253 0.0028464247 0.041559428
-0.01172235 0.04210899 0.0030983991 -0.0006907387 0.028633842 0.013304946 0.007477321 0.039120812
-0.032150555 0.0079720365 -0.014330956 -0.0057640714 -0.031077301 -0.024241034 -0.02572583 0.01812756
-0.03781557 0.011794755 -0.00484779 -0.024157245 0.043328833 -0.009628926 -0.005355682 -0.0029758252
0.0010689427 -0.022578372 -0.031090314 -0.013420673 -0.015790787 -0.023103816 -0.0343861 0.0011188483
-0.020841327 -0.03478504 0.04529304 -0.025394259 0.037158996 0.035150133 0.019997898 0.031271096
0.054549646 -0.019569617 0.025825297 -0.01495767 0.010932875 -0.008948958 -0.024609344 0.0053960276
-0.02317059 0.017858908 -0.026426267 -0.018667363 -0.0023480675 0.0061734323 0.0034294124 0.0077316333
-0.0049948944 0.02752086 0.003103604 0.013394464 0.0005480504 -0.000935235 0.016665969 -0.010756556
-0.0061286255 -0.0011970801 -0.0045649693 0.024651334 0.02287549 -0.024369074 -0.03517437 -0.056305133
-0.03356343 -0.011206755 0.007789266 0.014925273 0.03136711 -0.024373557 0.02531418 0.038641408
-0.017882222 -0.00026996923 0.015780982 -0.019522425 -0.04532533 0.020194957 0.021190235 0.0038495825
0.06605215 0.008544185 -0.033744678 -0.025958508 -0.008217366 0.0010470389 -0.02879642 -0.008840782
-0.007888994 0.0018643733 -0.022533663 0.02737646 -0.05204467 -0.07113312 -0.028878665 0.0028553908
-0.028521838 -0.008726738 0.046882205 -0.018435106 -0.0050295503 -0.011687333 -0.042822044 -0.0045519248
-0.033522 0.016109193 0.001224327 -0.0023395543 -0.006505865 -0.02255173 0.01975756 0.01628536
0.059409726 0.014845557 0.024168482 0.01175927 0.012320131 -0.015174457 -0.030790761 -0.0152297625
-0.0061924593 0.025273014 -0.027285568 0.009146767 0.013906492 0.045766976 -0.025830122 0.044831205
-0.0035304585 -0.023489038 -0.027912233 0.009592815 -0.024471113 0.005845763 -0.010421249 0.04024352
-0.03910306 0.005574499 0.016992526 3.4173667e-05 0.0078013293 -1.4847704e-05 -0.027654814 -0.0092384815
0.04967374 -0.044905275 -0.012593286 0.004188037 -0.028109381 0.0011568241 0.045658663 0.019956287
0.011198998 -0.06286833 0.02787261 -0.026214106 -0.007626589 0.011609971 -0.025431393 0.010619781
-0.015079343 0.0399443 -0.008468705 0.01920335 0.028193612 0.020537924 -0.0029512288 0.0078115435
-0.018777657 0.06573147 -0.035741035 -0.0021761027 -0.041248336 -0.01500675 0.045356113 0.043020397
-0.018124992 0.008141452 -0.010267421 0.019683674 0.03511065 -0.027513739 0.002052943 -0.012182622
-0.01818205 0.031252183 0.042818487 0.019797789 -0.020368794 -0.03542944 -0.028643386 -0.03734697
-0.005840572 -0.02342964 0.008410326 0.041621774 0.008206998 0.010068719 0.023575261 0.011559049
-0.039294563 0.0378771 0.035917263 -0.020599918 -0.029772744 0.058895875 0.01658161 -0.008849173
0.0044248267 -0.0025312114 -0.009228988 0.019953756 0.011307038 0.043576244 0.035818048 -0.032097124
00000000: b44c ba3b 49c8 ad3a 64b5 b53c 57ab 083d
00000010: 170c b33a 3201 2fbd 2fb7 ffbc 0623 433d
00000020: 5f3f 253b 9972 f8bc efa9 b63a bcc8 113d
00000030: 176c 6f3c 4975 2d3d 83af 21bd b777 10bb
00000040: 296a 683b d61e 763c 877d 56bc 691d fabb
00000050: f89a 52bb 442d 9cbb 0b0c 343c b2fc 73bc
00000060: 5b2f 0a3d bb8a c8bc b8db 08bd f081 003d
00000070: 7e8a 2abc d109 e1bb 158b 3a3b 383a 2a3d
00000080: 190f 40bc 7a7a 2c3d 830e 4b3b b112 35ba
00000090: 8591 ea3c fdfc 593c 5104 f53b 253d 203d
000000a0: 4db0 03bd 259d 023c 63cc 6abc 89e0 bcbb
000000b0: d395 febc 2295 c6bc fabe d2bc 4080 943c
000000c0: 80e4 1abd ca3e 413c 36da 9ebb 6ae5 c5bc
000000d0: 9379 313d a5c2 1dbc b87e afbb 1006 43bb
000000e0: c41b 8c3a 47f6 b8bc 1db1 febc 62e2 5bbc
000000f0: ae5b 81bc 3744 bdbc 70d8 0cbd 52a6 923a
00000100: 6ebb aabc c27a 0ebd 3285 393d 9f07 d0bc
00000110: 0834 183d 96f9 0f3d a2d2 a33c 1f16 003d
00000120: 736f 5f3d 7650 a0bc 938f d33c 0411 75bc
00000130: cd1f 333c a69e 12bc 8999 c9bc 29d1 b03b
00000140: 40d0 bdbc d84c 923c e67b d8bc 4cec 98bc
00000150: 09e2 19bb 814a ca3b febf 603b a459 fd3b
00000160: 36ac a3bb 6d73 e13c d665 4b3b 7474 5b3c
00000170: 0aab 0f3a 8f2a 75ba 1287 883c 443c 30bc
00000180: a3d2 c8bb 58e7 9cba bd95 95bb 98f1 c93c
00000190: 6165 bb3c a7a1 c7bc 0013 10bd 36a0 66bd
000001a0: cf79 09bd 8a9c 37bc 193d ff3b 2289 743c
000001b0: cc7a 003d 0eab c7bc af5f cf3c 7446 1e3d
000001c0: bd7d 92bc a88a 8db9 1e47 813c 7eed 9fbc
000001d0: 0ea7 39bd e56f a53c 2597 ad3c 4749 7c3b
000001e0: 5a46 873d e9fc 0b3c dc37 0abd f0a6 d4bc
000001f0: 22a2 06bc cc3c 893a 78e6 ebbc edd8 10bc
00000200: d740 01bc fd5d f43a 8498 b8bc 9944 e03c
00000210: cb2c 55bd 3eae 91bd f392 ecbc 8221 3b3b
00000220: a1a6 e9bc 98fa 0ebc 8e07 403d 3805 97bc
00000230: edce a4bb 3a7c 3fbc 2b66 2fbd 5028 95bb
00000240: 5d4e 09bd 6df7 833c 9979 a03a 3553 19bb
00000250: 272f d5bb 68be b8bc 9bda a13c e068 853c
00000260: 9d57 733d c73a 733c fbfc c53c f4a9 403c
00000270: 60da 493c 499e 78bc e83c fcbc 4186 79bc
00000280: 1dea cabb 5a09 cf3c fc85 dfbc 52dc 153c
00000290: 0ed8 633c 2776 3b3d b199 d3bc eda0 373d
000002a0: 445f 67bb 156c c0bc 32a8 e4bc 2f2b 1d3c
000002b0: a577 c8bc d08d bf3b e3bd 2abc 64d6 243d
000002c0: 882a 20bd 49aa b63b e933 8b3c b255 0f38
000002d0: 4ba2 ff3b 671a 79b7 598c e2bc 005d 17bc
000002e0: b176 4b3d 98ee 37bd 1254 4ebc cd3b 893b
000002f0: a545 e6bc 93a0 973a 9404 3b3d 5e7b a33c
00000300: 017c 373c 1cc1 80bd 1a55 e43c f7be d6bc
00000310: 77e8 f9bb bf37 3e3c 7f55 d0bc 97fe 2d3c
00000320: 590f 77bc a29c 233d 53c0 0abc 5850 9d3c
00000330: 4af6 e63c 263f a83c 6769 41bb faf7 ff3b
00000340: 9ad3 99bc 399e 863d 3165 12bd f29c 0ebb
00000350: 04f4 28bd dfde 75bc 55c7 393d 2836 303d
00000360: dd7a 94bc ba63 053c af38 28bc a83f a13c
00000370: 2fd0 0f3d 7e64 e1bc ab8a 063b 9f99 47bc
00000380: 86f2 94bc 4a02 003d 7062 2f3d f92e a23c
00000390: 75dc a6bc 761e 11bd 89a5 eabc 23f9 18bd
000003a0: 4562 bfbb 84ef bfbc 77cb 093c 987b 2a3d
000003b0: a576 063c 45f7 243c e820 c13c 2a62 3d3c
000003c0: 56f3 20bd 0525 1b3d fb1d 133d 29c1 a8bc
000003d0: f8e5 f3bc cd3c 713d 28d6 873c 1ffc 10bc
000003e0: 23fe 903b aee2 25bb 2e35 17bc 0f76 a33c
000003f0: 2841 393c 017d 323d f2b5 123d 4678 03bd

action_model._continuous_distribution.mu.bias f4 [2]
-0.0011072381 0.03270751
00000000: bf20 91ba 4ff8 053d

onnx::Div_51 f4 [7]
0.11614747 0.0061841607 0.20735049 1.1370027 0.39085856 0.0061841607 0.4063977
00000000: bade ed3d 80a4 ca3b b053 543e 4e89 913f
00000010: 9d1e c83e 80a4 ca3b 5c13 d03e
