Config/results/test_v1/SecurityGuard/SecurityGuard-13242.pt (torch, 448143 bytes, 44 tensors)

network_body.observation_encoder.processors.0.normalizer.running_mean f4 [7]
00000000: 8253 203f 0000 0000 e397 cc3e b085 2e41
00000010: 9516 823b 0000 0000 c807 843b
0.6262742 0.0 0.3995963 10.907639 0.003969977 0.0 0.004029248

network_body.observation_encoder.processors.0.normalizer.running_variance f4 [7]
00000000: c967 8d45 0000 803f 4248 b044 ae5a fa47
00000010: bbae a545 0000 803f 0b3b 9245
4524.973 1.0 1410.258 128181.36 5301.8413 1.0 4679.3804

network_body.processors.0.normalizer.running_mean f4 [7]
00000000: 8253 203f 0000 0000 e397 cc3e b085 2e41
00000010: 9516 823b 0000 0000 c807 843b
0.6262742 0.0 0.3995963 10.907639 0.003969977 0.0 0.004029248

network_body.processors.0.normalizer.running_variance f4 [7]
00000000: c967 8d45 0000 803f 4248 b044 ae5a fa47
00000010: bbae a545 0000 803f 0b3b 9245
4524.973 1.0 1410.258 128181.36 5301.8413 1.0 4679.3804

network_body._body_endoder.seq_layers.0.weight f4 [128, 7]
00000000: 12bd b23e 47d5 1f3d 69b5 55bf 7e90 3dbd
00000010: 2d20 38be 84a4 e53e 44d6 fb3b c66e 32be
00000020: b6fc 72be 1e0b 38bd dbac a53e 31a7 d83e
00000030: c3af 07be 9316 693d 77f3 8abc 87e2 843f
00000040: 8ee5 323d a8ee 213e 5456 3dbe 3b4c 9f3e
00000050: b0dc 1e3e 649f 433d 252a babe 818b 933e
00000060: 7c4e f1be 270d 893d e8f1 2f3e 83a4 4ebf
00000070: 1540 2bbc fb65 1a3f b4cc b43d 20bb 503e
00000080: 5fbb 7cbd 18d5 4c3d e393 a23d 4b8c aa3d
00000090: 9d93 86be 1b09 25bf 8a25 e0be 3cdb 21be
000000a0: 479b c73d 6425 7a3e e137 433f 4f17 c8bd
000000b0: c1bc aabe 3623 863e a076 d03e a0e2 bbbc
000000c0: c3fe a83d 740c 1dbe 3e06 bdbe d025 13bf
000000d0: 45b3 233f a42f aa3d 8050 bdbe ce62 b33e
000000e0: 28e8 8ebe 466a 8fbe 81ab 94be 1bfb 0ebe
000000f0: 5e47 fcbd 9175 1abf 471d 1fbf 3e6d bb3e
00000100: 4cc9 563e f172 a83e f46e 513e 543e b53e
00000110: 6447 df3e ef98 183e 9caf d23c 1c25 353e
00000120: bb56 6abd bb9a dcbb 30d1 6cbe 9895 febc
00000130: 216c 99be 747d c73e f7c8 5fbe 518e 05bf
00000140: a50b 26be aa30 54bd d2ab 87be 3044 41be
00000150: b346 6e3f cc65 c8bd e67b 6c3c f4f0 353f
00000160: 04ec 733e 46fb 14be 6b39 e2be 260c 693d
00000170: 36cc 3ebe 872e 12bd b5cf 363f db0d 043e
00000180: 0a8d cc3d 871d 433e 3723 04bf c991 05be
00000190: 6706 03bf c7c2 f0be 5d89 4b3e 8b53 943d
000001a0: fc06 0e3f 107e 393e 8211 efbe 5b32 143f
000001b0: 372f b43e d10b d4be 4cf7 4dbd 270c 4abf
000001c0: c7d1 403e a3fd b9be 345b 63bf 4f8b aabe
000001d0: 0c84 d5be c9f4 683d 92ee f33e fcab 4fbf
000001e0: 5c8f 993d 0a3f 09bf 39bd e43e ed79 bb3e
000001f0: 16ef e4bc 6072 d53e fa46 16be 03a0 e4be
00000200: 25e0 3d3d 3ef6 0e3d ab5b 873d 64f4 1a3e
00000210: d325 083f 3ed9 2fbe 2628 d6be 8548 e23e
00000220: 7962 d83d b9b2 cd3e e897 de3d aba6 133b
00000230: 09b0 06be 915f 8a3e ce47 973e 3c90 c0bd
00000240: ca65 62be e730 ecbd f910 0d3e 3d87 0ebf
00000250: ac6c fa3c 4871 1a3e 3b99 883e 706b 8cbd
00000260: adaa 01be bcab 283f 31cd 01bd 6a50 f43d
00000270: ab22 543d 4440 f8bd d9c4 963e 50b1 cb3e
00000280: 3895 26bf e743 7d3e 28ec da3e 5634 cd3d
00000290: 4074 d0bd 72b8 febe f310 043f 67cc 7dbe
000002a0: 551e 28be 6027 f63e 93f5 ba3e 241c 72bf
000002b0: cc1f c43e 5be7 593e f521 fa3d f1c4 86be
000002c0: 2633 583f 33d3 08be 3eaf d3bd 7435 4abe
000002d0: bf6d 36be 8ea6 0e3d 60a6 f63e 25d0 913e
000002e0: 3ecd 9ebe 52c7 bc3e 4d61 c23d 0d4d 0fbe
000002f0: 8dc9 bebe c6f6 21bf ddba 343f 22bc bfbe
00000300: e897 8c3e 3aad a2bd c1e8 2dbe 8556 b93e
00000310: fed0 c73e f6e9 483d e0a7 8cbe 2703 25bf
00000320: 18c2 c53e 73bf c5bd 1335 033f 4392 a73e
00000330: df5b d8bd 3735 dd3e 7cc6 e9be 5ca3 523f
00000340: f4d4 81be 4e4b 023f 7a48 b8bc 8308 043f
00000350: 38e1 cfbc 41f6 4ebf 3dc4 e8bd b807 44be
00000360: 7892 5fbd bd04 b43e bd9e 573e fd3b 2cba
00000370: b752 ed3e eca8 40bd 1ab4 b6be 72fa c83e
00000380: 3a07 82be b5ef c6be 875d bc3e 85aa f33d
00000390: abef 663e 321c 17be 9f71 683f 106c c3be
000003a0: f7e5 09bf 0aa9 08bd 14f1 c9bd 96d4 52be
000003b0: c95a 2bbe 38c7 6abe 64b4 df3d b488 f93e
000003c0: 2e8a de3e 1c03 cd3e 9811 143d ec0f 16bf
000003d0: 2478 e53e 08e5 abbe fd64 86be e57b 4abd
000003e0: 113d 633d 75b7 0abf 79fb abbd 4701 913e
000003f0: 6cbb 17bf 48dd d5be 302a abbe 6ba5 84bf
0.34909874 0.039021757 -0.83479935 -0.046280377 -0.17981024 0.44852078 0.0076854546 -0.17425069
-0.23729214 -0.044932477 0.3235844 0.42315057 -0.13250642 0.056906294 -0.016961796 1.0381631
0.04367595 0.15813696 -0.18489963 0.31112847 0.15513873 0.04775943 -0.3636028 0.2881737
-0.4713019 0.06691962 0.17182124 -0.80719775 -0.01045229 0.6031186 0.088281065 0.20383883
-0.06170213 0.05000791 0.079383634 0.0832754 -0.26284495 -0.6446702 -0.4377864 -0.15806288
0.09746414 0.24428326 0.7625714 -0.09770071 -0.33347133 0.2619874 0.40715504 -0.022935212
0.08251717 -0.15336782 -0.36918825 -0.5747957 0.6394542 0.08309868 -0.3697548 0.3503632
-0.27911496 -0.28010768 -0.29037097 -0.13962977 -0.123183 -0.6033564 -0.6215405 0.36606783
0.20975226 0.32900193 0.20452482 0.35399115 0.43609154 0.1490209 0.025718503 0.17689937
-0.05721162 -0.0067323125 -0.23126674 -0.031077191 -0.29965308 0.389629 -0.21854006 -0.5217028
-0.1621538 -0.051804222 -0.26498276 -0.18873668 0.9307663 -0.09785041 0.014433837 0.7107079
0.23820502 -0.14548978 -0.4418443 0.05689635 -0.18632588 -0.035688903 0.71410686 0.1289591
0.099878386 0.19054233 -0.51616234 -0.13043894 -0.51181644 -0.47023603 0.19876619 0.07242497
0.5547941 0.18114495 -0.46693045 0.57889336 0.35192272 -0.41415265 -0.05028467 -0.78924793
0.18830024 -0.36326322 -0.8881104 -0.3330941 -0.41702306 0.05687407 0.47642952 -0.811218
0.07498047 -0.53611815 0.44675615 0.3661646 -0.027946036 0.41688824 -0.14675513 -0.4465333
0.04635634 0.034902804 0.06609281 0.1513229 0.53182715 -0.17172715 -0.41827506 0.44195953
0.10565657 0.40175417 0.108688176 0.0022529762 -0.1315309 0.27026036 0.2954697 -0.094025105
-0.22109142 -0.11532765 0.13776006 -0.5567511 0.030569397 0.15082276 0.26679406 -0.068564296
-0.12662764 0.65887046 -0.031689826 0.119294 0.051790874 -0.12121633 0.29447058 0.39783716
-0.6507144 0.24732934 0.42758298 0.10019748 -0.10178423 -0.49750096 0.5158836 -0.24785005
-0.16417821 0.48076916 0.36515483 -0.9457419 0.3830551 0.21279661 0.12213508 -0.2632213
0.84453046 -0.13361816 -0.10336159 -0.19746953 -0.17815302 0.034826808 0.4817381 0.28479114
-0.31015962 0.3687082 0.09491215 -0.13994236 -0.37263146 -0.6326717 0.7059763 -0.3744822
0.27459645 -0.079431966 -0.1698332 0.36198822 0.39026636 0.049051248 -0.27471828 -0.64457935
0.38624644 -0.09655657 0.5125286 0.32728776 -0.10564398 0.43204662 -0.45659244 0.82280517
-0.25357783 0.50896156 -0.022495497 0.5157549 -0.025375947 -0.80844504 -0.113655545 -0.1914357
-0.054583043 0.35159865 0.21056648 -0.0006570218 0.4635217 -0.047036096 -0.35684282 0.39253575
-0.25396138 -0.38854757 0.36790106 0.118977584 0.22552364 -0.1475685 0.9079837 -0.38168383
-0.53866524 -0.033364333 -0.09860435 -0.20588908 -0.1673385 -0.22927558 0.10923079 0.4873711
0.43464798 0.40041435 0.03614959 -0.58618045 0.44818223 -0.33573174 -0.26248923 -0.04943456
0.05547816 -0.54186183 -0.08397574 0.28321287 -0.5927036 -0.41770387 -0.33430624 -1.0362982

network_body._body_endoder.seq_layers.0.bias f4 [128]
00000000: cfab 0a3d e1d4 213d 222d c8bc ac3b 01bd
00000010: 3258 02bd a09f c3bc fb29 553d e64f b83c
00000020: be89 2dba 6a68 093d e0fc 38bd 5aa7 823c
00000030: 2f6d 663d 0a4a 823d 306a 5b3c adc5 413c
00000040: 46db d13b 08ce babc 337a c63c fda8 213d
00000050: 283f 14bc 9271 22bc 232a 28bd bf2c 86bb
00000060: 7ff1 8fbc f8df 0abd 1ffe 013d 141f cabc
00000070: 1585 223d 7570 dd3c a91a e7bb a770 6d3d
00000080: a088 1d3d 3a06 01bd 3bdd 9c3c 9cd1 10bd
00000090: 13f0 18ba 6dcc 6dbc 0127 d43c 4a42 e4bc
000000a0: b7f2 ef3c 1b47 dbbc 0159 593c 8fcd e5bc
000000b0: 132f 14bd 8326 123c 0512 edbc db78 f23c
000000c0: e9bf a93c 2bf8 28bd 49f0 783a 57e0 063c
000000d0: 0076 febc 78bc 7a3a 4ca1 003d ca81 1dbd
000000e0: a25f cdbc 5a9c 233d 4e57 e8ba ac0a 223c
000000f0: 4092 863c 81f4 fb3c 22d3 4c3d 6d89 a63c
00000100: bfc3 053d d10f 2d3c 5554 e2bc 9587 24bc
00000110: f4cd edbc 9bbd 69bc 0934 623d e5f0 2e3d
00000120: bfb5 c83c 4529 3ebd b437 8b3c afe6 783d
00000130: 4af4 b0bb 6a2f 04bc 4f1d e1bc 7ae1 19bd
00000140: ad61 4dbd f8a0 26bc 0782 c23b 31f0 21bc
00000150: af0f 66bb 2455 1f3d 8fb1 aabc ea0b 68bc
00000160: 08c3 423d 75e8 d7bb dabb 69bb 32dd 703c
00000170: d915 2dbc 975d 433c c8f1 e7bc 468f 14bc
00000180: 4e73 b0bb ccfe 9ebc ee44 8ebb dcf5 94bc
00000190: 3201 883c fd02 f1bc a037 143d 92f4 1d3c
000001a0: d391 c5bc b0cb bd3c 0b99 7dbc a412 50bc
000001b0: d085 f7bb 50a4 413d 7254 55bd 260e 0fbd
000001c0: 0d2f ec3c 8f07 333d f2d1 c93c 3aff 3b3d
000001d0: 77e1 2ebc 0661 18bd 6881 2b3b f0d5 383d
000001e0: 1a01 4f3d c89d c53c 5635 7dbb d12d 3ebc
000001f0: 1526 ce3b 588c 253c 59a7 8d3d 13b5 e7bb
0.033855256 0.039509658 -0.024435584 -0.03155105 -0.03182239 -0.023879826 0.05204199 0.022499036
-0.00066199515 0.033546843 -0.045163035 0.01594894 0.05625647 0.06361778 0.013392016 0.011826915
0.0064043133 -0.022803321 0.024228191 0.0394678 -0.009048261 -0.009914773 -0.04105581 -0.0040946896
-0.017571209 -0.033905 0.03173649 -0.024673022 0.0396777 0.027031163 -0.0070527387 0.05796876
0.038460374 -0.03150008 0.01914846 -0.03535615 -0.00058341137 -0.014514071 0.025897505 -0.02786364
0.02929054 -0.026767304 0.013265849 -0.02805212 -0.036177706 0.008920315 -0.028939256 0.029598644
0.020721393 -0.041252296 0.00094962545 0.008232198 -0.031062126 0.0009564827 0.031403825 -0.038453855
-0.025070015 0.03994403 -0.0017726214 0.00989024 0.01642716 0.030756237 0.05000604 0.020329202
0.03265738 0.010562853 -0.027628103 -0.010042091 -0.02902887 -0.014266397 0.055225406 0.042710204
0.024500726 -0.046426076 0.016994335 0.060766872 -0.0054002153 -0.008067945 -0.027479796 -0.037568547
-0.05014198 -0.010170214 0.0059359106 -0.009883926 -0.0035104563 0.038899556 -0.02083662 -0.014162997
0.047549278 -0.0065889903 -0.0035664947 0.014701175 -0.010564291 0.011924169 -0.028313532 -0.009067362
-0.005384839 -0.019408606 -0.004341713 -0.018183641 0.016602132 -0.02942037 0.03618586 0.00964083
-0.024117386 0.023168415 -0.015478383 -0.012699757 -0.0075537935 0.04727584 -0.052082486 -0.034925602
0.02883103 0.04370838 0.024636243 0.0458977 -0.010673872 -0.037201904 0.0026169661 0.0451259
0.05053816 0.024123088 -0.0038636527 -0.011607603 0.006291161 0.010104261 0.06916685 -0.0070711463

network_body._body_endoder.seq_layers.2.weight f4 [128, 128]
00000000: cb65 e6bb 9a72 2a3d bd3c aebd d200 4d3d
00000010: 057a f73c b2d2 ab3d dd13 75bd ad99 6fbd
00000020: ebb6 663d d98c dd39 4992 253e 4018 82bd
00000030: 19a3 d73c dc8f 2a3c bdff d8bd 5fef b73d
00000040: 27a9 1bbc 00a1 2c3d 5d3a fd3d d459 3e3d
00000050: 70b2 a93d 0005 013e 065e 7d3d db5e e4bd
00000060: 2e79 043e 38bf 38bd ef20 333e 583b 9c3d
00000070: 99d4 143c e787 943d fd93 90bd b698 c2bd
00000080: 1b50 dc3c 8b70 15be 0b99 68bd b2c5 b93d
00000090: 2fcd 943d 3aed 6d3e 2b32 43bd b515 41bd
000000a0: db1b 25be 9f8a 0bbe 71d2 68bd 8efe d93d
000000b0: 9be3 d43d 7f29 943d 199e 0dbd 73de 043d
000000c0: b9e8 8c3d 2ddd 6d3e 8d7d 123d a6d6 bbbd
000000d0: 9b3c e0bd b367 dfbd c35e bcbb 0905 c13d
000000e0: 0e38 fb3d 5579 3e3e d903 b5bd 78b4 0d3e
000000f0: 5bcd 923d 1462 693d 44ad 65bd efd4 533a
00000100: 0b68 23bd 9da9 3dbe 570d 08bb a371 b33c
00000110: eab1 2cbe a7a5 8fbd 90c3 bfbd d092 5abe
00000120: f8ed bd3d 1d1e 91bd f450 98bb bde7 e8bd
00000130: 3d4d bcbd 57ac 95bb a99b 9c3d bb33 713c
00000140: e253 b43c fdca c6bd 877a 293e 9809 2dbe
00000150: 995e 963c eae3 bbbd fd58 d43b 9431 0f3e
00000160: 761b 003e d7ff 123d 4960 d03c 9154 a5bc
00000170: 30d5 3dbd 601b 8fbd 8edd 8abc 1624 d93c
00000180: e75f 603d 6120 9abc a67a 28be a922 b6bd
00000190: 0ecd 243d 68ec 913d a741 0abe 1f73 383c
000001a0: e866 893d a88d d3bd 7c3e d8bb aa40 27be
000001b0: c936 ba3d a5cb 493c 7e5c afbb 9afe fabd
000001c0: b4b8 68bd 82cc 8abd 1294 313d aa2f fdbc
000001d0: 18b2 99bc 4ca5 33bd d2f7 383e 7692 babd
000001e0: fa01 8bbc 8cfd eb3b 7a37 2ebe 881b 493e
000001f0: d439 3d3c d440 ac3c 1c40 cb3d 9103 0cbe
00000200: a7fd 803d 8421 1cbb dbf6 a43c 1f95 afbd
00000210: 1928 c03d 76b4 f4bd ee99 a3bd 75e1 94bd
00000220: 0353 52be 70b0 dfbd 3c50 233d b8d3 ebbc
00000230: c333 bc3d 5d2c 9fbb 244e 1dbd 19df b23d
00000240: 111c 65bd 4b52 bc3a 6e16 3d3d cca6 1fbe
00000250: a8d9 f63c acd0 b6bd 1cd9 89bc 5764 9c3d
00000260: ec7e 763d df98 c5bd e0dc 363e 9f33 5ebd
00000270: 0363 3abd 20dd 483e b773 9ebd 4ba6 adbd
00000280: c72d 673e f028 0dbe a20d 393e 164e b9bd
00000290: be91 c43c a076 2fbd 769f 36bc c548 1f3b
000002a0: 5294 05be 43ad 87bd 9915 d2bd 7b76 39bd
000002b0: ac04 b1bd 20fb 913d 35e9 c13d 7d95 71bd
000002c0: f698 b53c e40d 4c3d b41c 573d 0bc0 793d
000002d0: 4e6b e1bd 737c 743d 3842 683d 17ed 7b3b
000002e0: 79ff 463d 0ac7 f53d d360 853d bb0d 913c
000002f0: 1434 12bb 9dcb 943d 8580 143e 9e3d 213e
00000300: 5383 883d a05a 303d 1754 463e 878d 3bbd
00000310: 055f 783d 7f9c 8c3b a60a 62bd b8ae 833b
00000320: 3b15 a03d 62d1 90bd 1571 24bd 54b9 f4bd
00000330: bd88 0a3e cd50 083e 2050 43bc 086d 4e3e
00000340: 23d9 91bc fcaf a9bd f8af cb3c 9289 8a3c
00000350: 2d01 823c fddf bbbc bf13 d03c 4295 6abd
00000360: 31a8 ad3d 614c c03d 6cef dcbc 598c bd3d
00000370: bc57 dcbd e6dc 0a3e c1a4 133c e067 b9bd
00000380: 1f4b 3e3d 87ec 88bb 61a9 bbbd 4d07 74be
00000390: 1310 22bd 0ce2 e2bc f3b8 b83d 9c07 993d
000003a0: c393 a3bd d026 23bc c866 bcbd 7f1c 4b3c
000003b0: 3e56 7f3d b022 a1bd 1c81 88bd 9387 823d
000003c0: 5bec 793c cce3 48bd bc73 663d e343 0f3d
000003d0: f15e 11be 18cf 0c3e a9a7 063e f68a 053e
000003e0: 516e 9bbb a193 e0bd 2c2d 21be efb2 123e
000003f0: e27e 07bd 4b0c e8bc 39ab e53d f1d0 0f3e
-0.0070311776 0.0416132 -0.08507679 0.05004961 0.03020955 0.08389796 -0.059833396 -0.058496166
0.056326788 0.00042257344 0.16169085 -0.063522816 0.026322888 0.010410275 -0.10595653 0.08981203
-0.009500778 0.04214573 0.123646475 0.046472386 0.082859874 0.12599564 0.061857246 -0.11150905
0.12936851 -0.045104235 0.17493032 0.076285064 0.00908389 0.07252484 -0.070594765 -0.095017835
0.026893666 -0.14593713 -0.05678658 0.090709105 0.07265698 0.23235026 -0.047655266 -0.047139842
-0.16123907 -0.13627099 -0.056841318 0.106442556 0.10394975 0.07234477 -0.0345746 0.032438707
0.06880326 0.23228903 0.035764266 -0.091718 -0.109490596 -0.10908451 -0.005748601 0.094247885
0.12266551 0.18600972 -0.088386245 0.13838375 0.07168075 0.0569783 -0.056073442 0.0008080741
-0.039894145 -0.18521734 -0.0020759904 0.021904772 -0.16864744 -0.070140176 -0.093634725 -0.21345067
0.092739046 -0.07085822 -0.0046483222 -0.113723256 -0.091944195 -0.0045676637 0.07646877 0.014721806
0.022012655 -0.09706686 0.16550647 -0.16898191 0.018355655 -0.091743305 0.006480335 0.13983756
0.12510476 0.03588852 0.025436537 -0.020181926 -0.04634589 -0.06987643 -0.016951349 0.026506465
0.05477896 -0.018814268 -0.16453037 -0.0889333 0.040234618 0.07125169 -0.13501607 0.011257916
0.06709081 -0.10329753 -0.0065992456 -0.16333261 0.09092481 0.012316619 -0.005351602 -0.12255593
-0.05681677 -0.06777288 0.0433541 -0.030906517 -0.01876168 -0.04385881 0.18063286 -0.091099665
-0.016968716 0.007201856 -0.1701335 0.19639409 0.011549432 0.021027006 0.09924337 -0.13673235
0.0629838 -0.0023823688 0.020137241 -0.085733645 0.09382648 -0.11948483 -0.07988344 -0.07269565
-0.20539479 -0.10922325 0.03987144 -0.028787479 0.0918956 -0.0048575834 -0.0384046 0.08733959
-0.05593497 0.0014367787 0.04616397 -0.15590972 0.030133083 -0.0892652 -0.016827159 0.07636326
0.060179636 -0.096482985 0.17857695 -0.05424845 -0.04550458 0.19615602 -0.077369146 -0.084789835
0.22576056 -0.13785148 0.18071607 -0.09048097 0.023995277 -0.04283774 -0.011146417 0.0024304849
-0.13044861 -0.06624844 -0.10258026 -0.045279007 -0.08643469 0.071279764 0.09468309 -0.058980454
0.022167664 0.049817935 0.052517608 0.060974162 -0.11006795 0.059688997 0.056703776 0.0038440877
0.04858348 0.12000854 0.065126084 0.017706743 -0.0022308873 0.07265399 0.14502151 0.15746161
0.06665673 0.043055177 0.19368015 -0.045789268 0.060637493 0.0042911167 -0.055185936 0.004018631
0.078165494 -0.070711866 -0.040146906 -0.11949411 0.13528724 0.13312073 -0.011920959 0.2015878
-0.017803734 -0.082855195 0.024864182 0.016911302 0.015869701 -0.022933954 0.02540004 -0.05727125
0.084793456 0.09389568 -0.026969634 0.09255285 -0.107589215 0.13560829 0.009011448 -0.09053016
0.04645836 -0.004178587 -0.09163166 -0.2383091 -0.03956611 -0.027695678 0.09019651 0.074721545
-0.07987168 -0.009957984 -0.091992915 0.012396931 0.062338106 -0.07867944 -0.06665251 0.06373515
0.015254105 -0.04904537 0.056262717 0.03497685 -0.14196374 0.13750875 0.13149895 0.1304129
-0.0047433753 -0.10965658 -0.15739888 0.1432607 -0.03307999 -0.028326174 0.11214299 0.14044549

network_body._body_endoder.seq_layers.2.bias f4 [128]
00000000: 1625 79bc 70b2 983c 05b1 00bd 725b 863c
00000010: be52 3b3d c9cf 2bbd ee75 ed3c 8a57 edbc
00000020: 97a9 cbbc 5071 2dbd 3f3a 323d e37b 333d
00000030: f605 44bd b850 403d 8a26 553d 21f7 0f3d
00000040: 5851 04bd a432 81bc 446f cb3c 2a21 3a3d
00000050: 3ce5 31bd 6886 0d3d 2988 2ebd ecd6 5ebd
00000060: f5b6 18bd f285 a83c 46cf 40bc ccce 013d
00000070: 286e 813c 1668 4a3c 6a15 0cbc 7e34 dfbc
00000080: 8c5b a0bc f384 1fbd 0386 acbc fa23 e23a
00000090: 84c7 8c3c 6af2 8fbc 2487 b2bc 38a8 eebc
000000a0: 0a62 1c3d 2177 ebba 1354 2c3d 06c1 25bd
000000b0: f1cb c7bc 70c2 143d f4c3 11bc d0d9 903d
000000c0: 7bf0 5f3d 2b4a 0dbd e096 1c3d 8591 403d
000000d0: 0b35 573d 0bc4 b63c 0bd1 003d 8754 21bd
000000e0: a0fb 07bd 85c2 f73c 857e 893c 3c1e 90bc
000000f0: 321a 69bd 7cd3 91bb a3f9 973c 18fb 13bd
00000100: f0c4 aa3a 615c bfbc 8868 f4bc 275a 21bd
00000110: dca8 f33c 291e d0ba 80be 9c39 3823 2abd
00000120: 4647 d4bc 14b3 cb3c 3082 4dbd fa9a 8ebc
00000130: 1370 4d3a caf4 8a3d f047 fbbc a9ec 43bd
00000140: ae36 35bd 1438 b53c 5dd7 973c 3d98 9b3c
00000150: 9487 493d 0204 213d 5104 d9bb 1a7d 38bc
00000160: f98b 343d fd8e 8d3c 7277 f3bc 5261 ecbc
00000170: 0f10 113d 48da dfbc 8a18 543d 932b 103d
00000180: 0b7a 51bd 1bb4 88bc d832 173d ca53 8d3c
00000190: 8a52 f9bc c14d 1abc dcc7 0b3d bb4a 04bd
000001a0: f9d6 71bc 411f 7c3d 816d cdbc 367f ec3c
000001b0: fb99 e2bc 06c5 46bd c1f9 ad3c 869f 563d
000001c0: 7a5c 5c3d 0d06 7c3c e5bd e5bb 5416 293d
000001d0: f5d1 963c 403d 2bbd 7632 14bd 1801 c13c
000001e0: af25 753c 9d28 86bc c4f4 803a 2a11 883d
000001f0: 6a69 07bd 1f91 223b 40db 1ebd eb2f 123d
-0.015206596 0.018639773 -0.03141882 0.016401026 0.045733206 -0.041946206 0.028986897 -0.028972406
-0.02486114 -0.04234439 0.04351258 0.04381932 -0.047857247 0.04695198 0.052038707 0.03514779
-0.032304138 -0.015771218 0.024833329 0.045441784 -0.043431506 0.034552008 -0.04261032 -0.054404184
-0.037283856 0.020571683 -0.011768168 0.031691357 0.015799597 0.012353918 -0.008550027 -0.02724671
-0.019574903 -0.03894515 -0.021059996 0.0017253153 0.01718498 -0.017571647 -0.021792956 -0.029132947
0.038179435 -0.001796458 0.042072367 -0.040467285 -0.024389239 0.036318243 -0.0088968165 0.070727944
0.0546727 -0.03449456 0.038229823 0.04701378 0.05254082 0.022310277 0.03144936 -0.039387252
-0.033198953 0.030244121 0.016783962 -0.017592542 -0.056909747 -0.0044502597 0.018551653 -0.036128134
0.0013028663 -0.02335948 -0.029835 -0.039392617 0.029743604 -0.0015878129 0.00029896572 -0.041537493
-0.025912892 0.024865665 -0.050172985 -0.017407883 0.000783683 0.06784971 -0.03067395 -0.04783312
-0.0442416 0.022121467 0.01853531 0.018993491 0.049201563 0.039310463 -0.006622829 -0.011260295
0.0440788 0.017280096 -0.029720042 -0.028855 0.035415705 -0.027325764 0.051781215 0.035197806
-0.05114178 -0.016687443 0.036913723 0.017251868 -0.030434866 -0.009417952 0.034126148 -0.03229783
-0.014760726 0.061553244 -0.02507663 0.028869253 -0.027661314 -0.04852774 0.021237256 0.052398227
0.05379913 0.015382302 -0.0070111626 0.04128106 0.018410662 -0.04180646 -0.036180936 0.023560092
0.014962598 -0.016376788 0.0009838571 0.06643899 -0.033059515 0.0024805737 -0.03878331 0.03569023

action_model._continuous_distribution.log_sigma f4 [1, 2]
00000000: 98f2 46bc 81e8 0cbd
-0.0121428 -0.03440142

action_model._continuous_distribution.mu.weight f4 [2, 128]
00000000: 4ae3 873c 84f4 073c 1169 403b 6ee2 b53b
00000010: 9d8c f1bc c260 9f3c 302b f3bc 5986 d33c
00000020: 1c76 b13c a44e f03b 3d1c 97bc a1b7 98bc
00000030: a606 c13c b6fd babc a426 a0bc cf23 bbbb
00000040: ebaf 903c 82be 133d 9843 8a3a 7633 e3bc
00000050: a8ea e33c a518 eebc 105f 253c 5796 ba3c
00000060: 0a1b 293d 396e b1bc 8ba2 08bc 9913 1ebc
00000070: eead bfbc 3c32 e5bc 8621 78bc 3a57 2c3b
00000080: 66ba c33c 55e1 4e3d 0a8f a33c 530f fdbc
00000090: 364e bdbc 7580 083d a930 ca3a 8f8c 13bb
000000a0: a0e6 57bc f712 2dbc e23d 29bd fa5f ac3c
000000b0: b0c2 623c 3029 77bc d7d1 193d f1cc fdbc
000000c0: f718 8abc 6513 6b3d e7bb 39bd e111 4cbc
000000d0: 4e4d 86bc 8e64 2b3c d587 bebd 82a4 033c
000000e0: 7bf3 203d f3b0 13bd 3bf3 103c 6de4 deba
000000f0: c9e4 a13c 11a4 a23c 7782 a3bc c9a1 633d
00000100: 25ef 0c3d e682 d33c ad13 943c 235e 6f3d
00000110: 7100 953b f3d0 133b 8ce4 1c3c b437 1b3d
00000120: 2d3e b93b 6dbe 42bb 23ca 2e3c 7b06 2bbb
00000130: 73fb 68bc 00c3 c4bc 40b2 db3b 01a3 f23c
00000140: 8d2f 213d b620 b4bc a33d 26bc 103b 9d3c
00000150: eb11 07bd 7056 c9bc 4a53 8cbc 0dee 65bc
00000160: 2c01 8dbc 5b70 51bd a3cc 0f3d aa23 e73c
00000170: 1093 e3bc b48b e93b f631 bdbc b433 bfbc
00000180: c71b c13c a662 5d3d d263 0fbd 14fc 813c
00000190: 6732 fc3b 5c20 4b3d bde3 9aba a437 9c3c
000001a0: 6ff5 9f3c 8967 eebc 6bce 973c 0c97 f6bb
000001b0: 6639 893c b47a 763c d648 2cbb efd3 a6bc
000001c0: db98 d8bc 1a1b aa3c 3455 813c f44a 34bd
000001d0: 2b82 a4bc 4f33 463d 1f93 a63c 01cf edbb
000001e0: d29f a63a e297 0fbc 9b5e 83bc 38df fcbc
000001f0: cfae a93b 340b dabc 8bfe 153d 3063 93bc
00000200: 4796 e5bb c549 22bd bdeb bc3c 9519 11bd
00000210: 34b9 84bc 2e28 1a3c 24d1 d8bb ca54 353c
00000220: 84d2 1b3c d8f3 e23b 543e 13bd 086d 7fbc
00000230: d365 3c3c 2da0 b0bc 7c43 aebc 57ed 82bc
00000240: f88e 113d 910c 24bc 0033 f3bb c358 dabc
00000250: 3b58 af3c d2f5 0ebc b170 973b 16a6 cd3c
00000260: 82ef 933c b6d8 ac3b 54f5 d73c a8b3 1ebc
00000270: 1e0e ad3b c44d ad3b 5d58 d93c e965 5a3c
00000280: ebd0 3cba eeb8 803c 0736 223b 6737 d63c
00000290: 8d89 253b 3e55 9137 ff85 ca3c cd51 bc3c
000002a0: b00f 85bc 0301 203c e96f 0dbc a0f9 d43c
000002b0: 9aa2 4d3b 2397 44bc 5ad4 8cbc 006a c8bc
000002c0: 347d 41bc 32ce ea3c aae1 3bbc 1aaf c1bc
000002d0: 8d62 5ebc 706b edbc 8c4f e73b 7c61 c63c
000002e0: dd42 0e3d f7ed 43bc 6f34 d1bc 490e 6f3b
000002f0: 0686 8d3c 8a39 08bc 91a9 2e3a 78ba 673c
00000300: ede6 0dbd de4b 863c 480d ae3c 2a0b fb3c
00000310: 0aef 57bc cce0 87bc 8fba 193c 2b11 a83c
00000320: 6c45 a43b ccaa 1fbc a31b cc3c fab4 fb3c
00000330: 465f 753c 06c2 b2bc 1236 ed3c 31ca a33c
00000340: c5ea 7d3c 22fe 1b3b 4014 83bb 07ef e6bc
00000350: 7579 79bc a4b6 82bc 150a 943b 3da0 103c
00000360: e062 70bd 321d 1d3c 8a6f e13c 3cb5 833c
00000370: 88cf 10bd d12a a33b 791c bbbc d96b bfbc
00000380: fee7 543c 5608 e0bb bd9c 02bc a234 94bc
00000390: 5faa ca3c d7bd 6abc 9f1e 27bc 8c52 273d
000003a0: 147a b7bb 2256 25bd e10a 053d e977 d3ba
000003b0: cc09 933c d68f e63c be02 22bd 2679 70bc
000003c0: 5e0c 02bd cc2c ecbc 67e3 e9ba 5e11 76bc
000003d0: 8a94 49bb 23e4 ea3c bdee ab3c f1cc e5bc
000003e0: 586a 82bc 2936 273c b917 613c 84f7 38bd
000003f0: cc28 ea3b 1020 453c a82a 873c 83e9 26bd
0.016587872 0.008298043 0.00293595 0.005550674 -0.029485995 0.019455317 -0.02968368 0.025820898
0.021662764 0.0073335934 -0.018446082 -0.018642249 0.02356274 -0.022826057 -0.019549675 -0.005711056
0.01766201 0.036070354 0.0010548709 -0.0277345 0.027821854 -0.029064486 0.010093465 0.022776766
0.041285552 -0.021659004 -0.0083395345 -0.009648227 -0.023398366 -0.027978055 -0.015144711 0.0026297108
0.023892593 0.050507862 0.019965667 -0.030891096 -0.023108583 0.03332563 0.0015425879 -0.00225142
-0.013177544 -0.010563604 -0.04131878 0.021041859 0.013840362 -0.015085503 0.037553634 -0.030981513
-0.016857607 0.057391543 -0.045345213 -0.012455435 -0.016394284 0.010460986 -0.09303252 0.008034827
0.0392947 -0.036057424 0.008847053 -0.0017005332 0.019762414 0.019853624 -0.019959671 0.055574212
0.034407753 0.025819253 0.018075788 0.058439385 0.0045471718 0.0022554963 0.009575974 0.03789492
0.005653164 -0.0029715553 0.01066831 -0.0026096392 -0.014220106 -0.024018764 0.0067045987 0.029618742
0.03935199 -0.021988254 -0.010146531 0.019193202 -0.032976072 -0.02457735 -0.01712956 -0.0140338065
-0.017212473 -0.05113254 0.035107266 0.028215248 -0.027780086 0.0071272496 -0.023095112 -0.023340084
0.023572816 0.054049157 -0.035007305 0.01586727 0.007696438 0.049591407 -0.0011817139 0.0190695
0.019526212 -0.029102104 0.018531045 -0.0075253304 0.016751003 0.015043903 -0.002628853 -0.02036473
-0.026440075 0.020764876 0.015787698 -0.044016793 -0.0200816 0.048388775 0.020333825 -0.007257343
0.0012712425 -0.008764239 -0.016036322 -0.030868158 0.0051783095 -0.02661667 0.036619704 -0.017991632
-0.00700644 -0.039621133 0.023061628 -0.035424788 -0.016201593 0.009408994 -0.0066167284 0.011067579
0.00951064 0.006926041 -0.035948113 -0.01558996 0.011498886 -0.021560753 -0.021272413 -0.015982313
0.035536736 -0.010012762 -0.007421851 -0.026653653 0.021404376 -0.0087256 0.004621588 0.02510361
0.018058542 0.0052748574 0.026362099 -0.009686388 0.005281224 0.0052888114 0.026531393 0.013329961
-0.0007202762 0.015713181 0.002475144 0.026149465 0.0025258989 1.7325041e-05 0.024722097 0.022988224
-0.016242832 0.009765866 -0.0086326385 0.025997937 0.0031377436 -0.011998924 -0.0171911 -0.024464607
-0.011809636 0.028662775 -0.011467377 -0.023643065 -0.013573301 -0.028981894 0.0070590433 0.024216406
0.034731735 -0.011958591 -0.025537698 0.003647702 0.017275821 -0.0083145 0.00066628406 0.014143579
-0.034644056 0.016393598 0.021246567 0.030644972 -0.01317955 -0.016586684 0.009382858 0.020515999
0.0050131585 -0.009745311 0.024915522 0.030725945 0.014976328 -0.021821033 0.028956447 0.019993873
0.015497868 0.0023802598 -0.0040002167 -0.028190149 -0.0152267115 -0.01595623 0.0045178034 0.008827266
-0.058688045 0.00958948 0.027519006 0.01607763 -0.035354167 0.0049794693 -0.022840725 -0.023366855
0.012994764 -0.006836931 -0.00797194 -0.018091504 0.024739442 -0.014327488 -0.010200172 0.040850207
-0.0055992696 -0.040365346 0.032481078 -0.0016133758 0.017949007 0.028144758 -0.039553396 -0.014677322
-0.031750076 -0.028829955 -0.001784426 -0.015018789 -0.0030758702 0.028673237 0.020987863 -0.028051825
-0.01591985 0.010205784 0.013738566 -0.045157924 0.0071459766 0.01203157 0.016499832 -0.040750038

action_model._continuous_distribution.mu.bias f4 [2]
00000000: ccea ebbc 17cc 01bd
-0.028798483 -0.031688776

exp_avg f4 [128, 7]
00000000: 6e3b 23b8 0000 0000 0840 56b8 886d c6b8
00000010: 7660 6637 0000 0000 57b7 72b7 f812 03b8
00000020: 0000 0000 3a89 30b8 9cea a4b8 9f8b a636
00000030: 0000 0000 1826 bab8 0098 6332 0000 0000
00000040: 40fb 4ab5 c067 afb5 d417 e5b7 0000 0000
00000050: 2461 abb7 c865 8e36 0000 0000 f8e5 1037
00000060: d8f9 8537 71a0 d3b7 0000 0000 084b 6438
00000070: bc9c 4e37 0000 0000 24c2 6337 d8a2 da37
00000080: 9cca 0ab8 0000 0000 4e22 ccb7 70e7 eb37
00000090: 0000 0000 d056 2438 35fb 9538 486d 4538
000000a0: 0000 0000 b534 ed37 f458 feb8 0000 0000
000000b0: f0bd 29b9 7962 9db9 eac7 6db7 0000 0000
000000c0: 71b1 42b9 352a 5db8 0000 0000 553a 91b8
000000d0: f4dd 06b9 0ffa aab6 0000 0000 f82f 5eb8
000000e0: ff1e f737 0000 0000 1939 2038 b6bc 9438
000000f0: d5d4 bab7 0000 0000 9000 a0b5 1d16 ebb8
00000100: 0000 0000 e20a 1ab9 8b2c 8fb9 19c2 3536
00000110: 0000 0000 ff55 d3b8 ca89 8138 0000 0000
00000120: b072 b038 4687 2239 0569 34b7 0000 0000
00000130: 4339 5138 2753 80b7 0000 0000 75e4 9db7
00000140: 35b6 13b8 d2a3 6e37 0000 0000 8486 1a36
00000150: 784d 13b9 0000 0000 dc2c 4cb9 405e bcb9
00000160: 04db 34b8 0000 0000 bbb2 c0b9 ce12 18b9
00000170: 0000 0000 62f6 4bb9 e0a4 bcb9 e0ca 4ab8
00000180: 0000 0000 8138 73b9 82ad 33b6 0000 0000
00000190: 02b2 81b6 9c43 f0b6 352e ff35 0000 0000
000001a0: 9c4c 9936 8aec c4b8 0000 0000 3214 ffb8
000001b0: f0d2 6cb9 aec1 6f38 0000 0000 9867 5db7
000001c0: f87a 1636 0000 0000 34b8 8336 a88c e936
000001d0: 21e5 0b38 0000 0000 8c00 ca36 1257 9fb5
000001e0: 0000 0000 af53 05b6 860a 6eb6 f571 edb4
000001f0: 0000 0000 53a6 de36 b012 57b8 0000 0000
00000200: 3c03 8eb8 f85a 03b9 48ba 6fb8 0000 0000
00000210: b002 c1b8 a087 d8b7 0000 0000 d4ac 13b8
00000220: cabd 88b8 66c1 d9b6 0000 0000 f7c8 96b8
00000230: b4c1 b037 0000 0000 b947 ee37 e779 5b38
00000240: 5f3d d036 0000 0000 5765 1637 2c56 c0b7
00000250: 0000 0000 8a35 f8b7 7064 67b8 e783 8037
00000260: 0000 0000 de6b 8236 f891 dd37 0000 0000
00000270: 3a26 1438 5ac9 8a38 d0c0 03b8 0000 0000
00000280: bedf 5f38 9282 5db7 0000 0000 08b0 8ab7
00000290: 2c97 00b8 2ee0 8036 0000 0000 c3bb 8b37
000002a0: 21d7 8437 0000 0000 2ed5 a837 ba6e 1f38
000002b0: 4fb2 c5b6 0000 0000 190c 2238 fc2c 3f38
000002c0: 0000 0000 145b 8338 56a1 f138 96e1 2b38
000002d0: 0000 0000 18a2 7638 9e70 a9b8 0000 0000
000002e0: 7427 e4b8 2869 53b9 a410 6a37 0000 0000
000002f0: 55f4 f1b8 7cbf 5e38 0000 0000 14f7 9538
00000300: c2e6 0939 1017 3a38 0000 0000 9649 4b38
00000310: 694b 5cb8 0000 0000 813f 8fb8 6dbe 05b9
00000320: 0d99 5bb7 0000 0000 5493 2cb8 0300 58b8
00000330: 0000 0000 6585 88b8 846a 00b9 b4a4 0336
00000340: 0000 0000 1a27 b0b8 2005 5935 0000 0000
00000350: 7070 2136 e080 8836 f1c8 8b37 0000 0000
00000360: f729 7b37 2c32 01b9 0000 0000 9677 2cb9
00000370: 478b 9fb9 8cf9 61b8 0000 0000 bf5a 29b9
00000380: dd10 24b9 0000 0000 c2eb 55b9 9cc6 c6b9
00000390: 0791 97b8 0000 0000 72bf 14b9 0882 9037
000003a0: 0000 0000 9882 f737 8838 5f38 3098 6438
000003b0: 0000 0000 fae7 ab38 4a2a 2cb9 0000 0000
000003c0: 4e57 62b9 7e04 d2b9 cf0d c3b7 0000 0000
000003d0: 704b 05b9 9aef d438 0000 0000 8d09 1339
000003e0: b867 8639 6cd8 ce38 0000 0000 ca3d 2838
000003f0: 9ed4 02b6 0000 0000 fba4 08b6 8659 6bb6
-3.8917577e-05 0.0 -5.108121e-05 -9.4617775e-05 1.3731527e-05 0.0 -1.4467011e-05 -3.12505e-05
0.0 -4.2089472e-05 -7.863829e-05 4.9634396e-06 0.0 -8.876267e-05 1.32477e-08 0.0
-7.561648e-07 -1.3068711e-06 -2.7310023e-05 0.0 -2.0430023e-05 4.2437787e-06 0.0 8.636613e-06
1.5971178e-05 -2.5227871e-05 0.0 5.4429314e-05 1.2315049e-05 0.0 1.3575456e-05 2.6063455e-05
-3.309046e-05 0.0 -2.433467e-05 2.8121955e-05 0.0 3.9181497e-05 7.1516646e-05 4.7070236e-05
0.0 2.8277145e-05 -0.000121282326 0.0 -0.00016187853 -0.0003001874 -1.4172847e-05 0.0
-0.00018567384 -5.2729814e-05 0.0 -6.925004e-05 -0.0001286192 -5.0955055e-06 0.0 -5.29736e-05
2.9459128e-05 0.0 3.820015e-05 7.09234e-05 -2.2272035e-05 0.0 -1.1921093e-06 -0.00011209792
0.0 -0.00014690639 -0.00027308273 2.7084081e-06 0.0 -0.00010077282 6.1768646e-05 0.0
8.413696e-05 0.00015499917 -1.0753288e-05 0.0 4.9882812e-05 -1.529751e-05 0.0 -1.8822242e-05
-3.5217225e-05 1.4224048e-05 0.0 2.3026087e-06 -0.00014047872 0.0 -0.00019471667 -0.00035928376
-4.311932e-05 0.0 -0.00036754258 -0.00014502855 0.0 -0.00019451373 -0.00035980996 -4.8349495e-05
0.0 -0.00023195335 -2.6774073e-06 0.0 -3.8652224e-06 -7.160428e-06 1.9012429e-06 0.0
4.568674e-06 -9.390067e-05 0.0 -0.00012163109 -0.00022585294 5.716242e-05 0.0 -1.3196746e-05
2.242332e-06 0.0 3.9255483e-06 6.9603157e-06 3.3353575e-05 0.0 6.020133e-06 -1.1871764e-06
0.0 -1.9867255e-06 -3.547089e-06 -4.4227605e-07 0.0 6.6354783e-06 -5.12774e-05 0.0
-6.77169e-05 -0.00012527022 -5.715553e-05 0.0 -9.203458e-05 -2.5812362e-05 0.0 -3.520849e-05
-6.520336e-05 -6.4896185e-06 0.0 -7.18999e-05 2.1071035e-05 0.0 2.840521e-05 5.23272e-05
6.2060276e-06 0.0 8.964292e-06 -2.292831e-05 0.0 -2.9588835e-05 -5.516823e-05 1.532021e-05
0.0 3.8868593e-06 2.6413225e-05 0.0 3.532155e-05 6.6178574e-05 -3.1412404e-05 0.0
5.337572e-05 -1.3203027e-05 0.0 -1.6532853e-05 -3.0658368e-05 3.840795e-06 0.0 1.6657525e-05
1.5835803e-05 0.0 2.012643e-05 3.8011676e-05 -5.8918154e-06 0.0 3.8635077e-05 4.5579844e-05
0.0 6.2635314e-05 0.00011521827 4.097967e-05 0.0 5.8801932e-05 -8.0795246e-05 0.0
-0.00010879236 -0.00020161702 1.3951361e-05 0.0 -0.00011537286 5.310726e-05 0.0 7.1508955e-05
0.00013151302 4.4367334e-05 0.0 4.8467504e-05 -5.252232e-05 0.0 -6.8306e-05 -0.00012754808
-1.3089052e-05 0.0 -4.1145206e-05 -5.1498424e-05 0.0 -6.509832e-05 -0.00012246711 1.961639e-06
0.0 -8.399617e-05 8.084626e-07 0.0 2.4056317e-06 4.068119e-06 1.6663662e-05 0.0
1.49705365e-05 -0.00012321089 0.0 -0.00016447747 -0.00030430613 -5.387659e-05 0.0 -0.00016150902
-0.00015646541 0.0 -0.0002040109 -0.00037913478 -7.2272545e-05 0.0 -0.00014185699 1.7226688e-05
0.0 2.9505507e-05 5.3219992e-05 5.450117e-05 0.0 8.1971244e-05 -0.00016418952 0.0
-0.00021585563 -0.00040057668 -2.3252242e-05 0.0 -0.00012711971 0.00010153577 0.0 0.0001402257
0.00025635748 9.863157e-05 0.0 4.0111867e-05 -1.949527e-06 0.0 -2.036161e-06 -3.5069838e-06

exp_avg_sq f4 [128, 7]
00000000: fbb0 9433 0000 0000 ec7f b233 682f 5f34
00000010: 9cca 6834 0000 0000 aa66 4334 9412 1b33
00000020: 0000 0000 a347 5733 e473 2634 11a6 3b33
00000030: 0000 0000 e29c 4533 08c0 0b33 0000 0000
00000040: 2d5f 9333 1e29 1b34 6754 2834 0000 0000
00000050: 89aa 1534 7ff2 2333 0000 0000 a8f2 a133
00000060: e513 3634 8ae3 d533 0000 0000 3686 d833
00000070: 41db 9f32 0000 0000 ff4c 0233 7818 9c33
00000080: 90fb 8033 0000 0000 291d 7633 7abe c833
00000090: 0000 0000 2850 e733 2eb0 a134 eee4 af34
000000a0: 0000 0000 ef89 2734 a5bf c734 0000 0000
000000b0: b47d da34 74f8 bc35 421a 9e34 0000 0000
000000c0: b016 ec34 0f83 aa32 0000 0000 93f1 e732
000000d0: e39e b533 f69a 5e32 0000 0000 71e9 a132
000000e0: 91b1 e033 0000 0000 7be0 9434 9d7e cd34
000000f0: 580f a834 0000 0000 cb8f 0c35 b99f eb33
00000100: 0000 0000 2105 2134 f8ae f834 4825 f433
00000110: 0000 0000 b9ef 1a34 cefc d733 0000 0000
00000120: 7755 1134 9be6 c734 ea07 9334 0000 0000
00000130: 0c92 7634 4e3c d633 0000 0000 09bc fe33
00000140: abe5 6934 2580 5d34 0000 0000 c81d b734
00000150: feec 8935 0000 0000 ec11 b435 aa14 9d36
00000160: 2cae 3f35 0000 0000 eee4 b335 4fb7 e734
00000170: 0000 0000 c006 0d35 d3a5 f735 46fa 9634
00000180: 0000 0000 11a7 b634 960e ce33 0000 0000
00000190: e122 7734 5ac2 f834 a4c2 9134 0000 0000
000001a0: 71ac d134 052d 9033 0000 0000 bc73 d333
000001b0: b3df a134 9652 d933 0000 0000 7081 8e34
000001c0: 1baf 4033 0000 0000 129f 8d33 fbc1 6834
000001d0: ca68 4834 0000 0000 53cd 0034 9e57 a332
000001e0: 0000 0000 0a16 b932 d56e d332 d56e b432
000001f0: 0000 0000 f4b1 1533 9207 da33 0000 0000
00000200: cd21 5634 d808 0e35 60d1 9b34 0000 0000
00000210: a5aa 9434 4d8a f732 0000 0000 9fe0 3133
00000220: 9b95 0b34 b052 dd32 0000 0000 1e6f 1f33
00000230: f9ae 0c33 0000 0000 5939 b233 2474 5834
00000240: b7ae 3b34 0000 0000 0b37 aa33 8ed5 8133
00000250: 0000 0000 e4a2 ab33 ab27 6c34 1141 3034
00000260: 0000 0000 a931 2834 a0ff 0933 0000 0000
00000270: 1f50 4333 b973 0734 d7ce 7833 0000 0000
00000280: 173e 1534 0c61 4032 0000 0000 a7e2 a232
00000290: 4e73 6f33 bfbb 9633 0000 0000 171c c333
000002a0: 57b8 b033 0000 0000 79b3 4b34 c013 9f34
000002b0: 58e7 8d34 0000 0000 461b 8234 5d50 7c33
000002c0: 0000 0000 607b c833 f039 8634 58e8 4434
000002d0: 0000 0000 a2bc e033 9c3e 4834 0000 0000
000002e0: aa8b 7734 ce43 4135 e062 7b34 0000 0000
000002f0: 98c5 d434 a6dd 6233 0000 0000 5da9 7433
00000300: 6418 4134 c238 1834 0000 0000 e922 5933
00000310: c98f 0034 0000 0000 4617 4a34 2c4d bb34
00000320: 60b5 9434 0000 0000 ab8b b334 8dbc 8b33
00000330: 0000 0000 65a4 1c34 b674 9d34 d57e 0234
00000340: 0000 0000 619a 0834 e80a 2433 0000 0000
00000350: d785 a633 ff43 4234 ab8f 2c34 0000 0000
00000360: c8ab 0734 ce3b 7834 0000 0000 0e78 a334
00000370: efac 8935 1d75 8834 0000 0000 ce38 6d34
00000380: 0c72 0335 0000 0000 3ff0 6335 f7e3 f435
00000390: 82ad 4435 0000 0000 fb8d 6f35 cd05 6b34
000003a0: 0000 0000 c390 bf34 b85d 5b35 554c 3435
000003b0: 0000 0000 a429 dc34 e14a 3734 0000 0000
000003c0: 0807 8334 5f6b 5035 a076 0634 0000 0000
000003d0: 1f9b 2234 b300 ca34 0000 0000 8315 3935
000003e0: acd7 e335 6637 c535 0000 0000 9481 7135
000003f0: 1f46 bf34 0000 0000 a934 5b35 1d55 d835
6.9239796e-08 0.0 8.31204e-08 2.078574e-07 2.1680393e-07 0.0 1.8198139e-07 3.6105646e-08
0.0 5.012374e-08 1.5502116e-07 4.3690367e-08 0.0 4.601032e-08 3.253811e-08 0.0
6.862533e-08 1.4450458e-07 1.5676925e-07 0.0 1.3938747e-07 3.8171944e-08 0.0 7.5412856e-08
1.6957308e-07 9.9599745e-08 0.0 1.00826966e-07 1.8609741e-08 0.0 3.033801e-08 7.268767e-08
6.0062234e-08 0.0 5.730286e-08 9.347873e-08 0.0 1.0771356e-07 3.0116774e-07 3.2762858e-07
0.0 1.5603267e-07 3.7206078e-07 0.0 4.0697125e-07 1.4079401e-06 2.9448898e-07 0.0
4.3974933e-07 1.9850203e-08 0.0 2.7001795e-08 8.4573706e-08 1.2957335e-08 0.0 1.8849024e-08
1.0463112e-07 0.0 2.773048e-07 3.827635e-07 3.1303603e-07 0.0 5.236331e-07 1.09720936e-07
0.0 1.499616e-07 4.6320906e-07 1.1368917e-07 0.0 1.4429578e-07 1.00577026e-07 0.0
1.3535269e-07 3.7234426e-07 2.7386642e-07 0.0 2.2963667e-07 9.976121e-08 0.0 1.1862e-07
2.1783369e-07 2.0628848e-07 0.0 3.4108075e-07 1.0276269e-06 0.0 1.3416261e-06 4.6813702e-06
7.14065e-07 0.0 1.3403167e-06 4.3160478e-07 0.0 5.2536416e-07 1.8451195e-06 2.8121775e-07
0.0 3.4021699e-07 9.595276e-08 0.0 2.3016356e-07 4.633501e-07 2.7149974e-07 0.0
3.905475e-07 6.7137115e-08 0.0 9.846505e-08 3.015135e-07 1.0119872e-07 0.0 2.654374e-07
4.486274e-08 0.0 6.594759e-08 2.1677253e-07 1.8664574e-07 0.0 1.1995625e-07 1.9015541e-08
0.0 2.1546857e-08 2.4614033e-08 2.1005159e-08 0.0 3.4853613e-08 1.0152793e-07 0.0
1.99426e-07 5.291199e-07 2.902334e-07 0.0 2.7691308e-07 2.8817476e-08 0.0 4.1415316e-08
1.299981e-07 2.5765388e-08 0.0 3.7121133e-08 3.2755427e-08 0.0 8.2992024e-08 2.015882e-07
1.7479293e-07 0.0 7.926254e-08 6.045876e-08 0.0 7.992438e-08 2.1993644e-07 1.6414948e-07
0.0 1.5664286e-07 3.2130288e-08 0.0 4.5474845e-08 1.2614954e-07 5.793012e-08 0.0
1.3899295e-07 1.1197937e-08 0.0 1.8962352e-08 5.5751393e-08 7.01907e-08 0.0 9.0855046e-08
8.22917e-08 0.0 1.897114e-07 2.9630428e-07 2.643162e-07 0.0 2.423423e-07 5.8746412e-08
0.0 9.3356675e-08 2.50016e-07 1.8338449e-07 0.0 1.0465125e-07 1.8649229e-07 0.0
2.3054477e-07 7.199677e-07 2.3412167e-07 0.0 3.9631846e-07 5.2821314e-08 0.0 5.6964712e-08
1.7983399e-07 1.4176752e-07 0.0 5.0556e-08 1.1973238e-07 0.0 1.8821183e-07 3.4887614e-07
2.7699116e-07 0.0 3.344297e-07 6.506989e-08 0.0 1.4588439e-07 2.9328447e-07 1.2153335e-07
0.0 1.272215e-07 3.8194145e-08 0.0 7.754323e-08 1.8092395e-07 1.6071014e-07 0.0
1.2635348e-07 2.3118557e-07 0.0 3.0448467e-07 1.0257626e-06 2.5417185e-07 0.0 2.209301e-07
4.8967263e-07 0.0 8.4913694e-07 1.8245763e-06 7.3268177e-07 0.0 8.9241047e-07 2.1888191e-07
0.0 3.568185e-07 8.1720236e-07 6.7166303e-07 0.0 4.100849e-07 1.7070444e-07 0.0
2.4405767e-07 7.7642284e-07 1.2522878e-07 0.0 1.5143858e-07 3.762594e-07 0.0 6.8949174e-07
1.6975587e-06 1.4693767e-06 0.0 8.996806e-07 3.5627542e-07 0.0 8.166049e-07 1.6118025e-06

exp_avg f4 [128]
00000000: b015 dfb8 f6a2 b4b8 8082 00b5 a0b4 6437
00000010: 0400 0638 c259 a438 4abf aeb9 cd29 17b9
00000020: 633a a838 6392 a0b9 5529 3339 1ce4 2bb8
00000030: e8e9 ccb9 5249 d1b9 d44f fdb6 c601 86b9
00000040: f880 e336 bcb8 6cb6 4643 13b9 9cd1 95b8
00000050: d8a4 7338 19ba 82b8 f253 9838 1f24 15b8
00000060: cebc 3338 2897 0439 ba7c 69b9 0877 1939
00000070: dc19 16b9 afe1 11b9 20fe 4f36 4a88 b1b9
00000080: b2c2 dfb9 d0a6 5838 c76b ebb9 4cea 9339
00000090: 5122 a7b6 b3b9 6fb8 9091 61b8 607a 3436
000000a0: 8032 b4b8 9acc f037 8666 2438 5ed4 4b38
000000b0: 4ee9 b838 4a81 0838 5a9e c838 e09f ee36
000000c0: a04c c5b7 7c4f 3a38 34dd beb8 44a2 f537
000000d0: a464 4038 e8fa 2bb8 4006 ef37 400b c7b7
000000e0: a666 39b8 206d 74b8 1cd1 4938 1019 9035
000000f0: 348d 81b8 a78c 3db9 5798 a0b9 7cce ab38
00000100: 223a fdb8 d223 6cb9 d88f 0e39 5ac3 0738
00000110: a670 1b39 b0f1 8a38 e81a 99b9 18ef a1b8
00000120: 28ac 10b9 49c2 5f39 c055 d0b8 db70 18ba
00000130: 2462 ac36 faf3 2438 507e 0738 c8e9 9537
00000140: bbc0 2e39 5253 8a38 00c5 5ab6 4a38 03b9
00000150: 20c4 9837 8133 97b8 c85e bc37 facb bc37
00000160: f82d bbb9 7891 9fb7 bc97 0639 0850 4938
00000170: 6c43 c6b7 642d 63b8 4469 4539 e0ae e4b5
00000180: 2d47 de38 344c f438 3886 a1b8 8bd2 9939
00000190: 6874 38b9 7c13 6f38 747f edb8 a60c 7d37
000001a0: 3ca7 e638 ec78 12b8 ac62 ba38 e2c1 9937
000001b0: 0875 6d38 7a0d 8db9 4ac9 2b39 d0ff 4239
000001c0: 78e4 4db7 ae56 1bb9 a4b8 02b9 6527 ccb9
000001d0: 366d 14b8 ac4c a838 dbae ceb8 52e7 cdb9
000001e0: b46e 5fb9 bc97 47b8 ad30 a838 24d1 9ab8
000001f0: c0ae 3f37 ee55 95b8 3af0 cfb9 6846 6237
-0.00010637508 -8.613423e-05 -4.787362e-07 1.3631914e-05 3.1948104e-05 7.836848e-05 -0.00033330388 -0.00014416054
8.0217396e-05 -0.00030626645 0.00017086168 -4.098202e-05 -0.00039084186 -0.00039918214 -7.549281e-06 -0.00025559793
6.780141e-06 -3.527427e-06 -0.00014044074 -7.1439164e-05 5.8089237e-05 -6.2335464e-05 7.263561e-05 -3.555801e-05
4.2852764e-05 0.00012644811 -0.00022267076 0.0001463556 -0.00014314748 -0.00013912351 3.0993324e-06 -0.00033861614
-0.00042678934 5.165377e-05 -0.00044902993 0.0002821259 -4.980983e-06 -5.7154986e-05 -5.3779746e-05 2.6893322e-06
-8.592475e-05 2.8705505e-05 3.919613e-05 4.8596754e-05 8.81726e-05 3.2545337e-05 9.5662384e-05 7.1115646e-06
-2.3519911e-05 4.441988e-05 -9.101108e-05 2.9281837e-05 4.5870096e-05 -4.100325e-05 2.849393e-05 -2.3727887e-05
-4.4203036e-05 -5.8275764e-05 4.8116883e-05 1.073613e-06 -6.1775005e-05 -0.00018076842 -0.0003063108 8.192376e-05
-0.00012074808 -0.00022520058 0.00013595761 3.2368443e-05 0.00014823917 6.6253706e-05 -0.0002920248 -7.721613e-05
-0.00013797043 0.00021339314 -9.934185e-05 -0.00058151566 5.1374245e-06 3.9327868e-05 3.2304146e-05 1.7871047e-05
0.00016665731 6.5958724e-05 -3.25992e-06 -0.00012514103 1.821114e-05 -7.2098344e-05 2.2455482e-05 2.250633e-05
-0.0003570167 -1.9022016e-05 0.00012835761 4.799667e-05 -2.3634835e-05 -5.416329e-05 0.00018826599 -1.7038219e-06
0.000105990424 0.000116490206 -7.7020784e-05 0.000293393 -0.00017590972 5.7000187e-05 -0.00011324781 1.508292e-05
0.000109984045 -3.492173e-05 8.88755e-05 1.8329305e-05 5.6614197e-05 -0.00026903657 0.00016382817 0.0001859658
-1.2272147e-05 -0.00014814243 -0.0001246655 -0.00038939263 -3.538766e-05 8.0251455e-05 -9.855415e-05 -0.00039272994
-0.00021308177 -4.758661e-05 8.019931e-05 -7.382248e-05 1.1425174e-05 -7.120879e-05 -0.000396611 1.3487042e-05

exp_avg_sq f4 [128]
00000000: f80f 0c34 7312 4d34 cb29 8633 3760 0e34
00000010: e342 6533 c6df 2d34 e8d9 d335 dc92 e333
00000020: fbe2 3034 ebd7 1135 bfc7 ca34 372e d133
00000030: a2e6 b936 a080 1536 5a32 0a34 698c b134
00000040: 20fb 8933 14dd b932 d160 c734 87f9 1e34
00000050: 58cc 9033 9935 ee33 8732 0334 d6ec da32
00000060: 668f e133 3e70 8234 f1db 4935 ee8b 5c34
00000070: 67ba 6c34 ffcc 3534 fba4 8833 7995 a235
00000080: 60e2 a535 dbdd 1e35 ef6d 7b35 da2b 9335
00000090: 0315 f834 b8a7 9733 6c24 b235 413a 3633
000000a0: d60c 0334 e04f 9733 e1a4 4b33 336e 6733
000000b0: 0435 5034 ab24 4e33 4c75 4b34 a7b6 9033
000000c0: b2c1 1035 b28a 2233 faee 8d34 1ed6 3233
000000d0: d91a 0733 5a78 8934 9e6a 9c34 dd50 7434
000000e0: 24fc 7733 5bf5 fe33 8c67 3234 3cbc 9533
000000f0: f172 0e34 fd10 ac34 0f2a 4f35 1eb7 6d35
00000100: 2772 fb33 f40b e534 7bda b733 733a e533
00000110: 0afe 7f34 07d1 bd33 b268 2435 a57b bf33
00000120: 4b92 4835 b8af 7134 b9c3 b534 185d 6e36
00000130: f8ef 7133 00d6 a333 396f 9a33 1038 c632
00000140: 974e 9a34 3bbd c333 d38c 4934 69ba b133
00000150: 98da 4433 3505 f033 b583 a332 5fba 5732
00000160: d348 d135 c03d 6533 781d 2234 c990 0235
00000170: 9ddb 4833 315d f432 9bd2 7534 cce6 9b33
00000180: eef5 0634 ef2e 5534 d5fa 3734 01b6 ad35
00000190: ed82 1f34 6f39 0f34 7c55 2a35 6c1b cb32
000001a0: 79b2 3634 9760 0235 5a0c d033 78b1 ee33
000001b0: e6d0 0a34 6c3e cc35 976a 3c34 21d0 c134
000001c0: 7266 fd33 a812 de34 470f a534 585e 2035
000001d0: 7f28 c833 5b8c 3134 342d c533 1878 1136
000001e0: fceb 2f35 509c 5b34 1d87 bf33 4b37 2a35
000001f0: f7e9 6033 d426 8d33 6fc2 2636 e6e6 df32
1.3044325e-07 1.9098825e-07 6.247463e-08 1.3259783e-07 5.337905e-08 1.6193289e-07 1.5784144e-06 1.0597225e-07
1.6473852e-07 5.433091e-07 3.7770766e-07 9.740727e-08 5.540279e-06 2.22776e-06 1.287057e-07 3.307098e-07
6.425239e-08 2.163737e-08 3.7137082e-07 1.4805674e-07 6.7426924e-08 1.1092488e-07 1.2218707e-07 2.548624e-08
1.0503463e-07 2.4296054e-07 7.519839e-07 2.0540003e-07 2.2047026e-07 1.6931516e-07 6.363003e-08 1.2113443e-06
1.2359342e-06 5.918243e-07 9.366476e-07 1.0965116e-06 4.6208888e-07 7.061993e-08 1.3272634e-06 4.242816e-08
1.2204995e-07 7.0460146e-08 4.7414577e-08 5.3884104e-08 1.9390797e-07 4.7996462e-08 1.894852e-07 6.738747e-08
5.3926044e-07 3.7844707e-08 2.6437175e-07 4.1638593e-08 3.1456555e-08 2.5605806e-07 2.9134839e-07 2.2753689e-07
5.773849e-08 1.18724266e-07 1.6615212e-07 6.972593e-08 1.3266596e-07 3.2049857e-07 7.717471e-07 8.855585e-07
1.17088625e-07 4.266327e-07 8.561343e-08 1.0674275e-07 2.3841145e-07 8.83902e-08 6.124711e-07 8.9166214e-08
7.471869e-07 2.25088e-07 3.3856284e-07 3.5518951e-06 5.6330435e-08 7.6292054e-08 7.191415e-08 2.3075728e-08
2.8741917e-07 9.114816e-08 1.8770815e-07 8.2761126e-08 4.5833616e-08 1.1176818e-07 1.903559e-08 1.2557023e-08
1.5592908e-06 5.337438e-08 1.5098146e-07 4.8639464e-07 4.6765866e-08 2.8447717e-08 2.2894021e-07 7.259732e-08
1.2569191e-07 1.9854245e-07 1.7134455e-07 1.2942475e-06 1.485566e-07 1.3338807e-07 6.345433e-07 2.364478e-08
1.7014999e-07 4.856933e-07 9.6880015e-08 1.111502e-07 1.2928248e-07 1.5217352e-06 1.7547642e-07 3.6100485e-07
1.1799865e-07 4.1364297e-07 3.074476e-07 5.9741933e-07 9.320592e-08 1.653547e-07 9.18175e-08 2.1676587e-06
6.553598e-07 2.045283e-07 8.9187076e-08 6.3410397e-07 5.2366854e-08 6.572887e-08 2.4849103e-06 2.6065617e-08
